tasks/solution/a2d.pt (torch, 73195 bytes, 6 tensors)

weight f4 [128, 4]
0	0xbea0ebdd	-0.3142995
1	0xbe9e5fad	-0.3093237
2	0x3e98b507	0.29825613
3	0xbe5b613d	-0.21423812
4	0xbeef1a83	-0.46699914
5	0xbeceabe7	-0.40365526
6	0x3eb2872b	0.3486875
7	0xbef5ed75	-0.48032728
8	0xbde632e0	-0.112401724
9	0xbed38b24	-0.41317093
10	0xbe9a73d9	-0.3016651
11	0x3c5327eb	0.012887935
12	0x3eb1460a	0.34623748
13	0xbe3d4b83	-0.18485837
14	0xbc8f34a6	-0.01748116
15	0xbe822b2e	-0.25423568
16	0x3ed0ab87	0.40755865
17	0xbed3654f	-0.4128823
18	0x3de3271f	0.11091446
19	0xbdf25080	-0.118317604
20	0xbe25b853	-0.16183595
21	0xbe0f6a37	-0.14005361
22	0xbf0f7b9f	-0.56048006
23	0xbec2df1d	-0.38060847
24	0xbeee0a18	-0.46492076
25	0x3de62ba4	0.112387925
26	0xbe340439	-0.17579736
27	0x3f0aac95	0.5416959
28	0xbea4fcde	-0.32224172
29	0xbec76b51	-0.38949063
30	0x3ef0410f	0.46924636
31	0x3de5208f	0.11187851
32	0xbeb52458	-0.3537929
33	0xbeb5aaa0	-0.3548174
34	0xbe7ca7c5	-0.24673374
35	0xbec31bc8	-0.38107133
36	0x3dce1abf	0.10063695
37	0x3e331a88	0.1749059
38	0xbe498904	-0.19681174
39	0xbe164562	-0.14674905
40	0xbf05ac81	-0.52216345
41	0x3ea47979	0.32123926
42	0xbe616a95	-0.22013314
43	0x3d4684ba	0.04846642
44	0xbea21517	-0.31656715
45	0xbe85c095	-0.2612349
46	0xbec1de7b	-0.37865052
47	0x3eee912b	0.4659513
48	0xbe3edbd6	-0.18638548
49	0xbf03571c	-0.51304793
50	0x3c5b1970	0.013372764
51	0xbebc2a3b	-0.3675097
52	0xbe548e43	-0.20757394
53	0x3ee222ba	0.4416712
54	0xbeaf223f	-0.34205815
55	0xbeab768e	-0.33488888
56	0x3ed3fac5	0.4140226
57	0x3e3847a4	0.17996079
58	0xbe4bb948	-0.19894898
59	0xbe3b0f4b	-0.18267553
60	0xbd9104b1	-0.07080973
61	0x3e895ba1	0.2682772
62	0x3ee36869	0.44415596
63	0x3ea7cc7c	0.32773197
64	0xbe1de585	-0.15419586
65	0x3cfa62a9	0.030564623
66	0x3cc7b068	0.02437611
67	0x3eadcc5e	0.33944982
68	0xbd16536d	-0.036700655
69	0xbeb51928	-0.35370755
70	0xbebf91db	-0.37415966
71	0xbe6f6763	-0.23379283
72	0x3e097533	0.13423614
73	0x3e84aea3	0.25914487
74	0xbeb5150c	-0.3536762
75	0x3e60e4f9	0.21962346
76	0xbe90f8b6	-0.2831475
77	0x3ea6f709	0.32610348
78	0x3de957c2	0.113936916
79	0xbefb52fa	-0.49086744
80	0xbe1fc0b7	-0.15600859
81	0x3ed2a9cc	0.4114517
82	0xbedea65e	-0.43486303
83	0xbe9b54fd	-0.30338278
84	0xbe5a6d3b	-0.2133073
85	0x3da806c5	0.08204416
86	0x3db6cc44	0.08925679
87	0xbf0246f5	-0.5088952
88	0x3ebe5cf9	0.37180308
89	0xbe845740	-0.25847816
90	0xbe10c519	-0.14137687
91	0x3d407b57	0.046992626
92	0x3e462d98	0.1935333
93	0xbe4a665a	-0.19765607
94	0x3f2d9a18	0.67813253
95	0x3e77a08c	0.24182338
96	0xbef638c0	-0.48090172
97	0x3d2c3a1d	0.04204761
98	0xbe48f9f9	-0.19626607
99	0xbf10ba7b	-0.56534547
100	0xbef084f2	-0.4697643
101	0xbe165319	-0.14680137
102	0x3f020677	0.50791115
103	0xbefe6b9c	-0.49691474
104	0xbd9cf84b	-0.076645456
105	0x3e457583	0.19283108
106	0x3f3500e0	0.7070446
107	0x3dd714c0	0.105020046
108	0x3ec81b5d	0.39083377
109	0x3cd97771	0.026546212
110	0xbee49472	-0.44644505
111	0xbecb9f20	-0.3976984
112	0xbe0fe010	-0.14050317
113	0xbee13596	-0.43986195
114	0xbf27264c	-0.6529281
115	0xbdb2b69c	-0.08726236
116	0x3dfddb08	0.123952925
117	0x3e8b5fb6	0.2722146
118	0x3eceb4ca	0.40372306
119	0x3f0e2f87	0.5554127
120	0x3d9131d6	0.070895836
121	0xbd9f261e	-0.07770942
122	0x3f267ddb	0.6503579
123	0x3f1a7f40	0.6035042
124	0x3edab4fd	0.42716208
125	0xbd8707cc	-0.06593284
126	0xbf030d74	-0.511924
127	0xbea59f74	-0.32348216
128	0x3e2f4e41	0.17119695
129	0x3ead2064	0.33813775
130	0xbe85ee37	-0.26158306
131	0x3f0937c7	0.53600734
132	0xbda3e2f5	-0.08002273
133	0x3edbd74f	0.42937705
134	0xbea9e4a7	-0.3318226
135	0xbe3d0b73	-0.18461399
136	0x3ebd88be	0.37018389
137	0x3d8ffcba	0.07030626
138	0x3dcddeb0	0.1005224
139	0xbecc7595	-0.39933458
140	0x3dbfd3fb	0.09366604
141	0x3e0c58c9	0.13705744
142	0x3d406deb	0.046979826
143	0xbec6c097	-0.3881881
144	0x3cf25d6f	0.029585568
145	0xbece42f9	-0.4028547
146	0x3d6b56e5	0.057455916
147	0xbdd06fc1	-0.10177565
148	0xbe284c00	-0.16435242
149	0xbe3a28f2	-0.18179682
150	0xbe04945c	-0.1294722
151	0xbedeea1a	-0.4353798
152	0x3e04187e	0.12899968
153	0x3ef8442c	0.4848951
154	0xbe6519d4	-0.22373134
155	0x3e58ec42	0.21183875
156	0x3e664085	0.2248555
157	0xbd9d64ab	-0.076852165
158	0x3e4f28b2	0.20230368
159	0x3ed6b41a	0.41934282
160	0xbe92bd44	-0.28660023
161	0xbe8b1c64	-0.27170098
162	0x3cc6a0ac	0.024246536
163	0xbd4096d5	-0.047018845
164	0xbd48f48b	-0.04906134
165	0x3d1f8666	0.03894653
166	0xbf5253e5	-0.8215926
167	0xbf00f25c	-0.5036981
168	0xbd3e4fb3	-0.046462726
169	0xbea2b6cf	-0.31780097
170	0x3dd4ed3e	0.10396813
171	0x3efdb083	0.4954873
172	0x3dd88a70	0.1057328
173	0xbe94e065	-0.2907745
174	0x3e9c0572	0.30472904
175	0xbe3b21d0	-0.18274617
176	0x3ec69af6	0.387901
177	0x3efb0260	0.4902525
178	0x3dce7bd7	0.10082214
179	0x3e8215ef	0.2540736
180	0x3b5fe1da	0.0034161718
181	0x3dd754bb	0.10514208
182	0xbee4cbae	-0.44686645
183	0x3ca1d815	0.019756356
184	0x3edc08ca	0.42975456
185	0xbe97347e	-0.29532236
186	0x3c8f6b27	0.017507149
187	0x3f1c9e72	0.6117927
188	0xbe087950	-0.13327527
189	0x3e82f200	0.25575256
190	0x3e6f2400	0.23353577
191	0x3e66e0f5	0.22546752
192	0x3e002a2b	0.12516086
193	0x3dc25af5	0.09490005
194	0x3ee2cf8b	0.44298968
195	0xbe611487	-0.21980487
196	0xbe86222b	-0.26197943
197	0x3ef8108b	0.4845012
198	0xbe302a33	-0.17203598
199	0x3eaa1771	0.3322101
200	0x3ea955dc	0.33073318
201	0xbed837fb	-0.4223021
202	0xbecd4dff	-0.4009857
203	0xbef884c6	-0.48538798
204	0x3eb8f599	0.36124876
205	0x3e01c72f	0.12673639
206	0x3ee1902e	0.44055313
207	0x3eb20f63	0.34777364
208	0xbeb1f261	-0.34755233
209	0x3e077edb	0.13231985
210	0x3d824c84	0.063622504
211	0x3eb0f8a0	0.34564686
212	0xbeb2003c	-0.34765804
213	0xbe2ea301	-0.17054369
214	0x3edd7440	0.43252754
215	0xbe1fc087	-0.15600787
216	0xbe0ca2ae	-0.13733932
217	0x3d13827f	0.036013123
218	0xbe5cf116	-0.21576342
219	0xbce86fe3	-0.028373664
220	0xbe20e910	-0.15713906
221	0xbe2dc485	-0.16969498
222	0xbf3dfc80	-0.7421341
223	0xbf0284b3	-0.5098373
224	0x3b47786c	0.0030436767
225	0x3e3a5e1a	0.1819996
226	0x3e90eb40	0.28304482
227	0xbe6d7303	-0.23188405
228	0xbeae6f86	-0.3406946
229	0x3e97532c	0.29555643
230	0xbe8e0676	-0.27739304
231	0xbec0f825	-0.3768932
232	0xbd69ec5b	-0.05711017
233	0x3e11d8a8	0.14242804
234	0x3f2ba70f	0.67051786
235	0x3ee98589	0.45609692
236	0x3edf05e2	0.43559176
237	0x3e4703fc	0.19435114
238	0x3f0f58cb	0.5599486
239	0x3ec1a77a	0.37823087
240	0x3cd3dfe8	0.025863603
241	0xbee64c33	-0.4498001
242	0xbd2f30d4	-0.042771176
243	0xbf1c4e88	-0.6105733
244	0xbeb6c4b4	-0.35696948
245	0xbe2fb3a4	-0.17158371
246	0x3c8550d1	0.016273888
247	0xbef3cd51	-0.4761758
248	0xbe5f62bf	-0.21815012
249	0x3e8cd2ed	0.27504674
250	0xbee4ccdc	-0.44687545
251	0xbf01f032	-0.50757134
252	0x3d246730	0.04013747
253	0xbd026a90	-0.031839907
254	0x3dc23b20	0.094839334
255	0x3b697a00	0.0035625696

bias f4 [128]
0	0xbeccde7a	-0.40013486
1	0xbdb7f119	-0.089815326
2	0x3cf16915	0.029469052
3	0xbe937654	-0.28801215
4	0xbe39ebf4	-0.18156415
5	0x3da99428	0.08280212
6	0x3dff8e51	0.124783166
7	0x3daab0c8	0.083344996
8	0xbeae88a6	-0.3408863
9	0xbee8acd6	-0.45444363
10	0xbe9d4215	-0.3071448
11	0xbc59fcfb	-0.013304944
12	0xbdea6a01	-0.11446
13	0xbeffcc2f	-0.49960467
14	0xbeb948b9	-0.36188295
15	0x3eefee2d	0.468614
16	0x3c3f8f00	0.011691809
17	0x3ed265ad	0.41093197
18	0xbd7db898	-0.06194362
19	0xbe9c4a4d	-0.30525437
20	0x3e8c1fd9	0.27368048
21	0x3e1af052	0.15130737
22	0x3d453c50	0.04815322
23	0x3d35a6bf	0.044348475
24	0x3ec27142	0.37977034
25	0xbeed89bd	-0.46394148
26	0x3e93dd35	0.28879705
27	0xbe77d596	-0.2420257
28	0x3ef80407	0.48440573
29	0x3efea844	0.4973775
30	0x3efdb512	0.49552208
31	0x3e0ebdb8	0.1393956
32	0xbde92aaf	-0.113850944
33	0xbee9588c	-0.45575368
34	0x3e8deedf	0.27721307
35	0x3ead7ad5	0.33882776
36	0xbeb36711	-0.3503957
37	0x3ea6f1f4	0.3260647
38	0xbee4afba	-0.4466532
39	0x3e88cd36	0.26719064
40	0x3ee3ab03	0.4446641
41	0x3eadbe09	0.33934048
42	0x3d35c4c7	0.044377115
43	0x3de9a0e8	0.114076436
44	0xbe6c2a01	-0.23062898
45	0xbe59c9d6	-0.212684
46	0x3e0c5292	0.13703373
47	0x3ea46ce7	0.32114336
48	0xbdd1f310	-0.102514386
49	0x3e7d5684	0.24740034
50	0x3ea330e3	0.31873235
51	0x3e3617f9	0.17782582
52	0x3c1a1e94	0.009406704
53	0xbe86225b	-0.26198086
54	0x3ea54da2	0.32285792
55	0x3eac51c6	0.33656138
56	0xbedc7f5b	-0.43065915
57	0x3e120eaf	0.14263414
58	0x3e2d9f5b	0.1695532
59	0x3eece7e5	0.4627067
60	0x3ebdff79	0.37108973
61	0x3d54394e	0.051812463
62	0x3ea6a61b	0.32548603
63	0xbea6800c	-0.32519567
64	0xbea0f205	-0.31434646
65	0x3e61e5a0	0.22060251
66	0xbec0926c	-0.3761171
67	0xbebad241	-0.36488536
68	0xbee1a77d	-0.44073096
69	0x3e8feed2	0.28111893
70	0x3ea35264	0.31898797
71	0xbe4fbb9a	-0.20286408
72	0xbf04e5f6	-0.5191339
73	0xbe52ba75	-0.2057894
74	0xbe11efd9	-0.14251651
75	0x3ed40a72	0.4141422
76	0x3ee69a0c	0.45039403
77	0xbed9e5f3	-0.4255825
78	0x3e76319a	0.24042359
79	0xbe58bd63	-0.21165995
80	0x3d9174ea	0.07102378
81	0x3e34e5f9	0.17665853
82	0x3dcca8d4	0.09993139
83	0x3ecb603e	0.39721864
84	0x3ef3629f	0.4753618
85	0xbd7c579c	-0.06160699
86	0xbdfcc574	-0.12342349
87	0x3d9dd922	0.077074304
88	0xbd4ece15	-0.050489504
89	0x3dddbfd2	0.108276024
90	0x3e986021	0.2976084
91	0x3eed1ace	0.46309513
92	0xbe5c4130	-0.21509242
93	0xbdea31dc	-0.11435291
94	0x3d9236d5	0.07139365
95	0x3e0767e3	0.13223223
96	0xbea91e32	-0.3303085
97	0xbe0147da	-0.12625065
98	0x3d1cb869	0.038261805
99	0xbc33a3da	-0.010964358
100	0xbd01b036	-0.03166219
101	0x3ef8b048	0.48571992
102	0x3ec563cf	0.3855271
103	0x3d09409b	0.03350888
104	0xbe135c3a	-0.1439065
105	0xbe894e3e	-0.26817507
106	0xbf058484	-0.5215533
107	0x3e86f09d	0.26355448
108	0x3edc19eb	0.42988524
109	0xbef893f6	-0.48550385
110	0x3e9510e1	0.2911444
111	0x3ea29a59	0.31758383
112	0xbe252bbc	-0.16129965
113	0xbded611a	-0.11590786
114	0xbe495d39	-0.19664468
115	0x3e59e92e	0.21280357
116	0x3d494d00	0.0491457
117	0xbc33aa90	-0.010965958
118	0x3e7019b0	0.23447299
119	0x3e93893e	0.28815645
120	0xbe76cfee	-0.24102756
121	0x3eaff863	0.34369192
122	0x3dbf9be7	0.09355908
123	0xbeb5a426	-0.35476798
124	0x3e543276	0.20722374
125	0xbd765fe0	-0.060150027
126	0xbd8c594b	-0.06852969
127	0xbef6d353	-0.48208103

weight f4 [128, 128]
0	0xbc586ea9	-0.013209977
1	0x3d6fd635	0.058553893
2	0xbd9b9f79	-0.07598776
3	0xbd4b0664	-0.04956664
4	0x3d5bbd9a	0.053647615
5	0x3d894ee1	0.06704498
6	0xbb6d07be	-0.0036167945
7	0x3d16086a	0.036629118
8	0xbd952ad5	-0.0728356
9	0xbda9a825	-0.08284024
10	0xbd61af0a	-0.05509857
11	0x3bd5411f	0.006508007
12	0xbda3049a	-0.07959862
13	0xbd8d7356	-0.06906764
14	0x3d03ecec	0.03220837
15	0x3d86adf6	0.06576149
16	0x3c93e5c4	0.018053897
17	0xbd392a31	-0.045206252
18	0xbd2fa962	-0.042886145
19	0xbc12774e	-0.008939577
20	0xbd99d014	-0.07510391
21	0xbd29a922	-0.041421063
22	0xbceaca66	-0.028660964
23	0xbdbab5a0	-0.091166735
24	0x3d88e2e1	0.06683899
25	0xbd0e2eb4	-0.03471251
26	0xbd706d01	-0.058697704
27	0x3be74390	0.0070576146
28	0xbd3f8f73	-0.046767663
29	0x3cdb196d	0.026745522
30	0xbc4ed38f	-0.012623682
31	0x3baa8d57	0.0052048373
32	0x3d84f5c3	0.06492188
33	0x3db89ff3	0.09014883
34	0xbddc48f2	-0.10756101
35	0x3d9a91b7	0.07547324
36	0x3cea6ee4	0.02861733
37	0xbdb90ac2	-0.09035255
38	0xbcc6f924	-0.024288721
39	0xbd185ddc	-0.037198886
40	0xbd8a214c	-0.06744632
41	0xbd96d2a4	-0.07364395
42	0x3ca4887c	0.020084612
43	0x3d6405e0	0.055669665
44	0xbd47ea09	-0.048807178
45	0x3da78eb5	0.08181516
46	0xbdc4174e	-0.095747575
47	0x3d4f66dc	0.050635204
48	0x3d4d1473	0.05006833
49	0xbd84e325	-0.06488637
50	0xbcaf4e1b	-0.021399548
51	0xbd81ae0a	-0.063320234
52	0x3ba3e6f9	0.0050018993
53	0x3d61a809	0.05509189
54	0xbdc40479	-0.095711656
55	0x3d44d91b	0.04805861
56	0xbd3101a8	-0.04321447
57	0x3d22cf71	0.039748613
58	0xbdd8fcdf	-0.10595106
59	0xbc57bd4b	-0.01316769
60	0xbce2b5c8	-0.02767457
61	0xbc3e1ab6	-0.011603048
62	0xbc8651bf	-0.016396401
63	0xbcd56f2e	-0.026053991
64	0xbb1de7e0	-0.0024094507
65	0xbd20f47a	-0.03929565
66	0x3db80ee8	0.08987218
67	0xbcc0d4cc	-0.02353897
68	0xbdab9c9c	-0.0837948
69	0xbdd8fa9f	-0.10594677
70	0xbd661e7a	-0.05618141
71	0xbcc993fc	-0.024606697
72	0x3cb50d90	0.022101194
73	0x3cbfab5f	0.023397146
74	0xbd6702b8	-0.056399077
75	0xbd9202ca	-0.07129438
76	0x3cf430c0	0.029808402
77	0xbdc9d53d	-0.09855125
78	0xbd9c9e49	-0.07647378
79	0x3d24eda2	0.040265687
80	0x3da146f9	0.07874865
81	0xbd9741ce	-0.07385598
82	0x3bd44810	0.006478317
83	0x3d4f296b	0.05057661
84	0x3d2a8cc5	0.041638155
85	0x3c8832e0	0.016625822
86	0x3cea8a9b	0.028630545
87	0xbdc01bb6	-0.093802854
88	0xbdcb10c5	-0.09915308
89	0xbc8ace64	-0.016944118
90	0xbc4998b1	-0.012304471
91	0x3d61bbd6	0.055110775
92	0xbc64192a	-0.013922015
93	0xbda0afa1	-0.078459986
94	0xbdb86c70	-0.09005058
95	0xbd2eab42	-0.042643793
96	0xbd165c1d	-0.03670894
97	0xbda0befb	-0.07848927
98	0xbdcf2c6f	-0.10115897
99	0xbdb4cfac	-0.08828673
100	0x3d9cf3cc	0.07663688
101	0x3c13dca8	0.0090247765
102	0xbd225540	-0.039632082
103	0x3cd4121b	0.02588754
104	0xbd9c945e	-0.07645486
105	0x3cdf8b94	0.027288236
106	0xbd44dcb0	-0.048062027
107	0x3cf87a7e	0.030331846
108	0xbdd5b900	-0.104356766
109	0xbda6edba	-0.081508115
110	0x3bb4896d	0.0055095465
111	0xbcb45ff1	-0.022018405
112	0xbc85496c	-0.016270362
113	0xbcfb0f7a	-0.030647028
114	0xbdbff2ad	-0.093724586
115	0xbdadead2	-0.08492054
116	0xbbee0c57	-0.0072646546
117	0x3b5e46aa	0.003391663
118	0x3d70c0bd	0.05877756
119	0xbd2ab38a	-0.041675128
120	0xbd182254	-0.037142113
121	0x3c06388f	0.008192196
122	0x3d0f621c	0.035005674
123	0xbdb4d53b	-0.08829733
124	0xbd4e7b6e	-0.05041068
125	0xbb9b705c	-0.004743619
126	0xbd9a7720	-0.075422525
127	0xbd7df9f0	-0.062005937
128	0xbd03ebc8	-0.03220728
129	0xbd8f5f59	-0.07000608
130	0x3d2606cd	0.04053383
131	0xbd8c2f90	-0.06845009
132	0x3d6b459e	0.05743944
133	0xbd695d7c	-0.05697392
134	0xbd0ba04a	-0.03408841
135	0x3db59373	0.08866014
136	0x3a2dedf3	0.00066348835
137	0x3d013ed4	0.03155406
138	0xbdbea379	-0.09308524
139	0x3d92621e	0.071476206
140	0xbd0353e4	-0.032062426
141	0x3d32dca4	0.04366745
142	0x3c94107c	0.018074267
143	0x3d80dad6	0.0629174
144	0x3d19174f	0.037375744
145	0x3b550c3a	0.0032508508
146	0x3da90b0e	0.08254062
147	0x3d1e79c2	0.038690336
148	0xbc8d0f59	-0.017219232
149	0x3d103cc7	0.03521421
150	0xbc356160	-0.011070579
151	0x3db1afd3	0.08676114
152	0xbdfc7f3a	-0.12328954
153	0xbd1b2ae6	-0.037882708
154	0x3d232236	0.039827548
155	0x3da55f1c	0.08074781
156	0xbde4eb08	-0.11177641
157	0xbabd6593	-0.0014449827
158	0x3d9c2d4e	0.07625829
159	0x3d4c4631	0.049871627
160	0x3dc0a636	0.09406702
161	0xbca92d8f	-0.020651607
162	0xbd292741	-0.0412972
163	0x3d25a7aa	0.0404431
164	0xbdb7572d	-0.08952174
165	0xbe0909de	-0.1338267
166	0x3de1da80	0.11028004
167	0x3dfd81e3	0.123782896
168	0xbd627455	-0.055286724
169	0xbc474d77	-0.012164465
170	0xbd7a0128	-0.06103626
171	0xbd637fa7	-0.05554166
172	0xbb205390	-0.002446387
173	0x3c82da66	0.015973281
174	0x3ccb0965	0.024784753
175	0xba1b5d32	-0.0005926668
176	0x3c5dc231	0.013535068
177	0x3dcbd26a	0.09952243
178	0xbb5c336f	-0.0033599993
179	0x3d8253fa	0.063636735
180	0xbc1e5063	-0.00966272
181	0x3d003efd	0.03131007
182	0xbdbac12c	-0.09118876
183	0xbd17ab3a	-0.03702853
184	0xbc51a035	-0.012794544
185	0x3d3f7245	0.046739835
186	0x3e57026a	0.20997015
187	0x3ddaa895	0.10676686
188	0xbd3629f9	-0.044473622
189	0x3cbeb16b	0.023277959
190	0x3ca481bf	0.020081399
191	0x3bbb8eb0	0.005723797
192	0x3c8dbb1b	0.017301133
193	0xbdb951e5	-0.09048823
194	0xbcc5e19b	-0.024155429
195	0xbd6cf95e	-0.057855003
196	0xbb2dc34c	-0.002651411
197	0xbd18cf57	-0.03730711
198	0xbd92d5d2	-0.07169689
199	0x3d42c6c3	0.047552835
200	0x3d4fdc0a	0.050746955
201	0x3d643b57	0.055720653
202	0xbdb37925	-0.08763341
203	0x3bac63f6	0.0052609397
204	0x3d6ff9df	0.058587905
205	0xbd16d0f4	-0.036820367
206	0x3e379a2e	0.17929909
207	0xbdc9ba08	-0.09849936
208	0x3dbec2cd	0.09314499
209	0xbd0716ee	-0.03298085
210	0x3e378af7	0.17924105
211	0x3e0d14b6	0.13777432
212	0xbd6f2c98	-0.058392137
213	0x3be300aa	0.0069275694
214	0xbc94d521	-0.018168034
215	0xbbfca97b	-0.0077106333
216	0x3c974c57	0.018469019
217	0x3d7a0fca	0.061050214
218	0x3d5c9f29	0.053862724
219	0x3d046a32	0.03232784
220	0xbd965826	-0.07341032
221	0x3cb0a7d2	0.021564398
222	0xbddd4b9e	-0.108054385
223	0x3ca145e2	0.019686643
224	0xbdadc377	-0.084845476
225	0xbda56d0c	-0.0807744
226	0x3dc216aa	0.09476979
227	0x3d3fd781	0.04683638
228	0x3bf92ac4	0.007603975
229	0x3dc00ea2	0.09377791
230	0x3d054911	0.032540385
231	0x3dcf5dc9	0.1012531
232	0x3db53ea3	0.08849838
233	0x3ca9735b	0.020684889
234	0x3d658bc6	0.0560415
235	0x3d3d8a5e	0.046274535
236	0x3d3bb1dd	0.04582392
237	0xbbb59f9c	-0.0055427086
238	0xbd309e90	-0.043119967
239	0xbd6d1001	-0.05787659
240	0xbd68d95e	-0.056847923
241	0xbdc86b53	-0.097860955
242	0xbd723bf6	-0.059139214
243	0x3ada2d3a	0.0016645559
244	0x3bfd2d48	0.007726345
245	0x3d022193	0.0317703
246	0x3a3c6066	0.00071859953
247	0x3ca8d26b	0.020608148
248	0xbd1dcb5b	-0.038524013
249	0xbcd6d465	-0.026224324
250	0x3d1891b7	0.03724834
251	0x3ce960f3	0.028488612
252	0x3e1370b6	0.14398465
253	0x3cb5478d	0.022128845
254	0xbd16394f	-0.036675747
255	0x3d779ac6	0.060450338

bias f4 [128]
0	0xbd691de7	-0.056913283
1	0x3d7a0a80	0.06104517
2	0xbd719880	-0.058983326
3	0x3d9c0551	0.076182015
4	0x3db14ce5	0.086572446
5	0x3d575155	0.0525678
6	0xbd5abb88	-0.0534015
7	0xbd9b9847	-0.07597404
8	0xbd6d9b4a	-0.058009423
9	0x3d09275f	0.033484813
10	0x3dd517e4	0.104049474
11	0xbb32458c	-0.0027202098
12	0xbdbe6036	-0.092956945
13	0x3cb4cc5c	0.022070102
14	0x3c045d01	0.0080788145
15	0xbc4cf4b9	-0.012509518
16	0xbd539a17	-0.051660623
17	0x3d8be0ab	0.068299614
18	0x3d5dc3d6	0.05414184
19	0x3c9e6f68	0.019340232
20	0x3d95948b	0.07303723
21	0xbd384b75	-0.044993836
22	0x3d896d0c	0.06710252
23	0x3d8ad2c5	0.06778482
24	0xbd6f7dac	-0.05846946
25	0xbd99846d	-0.07495961
26	0x3d864005	0.065551795
27	0x3da53383	0.08066466
28	0x3d8d7a37	0.06908076
29	0x3ce9106e	0.028450217
30	0x3c962296	0.018327039
31	0x3c908ee9	0.01764627
32	0x3d6cbeaa	0.05779902
33	0x3cfa1e66	0.030532073
34	0xbd5c9cd2	-0.053860493
35	0x3d68a2be	0.056795828
36	0x3d9687a0	0.07350087
37	0xbd18fc52	-0.037350006
38	0x3dcc80ca	0.09985502
39	0x3cc2bb60	0.023770988
40	0xbcc4640d	-0.02397349
41	0xbbb395aa	-0.005480488
42	0x3cc6a7b2	0.024249885
43	0xbd108b38	-0.03528902
44	0xbdc31b23	-0.0952666
45	0x3d3543ab	0.044253986
46	0x3d4b28fc	0.049599633
47	0xbd27b9b4	-0.040948585
48	0x3cdc38d4	0.026882567
49	0xb93efeb9	-0.00018214704
50	0x3ca80a54	0.020512737
51	0xbcff4826	-0.031162333
52	0xbd83d34a	-0.064367846
53	0x3d9d3b39	0.076773115
54	0xbd8adf72	-0.067809
55	0x3d951b95	0.072806515
56	0x3c9cb836	0.019130807
57	0xbbd6d8b0	-0.006556593
58	0x3d0b5582	0.034017093
59	0x3dbb9f1d	0.09161208
60	0x3d707895	0.058708746
61	0xbda85c23	-0.08220699
62	0xbcf9a5f3	-0.030474639
63	0x3daef92f	0.08543622
64	0x3ddfd698	0.109296024
65	0x3bf5d454	0.007502118
66	0x3d815b5a	0.06316252
67	0xbc0b8bc6	-0.008517211
68	0x3dcfcbaf	0.101462714
69	0xbd124358	-0.035708755
70	0x3c4d76ee	0.012540562
71	0x3dc4508d	0.09585676
72	0xbd906b1f	-0.07051682
73	0x3a0afb0f	0.0005301693
74	0xbd910ca3	-0.070824884
75	0xbdd94a44	-0.10609868
76	0x3b86951a	0.0041071298
77	0xbc396ec1	-0.01131791
78	0xbd5095fc	-0.050924286
79	0x3c3e0d41	0.01159984
80	0xbd691fbc	-0.05691503
81	0xbdce6e06	-0.10079579
82	0xbd2126b8	-0.039343566
83	0xbdb2bfa1	-0.087279566
84	0x3dace90f	0.0844289
85	0xbd8bc45a	-0.068245605
86	0xbd9a0b6c	-0.0752171
87	0xbd14791b	-0.036248308
88	0x3d612a6f	0.05497211
89	0x3ba9a800	0.005177498
90	0x3d904c88	0.07045847
91	0x3b5f3513	0.0034058734
92	0xbd51c2e6	-0.05121126
93	0xbcbc1fd0	-0.022964388
94	0xbc18e18d	-0.009331119
95	0x3d1df5b6	0.038564406
96	0x3d39ffc9	0.04540995
97	0xbd61975f	-0.055076
98	0x3d0dd940	0.034631014
99	0xbd24cbb7	-0.04023334
100	0x3d85883e	0.06520127
101	0x3cda1844	0.026622899
102	0xbd45544e	-0.048176102
103	0x3dd9ac42	0.10628559
104	0x3d8f11ce	0.06985818
105	0xbd593cbe	-0.053036444
106	0xbcfe26f5	-0.031024436
107	0xbad04b42	-0.0015891569
108	0x3db49572	0.08817567
109	0x3d25b533	0.04045601
110	0xbd7531af	-0.059861835
111	0xbcc6a496	-0.024248403
112	0xbd0ff3c1	-0.03514457
113	0x3d671aa6	0.0564219
114	0x3db97e97	0.09057348
115	0x3d8ef692	0.06980623
116	0x3d6178c9	0.05504683
117	0x3d3011e0	0.042985797
118	0xbd460ec7	-0.048353937
119	0xbbe36819	-0.0069398996
120	0x3d2ea0ec	0.042633936
121	0xbcb3c7de	-0.02194589
122	0x3d61c8c5	0.05512311
123	0x3c80432b	0.015657028
124	0xbd4e2e7a	-0.050337292
125	0xbdbbd92b	-0.09172281
126	0x3da232a3	0.079198144
127	0xbcc67db4	-0.024229862

weight f4 [2, 128]
0	0xbd316d8a	-0.043317355
1	0xbd9d1bec	-0.07671341
2	0x3ca34f9f	0.019935427
3	0xbdbe3bf2	-0.092887774
4	0xbdd3f99b	-0.10350343
5	0xbc7aeb11	-0.015314833
6	0x3df8e84a	0.121536806
7	0xbdb97d1f	-0.09057068
8	0x3d16b210	0.036790907
9	0x3ca58c7b	0.020208588
10	0xbd7a6e98	-0.061140627
11	0x3d8ad904	0.06779674
12	0x3d55f649	0.05223683
13	0x3e1fe051	0.15612914
14	0x3c52c909	0.012865313
15	0x3dd4f37c	0.103980035
16	0xbd74cfb9	-0.059768412
17	0x3db6cfee	0.08926378
18	0xbd97c62d	-0.07410846
19	0xbde1ab78	-0.11019033
20	0xbde07d55	-0.10961405
21	0x3dcbcc8e	0.09951125
22	0x3d8ee839	0.06977887
23	0xbe59a05d	-0.2125258
24	0x3cd5d322	0.026101653
25	0x3ca6052f	0.020266144
26	0xbd951a31	-0.07280386
27	0xbe3be524	-0.18349129
28	0xbe031dad	-0.12804289
29	0x3ce0e730	0.027453989
30	0xbdd4b025	-0.103851594
31	0xbd99617f	-0.07489299
32	0x3dc2ca85	0.09511284
33	0x3d10d41e	0.03535854
34	0xbc0e740f	-0.008694663
35	0xbd985fc3	-0.0744014
36	0xbe192308	-0.1495477
37	0xbd31d582	-0.043416508
38	0xbdd130b2	-0.10214366
39	0xbd80bed3	-0.06286397
40	0xbe243561	-0.16035987
41	0xbdf62089	-0.12017924
42	0x3d7f97bb	0.06240056
43	0xbc6dcb32	-0.014513778
44	0x3d8b8bc3	0.06813767
45	0xbdcdb723	-0.10044696
46	0xbcdddf0a	-0.027083892
47	0xbe2957d9	-0.16537417
48	0xbdd3f1eb	-0.103488766
49	0xbd8abddf	-0.06774496
50	0x3e0adc2e	0.13560554
51	0x3dffaa87	0.124836974
52	0xbd8e1953	-0.06938424
53	0xbde6a70c	-0.112623304
54	0x3da4911b	0.08035489
55	0xbddac656	-0.10682361
56	0xbcb04beb	-0.021520576
57	0x3da1cbf3	0.07900228
58	0x3d0bb928	0.034112126
59	0xbdd1e557	-0.10248821
60	0xbd87c824	-0.06629971
61	0xbbf3a2bd	-0.0074351714
62	0x3d05bee6	0.032652758
63	0x3db4dbde	0.08830999
64	0xbde2d704	-0.11076167
65	0x3d893477	0.0669946
66	0x3cb99caa	0.022657711
67	0xbd94ffa4	-0.07275322
68	0x3e293a2b	0.16526096
69	0xbdd9eda0	-0.106410265
70	0x3d509a25	0.050928254
71	0xbe2e8e4c	-0.1704647
72	0x3d4085db	0.047002655
73	0xbd65e3d9	-0.056125496
74	0x3cc25d86	0.023726236
75	0xbd86a439	-0.06574292
76	0x3cf6a0cb	0.030105969
77	0xbddddfd7	-0.1083371
78	0x3db8b3c3	0.09018662
79	0xbcdce478	-0.026964411
80	0x3e06f17b	0.13178055
81	0x3ceca746	0.028888356
82	0xbc6dbefb	-0.014510865
83	0x3d7c3e43	0.061582815
84	0x3e022e57	0.1271299
85	0x3d539430	0.051654994
86	0x3d956d81	0.07296277
87	0xbc9ba8c0	-0.019001365
88	0xbd41cd92	-0.047315188
89	0xbd9d414a	-0.076784685
90	0x3d83e56c	0.06440243
91	0xbcdf4f7c	-0.02725958
92	0x3cb29b8f	0.021802692
93	0xbc69a021	-0.014259369
94	0xbe09daf3	-0.13462429
95	0x3c028108	0.007965334
96	0xbd139668	-0.03603211
97	0x3dacc5e8	0.08436185
98	0x3dd77494	0.105202824
99	0xbcbf640b	-0.023363134
100	0x3c2deb67	0.010615206
101	0xbca5d6cc	-0.020244025
102	0x3cce7e88	0.02520682
103	0xbe001d9b	-0.12511294
104	0xbd95acd5	-0.07308356
105	0xbd8f29ef	-0.0699042
106	0xbe543975	-0.20725043
107	0xbdd1b047	-0.102387
108	0xbdb3d2e9	-0.08780462
109	0x3da5d1e4	0.08096674
110	0x3d80527b	0.06265732
111	0xbd8fb30f	-0.070165746
112	0xbe1db0dc	-0.15399498
113	0x3d5120c7	0.05105665
114	0x3df788ee	0.12086664
115	0x3da3b8e0	0.079942465
116	0xbe07c8a5	-0.13260134
117	0x3d914142	0.07092525
118	0x3d6c2228	0.05764976
119	0x3d038861	0.032112483
120	0x3d16f112	0.036850996
121	0x3d94687d	0.07246492
122	0xbe492e59	-0.19646586
123	0xbb59670d	-0.0033172995
124	0x3d0bfd6e	0.034177236
125	0xbc414f04	-0.011798624
126	0xbdc8ccb1	-0.09804667
127	0x3d65416d	0.055970598
128	0xbccd5317	-0.025064034
129	0x3da66900	0.08125496
130	0x3df2b50e	0.1185094
131	0x3e2fa540	0.17152882
132	0x3e2e872d	0.17043753
133	0xbca08860	-0.019596279
134	0xbe13a006	-0.14416513
135	0x3db7e782	0.089797035
136	0x3d0eee87	0.034895446
137	0xbc9a695a	-0.018849064
138	0x3e3d553c	0.18489546
139	0x3d40e4c0	0.047093153
140	0x3d833a69	0.06407625
141	0xbd050eda	-0.032484867
142	0xbc902eae	-0.017600384
143	0xbe0d759d	-0.13814397
144	0x3c9ec5c3	0.01938141
145	0xbe0f23e5	-0.13978536
146	0xbd7afd4c	-0.06127672
147	0x3e220232	0.1582115
148	0x3db55a08	0.08855063
149	0xbda56c9b	-0.080773555
150	0xbd7a4ad2	-0.06110651
151	0x3e3f5461	0.18684532
152	0x3c75839d	0.014984992
153	0xbd8cd358	-0.06876248
154	0x3e30ef31	0.17278744
155	0x3e170e24	0.14751488
156	0x3df350fd	0.11880682
157	0x3d774494	0.060368136
158	0x3e4742df	0.19459103
159	0x3a082888	0.0005194028
160	0xbdfb6a88	-0.122761786
161	0xbcff30a4	-0.031151123
162	0x3d2ed02d	0.042679
163	0x3e5dcdaf	0.21660493
164	0x3d7ba600	0.061437607
165	0xbd27b3f3	-0.040943097
166	0x3e2165bf	0.1576147
167	0x3e459d3e	0.19298264
168	0x3de258ba	0.110520795
169	0x3db9abf7	0.09066003
170	0xbdecfe7b	-0.11571976
171	0x3d5d6cc4	0.054058805
172	0x3d83f4e7	0.06443196
173	0x3dd2838b	0.10278996
174	0x3a4d7cd4	0.000783873
175	0x3d0332f5	0.03203102
176	0x3d973dea	0.07384856
177	0x3b109f8a	0.002206775
178	0xbd4f2bec	-0.050578997
179	0xbcd2409b	-0.025665572
180	0xbc041307	-0.008061177
181	0x3ddd8c4b	0.108177744
182	0x3bdacc54	0.00667719
183	0x3e0aade3	0.13542895
184	0xbc889245	-0.01667131
185	0x3d905ad3	0.07048573
186	0x3c4ab254	0.012371618
187	0x3dd708ff	0.10499763
188	0x3dce17aa	0.10063107
189	0xbd8eb6c1	-0.06968451
190	0x3c15f638	0.009152941
191	0xbe32105a	-0.1738905
192	0x3e009c6c	0.1255967
193	0xbd147b53	-0.036250424
194	0x3c44989e	0.011999277
195	0x3da6c77a	0.08143516
196	0xbe14ec2b	-0.14543216
197	0x3e3e8aad	0.18607588
198	0x3d87dc60	0.0663383
199	0x3e3f1d28	0.18663466
200	0xbdda35e7	-0.10654812
201	0x3d9bd079	0.076081224
202	0x3da7f55e	0.08201097
203	0x3cb3d012	0.021949802
204	0x3c19e68c	0.009393346
205	0x3e12061e	0.14260146
206	0xbdf63c45	-0.12023214
207	0x3e26cbcd	0.16288681
208	0xbd2154f6	-0.039387666
209	0x3cf05fe7	0.029342605
210	0xbd10af1c	-0.035323247
211	0xbb924d21	-0.004464761
212	0xbce06a0a	-0.027394313
213	0xbdcbbd41	-0.09948207
214	0xbd236dbe	-0.03989958
215	0xbdbbe071	-0.09173668
216	0x3cf66cbb	0.030081144
217	0x3db18ed4	0.086698204
218	0xbe16073d	-0.14651199
219	0xbd5d2141	-0.05398679
220	0x3d19c0d2	0.037537403
221	0x3d2458a7	0.040123608
222	0x3e06993e	0.13144395
223	0xbd7add7b	-0.061246376
224	0x3e1a113a	0.15045634
225	0xbd991ce8	-0.074762166
226	0xbde2c174	-0.110720545
227	0x3d51c625	0.051214356
228	0x3c13562a	0.008992711
229	0x3e3e2167	0.1856743
230	0xbd9a4763	-0.07533147
231	0x3e490045	0.19629009
232	0x3dba6f2b	0.09103235
233	0x3d1ea746	0.038733743
234	0x3d3f4811	0.046699587
235	0x3e534983	0.20633511
236	0x3e007ffb	0.1254882
237	0xbe248de9	-0.1606976
238	0xbcb4ffb0	-0.022094578
239	0xbd99090a	-0.07472427
240	0x3e06785b	0.1313185
241	0x3d8e25a3	0.069407724
242	0xbdc1575a	-0.09440489
243	0xbd59e5fc	-0.053197846
244	0x3dff7604	0.124736816
245	0xbc1b69e6	-0.009485697
246	0x3d31bc13	0.043392252
247	0x3ce92b23	0.028462952
248	0xbe076c7a	-0.13224974
249	0x3d28e39a	0.041232683
250	0x3e2660e6	0.16247901
251	0x3d68d253	0.056841206
252	0x3bee973f	0.0072812135
253	0xbd1e95dd	-0.03871714
254	0x3d189be4	0.037258044
255	0xbd711f74	-0.058867887

bias f4 [2]
0	0xbd7d097f	-0.061776634
1	0xbd6d713e	-0.057969324
