tasks/solution/b2d.pt (torch, 73003 bytes, 6 tensors)

weight f4 [128, 4]
00000000: 688b 873c 001f 443d 2dfb eabd efca 79be
00000010: cc5d cebd 6292 5f3d 6da5 773d 8ba5 91be
00000020: 2eee 783d da77 cb3d 1e53 10bf 668d 283d
00000030: e38e 4ebe bd0d de3d cd86 123e 991f 20bd
00000040: b7c1 44be 6cc9 703e c56a 9cbe e8aa 673d
00000050: c957 f0be b1e1 a9be 1523 4fbf aca3 8abe
00000060: a3dc 03bf 1e86 00bf 6e6c 74bf c5c0 a4be
00000070: 8caf 443c d423 193d 4306 ef3f e499 063e
00000080: a3e5 c83d 6bd4 fdbd 24a7 bdbe 24c0 883d
00000090: c0de 6cbe ee10 b03e 74c7 f33e cd44 523e
000000a0: 1e8b 1fbe 854b 13bf 3ced 78bf 91da d5be
000000b0: 864e f9bd f0fb 563e 1a5a d83e 7714 3b3e
000000c0: 57c4 a93d 6a3b 35be f906 043f 6631 30be
000000d0: 21a2 fc3c 5d84 7fbd 7f2a fabd 5c15 2fbe
000000e0: 69af e9be 4fb9 9c3c a993 6fbe db66 3f3d
000000f0: 6fff 6cbe 404c 71be a7bf 433f a8f2 d53d
00000100: a0e1 263d 9f60 dcbd c73e c2bf 76cf 78be
00000110: 9234 d5be ee1d 94be f4ab 61bf 343f 66be
00000120: c159 863e b82d 8fbe 8f04 bdbe d7b8 bcbe
00000130: d664 923e d150 d83e e2cb 853f 6235 9f3e
00000140: 6c2c 203f 9734 2b3e ea1b a7be dacc 1a3c
00000150: 3d3c b23e 641c d33e 1f91 a43f 0ab6 983e
00000160: 7f13 c8be 567c fd3d 12d4 febe 071b 073e
00000170: b028 803d 7d2a 8ebc d3c2 b9bf ed7b 6ebe
00000180: aa45 e1be e9f3 2cbe 6f93 54bd 6016 61bd
00000190: 5f7f a4be e1cc e6bb abc3 973f 3e41 9a3d
000001a0: 344a bfbd 41b5 243e d85a 0e3f c610 1abe
000001b0: fa4c 62bd 8204 473e afc4 a9bd 1505 c9bd
000001c0: e911 adbe 9345 8d3e 5a6f c7be ddd7 403e
000001d0: 4c3d 9abe be62 b33e fdda 163e 88db 933e
000001e0: 46d6 7ebc 5493 a13d 281c 3c3f 3201 fc3d
000001f0: a5f7 3a3c 0389 853d 4b7f 663e aec9 db3b
00000200: be5f 9b3d d89f 09be b19d c3be 8204 8cbc
00000210: 0975 413e fa1f a3be 7e37 e1be 9072 54be
00000220: 62a2 b23e afbd 083f ce18 9b3f 0712 eb3e
00000230: a036 773e 98a3 db3e 11c8 8f3e 39ad ae3e
00000240: 29fc 223d d32f adbd 1418 e4bf 4e4e 87be
00000250: 1674 d1bd 9085 b93d 2cae d6bd 8031 93bd
00000260: 1399 2bbd 249b f43d e2e4 27bf 7021 0b3e
00000270: ed3a f63d 3fd6 a2bc 27ff 1cbf edb2 903e
00000280: 5922 50bd 187c 97be e382 143f c4bf 8abe
00000290: e315 0e3f 6169 0e3e a1f6 373e 6b59 03bc
000002a0: 6e68 9ebc 82fe cb3b 259f 0c3f 4cbe 943a
000002b0: 11f0 273e a825 ddbc 5ffc 97be 733b f8bc
000002c0: e188 c83e 499d 15be 202a 8d3d 5882 b8bd
000002d0: a49e 4d3e 1020 2b3f 8a56 1640 335c 0a3f
000002e0: e8bb a63e 1cb0 e4bd 7874 633d a950 84be
000002f0: 632f 9c3d 6d31 58be 57a9 2bbf 5a15 3bbe
00000300: f316 ed3e e8c6 23be 366f 123f 3b61 a2be
00000310: 8503 243d 863b 33bd c404 d1bf 125f 4ebe
00000320: 2cd9 acbe 463a a4bd 4f64 37bf 0c82 43bd
00000330: a81b 5bbc 4b48 2cbb 7fe5 0ac0 b387 22be
00000340: e808 11be c139 5dbe 6121 93bd 3a39 f7bd
00000350: bb02 9dbe 8d81 07bb b519 7e3f 1307 003e
00000360: bdf4 54be 294f d2be fe0b 5c3f 39fd eabd
00000370: 31ac 513e 6afc 4cbe 0ad8 eabc 66b3 e5bd
00000380: 87fb 023e c438 51be b893 67bf 2bb9 49be
00000390: 13a9 85be 7e4f b43e 0904 2d3e 60b6 433e
000003a0: bf56 653e babf b4be 661d 84bf b8c4 76be
000003b0: a804 b2ba 4360 a6b8 daa0 05c0 e87d 64be
000003c0: c92c 2d3d dd7a f3bd 3b2b c53f 54c8 133c
000003d0: d696 cc3c 35bc 243c 32b4 0cbf c031 29bc
000003e0: 64ca 8fba 6e48 e13d b494 f33f b970 993e
000003f0: 6957 2ebc 3b88 db3d a28a af3f d53d 873e
0.016545966 0.047881126 -0.11473689 -0.2439382 -0.10076484 0.05458296 0.060460497 -0.28446612
0.06077402 0.09934969 -0.56376827 0.041150473 -0.20171694 0.10842464 0.14309235 -0.039092634
-0.19214521 0.23514336 -0.3055021 0.056559473 -0.46941975 -0.3318 -0.80912906 -0.27077997
-0.5150854 -0.50204647 -0.9547795 -0.3217832 0.012004744 0.037387684 1.8673786 0.13144642
0.09809425 -0.12394031 -0.3704158 0.06677273 -0.23131847 0.34387916 0.47613108 0.20534058
-0.15580413 -0.5753711 -0.9723699 -0.41768315 -0.1217318 0.20994544 0.42256242 0.18269525
0.08289402 -0.17698446 0.5157314 -0.17206344 0.030839028 -0.06238209 -0.12215137 -0.17097992
-0.4564164 0.01913133 -0.23396172 0.04672895 -0.23144315 -0.23564243 0.76464313 0.10446674
0.040742517 -0.107606165 -1.5175408 -0.2429789 -0.4164167 -0.28929085 -0.88153005 -0.22485048
0.26240352 -0.27964568 -0.3691754 -0.36859772 0.28592557 0.42249158 1.0452845 0.31095415
0.6256778 0.1671928 -0.32638484 0.0094482545 0.34811583 0.41232598 1.2856787 0.29826385
-0.39077374 0.12377231 -0.49771172 0.13193904 0.062577605 -0.017354244 -1.4512581 -0.23289461
-0.43998462 -0.1688992 -0.051898416 -0.05495298 -0.32128426 -0.0070434664 1.1856588 0.07531975
-0.09340325 0.16084768 0.55607367 -0.15045461 -0.05524919 0.19435313 -0.082894675 -0.098154224
-0.33802727 0.27592143 -0.38952142 0.18832345 -0.3012489 0.35036272 0.14731975 0.28878427
-0.015554016 0.07889429 0.73480463 0.123049155 0.011411582 0.065202735 0.22509496 0.0067073917
0.07586621 -0.13439882 -0.38206246 -0.017091993 0.18892302 -0.31860334 -0.4398765 -0.20746827
0.34889513 0.53414434 1.2116945 0.4591219 0.24141932 0.4289825 0.28082326 0.34116533
0.03979126 -0.08456387 -1.7819848 -0.2642693 -0.1022722 0.09058678 -0.104824394 -0.07187176
-0.04189403 0.11943653 -0.6558362 0.13586974 0.12022958 -0.019877551 -0.6132683 0.2826151
-0.050814006 -0.29586864 0.5801222 -0.2709943 0.55502146 0.13907386 0.17965175 -0.008016924
-0.019336905 0.006225408 0.54930335 0.0011348217 0.16400172 -0.026995495 -0.2968473 -0.030301785
0.3916693 -0.14610781 0.068928 -0.09009236 0.20080048 0.668458 2.349032 0.54046935
0.32565236 -0.11166403 0.055530995 -0.2584279 0.07626226 -0.21112604 -0.6705527 -0.18269864
0.4630657 -0.15993845 0.57200944 -0.31714806 0.04004242 -0.043757938 -1.6329579 -0.20153454
-0.3375944 -0.08018927 -0.71637434 -0.047731444 -0.013373293 -0.0026288207 -2.1702573 -0.15872078
-0.14163554 -0.21604063 -0.07184101 -0.12071462 -0.30666146 -0.0020676584 0.99257976 0.12502699
-0.20796485 -0.4107602 0.859558 -0.1147408 0.20475842 -0.20018163 -0.028667469 -0.11215858
0.12791263 -0.2043181 -0.90459776 -0.19699542 -0.26105556 0.35216898 0.1689607 0.1911254
0.22396372 -0.35302526 -1.0321472 -0.2409848 -0.001358171 -7.933427e-05 -2.0879426 -0.22313654
0.04227904 -0.11888669 1.5403818 0.00901993 0.024974268 0.010054638 -0.54962456 -0.010326803
-0.0010970351 0.11000143 1.9029756 0.29968813 -0.010640957 0.10719343 1.3714182 0.26414362

bias f4 [128]
00000000: 4d85 183f ac5d 3cbf 5027 2b3f 19d6 0abf
00000010: e112 f33e ec7d 39bf 2370 6bbf 9eb9 b7be
00000020: c1a1 c63e d7f7 fd3e 776a e8bc 5d32 e6be
00000030: e140 9abe 456d 893e bd6e 65bf b2b9 81be
00000040: 2c51 babe d97b 3dbf a194 113f cd78 2bbf
00000050: a942 633e dee8 45bf 5dbd 09bb 2ba3 e8be
00000060: e8b7 63be fbf5 d0be cbb7 273f 5bb8 1ebf
00000070: cda8 ce3b a21a 303f 4463 80be 0e50 0e3f
00000080: a6d8 aa3e a829 123f 9650 92be 2f7e a6be
00000090: ff00 cfbe 086b 02bf 7072 a2be 9d47 343f
000000a0: 8983 ff3e 1444 a03d 7ea2 7cbe c752 e2be
000000b0: 6bfc 62bf 7781 3dbf d382 51bf 36d3 3dbe
000000c0: c05a 993d 6e5d b6be a53a 54bf 3be4 c8be
000000d0: 2f66 44be e3bc 33bf d361 25be e655 173f
000000e0: 9498 ecbe ee0d 083f ace4 36bf 6d77 9ebe
000000f0: 745c 07bf b29e 24be 5fab 0ebf 8213 ebbe
00000100: 257f 293f 00fb 03bf 9020 2fbe ad79 26bf
00000110: 89e3 dfbd 6c15 0bbf 5104 c3be 735e 4abf
00000120: 481b 903e 3a8a 03be 890a 9bbe c3f2 2dbf
00000130: 6840 53bf bdad 5bbe 0e30 59bf a1be 913e
00000140: f38e 3c3f 0fb5 8cbe 19e7 a9be cb91 f8be
00000150: 09c5 cd3e dd71 9e3e 133f 2bbf 0a82 c53e
00000160: c163 debe 7750 b6bc 9501 2cbf df1e 39be
00000170: d796 17bf e01e c0be 38f2 22bf 3580 10bf
00000180: 20f1 01bf e892 a9be 644a 40bf cf3c 943e
00000190: 44de babe f41d d93e d1d2 e2be 12a3 4cbd
000001a0: a648 4bbd c84a 84be e7dd d3be 18c4 313f
000001b0: 3199 1fbf bf5b 63bf f8e7 083e e91e 1e3f
000001c0: f8ca 613e 8e2e d03e 1957 483e d83a e4be
000001d0: 737e 16bf 246d 3cbf c8aa 1ebf 88b3 1fbe
000001e0: 4158 3ebf fc72 3f3f 8290 01bf d74a 083f
000001f0: 059b 9dbe 2eb6 053f ac69 3dbf 7783 23be
0.595784 -0.7358043 0.6685686 -0.5423294 0.4747534 -0.72457767 -0.9196798 -0.35883802
0.38795283 0.4960315 -0.028371079 -0.449603 -0.30127624 0.2684118 -0.896221 -0.25336987
-0.36390054 -0.740171 0.56867415 -0.669812 0.22193398 -0.7730845 -0.002101741 -0.45436987
-0.22238123 -0.40812668 0.6551482 -0.62000054 0.0063067437 0.6879064 -0.25075734 0.55590904
0.33368415 0.5709481 -0.28577107 -0.32518145 -0.40430447 -0.50944567 -0.31727934 0.70421773
0.4990504 0.07825485 -0.24671361 -0.4420378 -0.8866641 -0.7402567 -0.81840247 -0.18537602
0.07488012 -0.35618156 -0.82901984 -0.39236626 -0.19179605 -0.70210093 -0.16150598 0.59115446
-0.46210158 0.53146255 -0.71442676 -0.3095049 -0.5287545 -0.16076162 -0.5573024 -0.4591332
0.6620963 -0.5155487 -0.17102265 -0.6502941 -0.10932071 -0.5432956 -0.3808923 -0.7905037
0.28145814 -0.12845698 -0.30281475 -0.6794855 -0.8252015 -0.21452995 -0.8483895 0.2846575
0.73655623 -0.27481887 -0.33184126 -0.4854873 0.40189388 0.30946246 -0.6689312 0.38575774
-0.4343548 -0.022255166 -0.67189914 -0.18078183 -0.5921454 -0.37523556 -0.63650846 -0.5644563
-0.5075855 -0.33119893 -0.7511351 0.28952643 -0.364977 0.42405665 -0.44301465 -0.049960203
-0.04962983 -0.25838304 -0.41380236 0.6943984 -0.62343127 -0.8881187 0.13369739 0.61765915
0.22050083 0.40660518 0.19564475 -0.44576144 -0.58786696 -0.73604035 -0.6197934 -0.1559583
-0.74353415 0.7478483 -0.50611126 0.53239197 -0.30782333 0.5223111 -0.7398937 -0.15968119

weight f4 [128, 128]
00000000: 2dcb 583e 8141 c23d 32ad 9f3e f462 26bf
00000010: fecf 873e 933f febe d272 29be fccf 57bf
00000020: 0eba 953e 40b0 533e 3409 de3e 556c 5cbd
00000030: 12eb c63b 8d54 683d d487 49bf 4a27 80bd
00000040: e16e a0bd 15e3 58bf 3ea5 413e 5466 31bf
00000050: b9e8 453e 7692 e2be 7a69 d83d 4ae3 90bf
00000060: 2768 72bd 0814 723c 12e8 0f3e 32c2 183e
00000070: 6dac c8bb cb96 953e ad82 24bd 4f5b 9c3e
00000080: 73f1 f83d 64a2 b03e 1c51 e6bc b504 89be
00000090: 3a20 67bf e3ac 0fbb 612c 383d 65c5 b93e
000000a0: bab7 7f3e c839 9636 6fa3 acbd 1ca9 81be
000000b0: 89fb 62bf 4776 393d eefd 66bf ef70 62be
000000c0: c8b0 6a3e 2fe6 01c0 af5b 1abf 0527 d4bf
000000d0: d1c3 933d 0ec4 b6bf b7cb 05be 5ea3 af3e
000000e0: 4e71 50bf 935d 4d3e 9018 5ebf 7628 5bbf
000000f0: 16e0 90bf c44a 75bc b47b c4bf 9fcb a6bf
00000100: 6fb5 a53e a23f 963d 1587 0cbf 9910 cabe
00000110: 7336 2e3e f41c a4bf 6804 503e 4259 a6be
00000120: 4afb 493d 8264 45bd ffe9 a3be ea16 5dbe
00000130: 29cb b6be f1f0 f93d fbdc 80bd e5d3 663e
00000140: 01e3 ac3e d920 913d 458c febd 4286 f2bf
00000150: a65b 013d 47a4 66be ffb1 4bbe a51e 7a3d
00000160: cf75 8dbc dbad f53d 4882 8ebf 12f3 b23e
00000170: 97d4 3fbe 7f66 0e3e 0364 6abe 04bf 48bc
00000180: 849d bfbe f70d 92bd 04f5 dbbe 0fea 833d
00000190: 2261 04c0 c34c 993e 210d 21bd 194e 093d
000001a0: 9b8d 6c3d e96a 4b3e e6f5 2bbe e053 4c3e
000001b0: 8f63 96bd 2f30 8fbf 7b9b 0e3e c2c7 a43e
000001c0: 29e5 b93d 86fb a7bd 595e bbbd 8efe 96bf
000001d0: 6b89 efbc a496 32bf bae6 d8be 2e00 1fbe
000001e0: 5fe3 5ebf 6b06 a93e 9f86 89bf d1c7 5b3e
000001f0: c6f3 0a3e 062a 903e bcb6 54bf 8aa6 65bc
00000200: 21a9 0f3e b25a 27be 0034 3f3e ee39 14bf
00000210: a11f af3d dfd9 24bf 2735 a7be 1279 82bf
00000220: 91e3 323e ced3 d73d 8b30 383e 39ae 273e
00000230: 14c0 35bd b0cf 033e 0f22 c6be ee36 303c
00000240: 6780 5abf 8e74 88bf b863 0d3e 30ae 70bf
00000250: 44e1 213e b4c2 1cbf e28b e23d d302 4abf
00000260: 5356 cfbd 68c9 fdbc 14fb 6e3e 0441 fb3d
00000270: 307d 443d 5723 243e 6051 9bbd 2199 7f3e
00000280: 9b4f 1d3e 1b81 353e 29bf 223d fdf4 a5bd
00000290: 2c2f 87bf 87fe a1bd f849 693d 0210 6f3e
000002a0: 144d cd3d deab a73d ecb8 18bc 72ad 47be
000002b0: 0e78 6abf a0aa aabe 6ba3 48bf 3a91 8fbd
000002c0: a273 23bc 1aec d1bf 33a7 4bbf e7b6 b0bf
000002d0: 134a 033e 8f90 79bf 06b5 adbc b39a 673e
000002e0: 3cfb 4fbf 7052 0e3e 7309 34bf 68e2 d2be
000002f0: 5661 b8bf af7c e9bd 681b d9bf 00a9 acbf
00000300: 9a7d 6e3e 1ebd e7bd 2fcb 4bbe 4d92 94be
00000310: adcf 2fbe f158 4bbf 58f1 09be 7d2a e93b
00000320: 4870 a53d 8ffb 213d 80a7 85be c8f4 21bf
00000330: 7f7c 05bf 0683 bcbd 6d92 26be a0b9 6c3d
00000340: 49fa 8b3e c159 8d3c 33ed 7ebd 5ede 01c0
00000350: a126 c63d 428c 63be 5e0e c1bd 310c a43c
00000360: 9c8e cdbc 6ddf 96bd 24fb 58bf e88c d13d
00000370: 4c92 a1be b34d 32bd 4cfe 3dbe a90d e2be
00000380: 74c6 23bf 0aa6 01bd ecfd 40be 9aad bd3d
00000390: 3189 03c0 7ec6 253e 55b9 c9be 3e17 0dbd
000003a0: 8066 50bc 8cb0 493e be96 54be 2ffd 6e3e
000003b0: 7b8b 35be f21f 46bf f4ae e13d c303 6f3e
000003c0: 9d12 55bd a8e7 a5bd a197 e9bc 79a0 bebf
000003d0: 2a8b 5ebc 1546 36bf 66b4 e9be 90a0 8dbd
000003e0: 65b2 0cbf caaf 533e 0ecf b9bf 7f0b c53d
000003f0: 2ac4 093d 82d3 713e 966c f9be edbc cebb
0.21171255 0.0948515 0.31186825 -0.6499474 0.26525873 -0.49657878 -0.16547707 -0.84301734
0.2924351 0.20672703 0.43366396 -0.05381425 0.006070503 0.05672126 -0.7872288 -0.06257494
-0.078336485 -0.847215 0.18910691 -0.69296765 0.19327058 -0.44252366 0.10566993 -1.1319363
-0.05918136 0.014775284 0.14053372 0.1491783 -0.0061240704 0.29216608 -0.040163685 0.30538413
0.12155428 0.34498894 -0.028114848 -0.26761404 -0.9028355 -0.0021923117 0.044964198 0.36283413
0.2497243 4.477075e-06 -0.0842961 -0.25324333 -0.8866506 0.045278814 -0.90231216 -0.22113393
0.22918999 -2.0296743 -0.6029615 -1.6574408 0.072150834 -1.4278581 -0.13065992 0.34304327
-0.8142289 0.20055227 -0.8675623 -0.85608613 -1.1318386 -0.014971439 -1.5350251 -1.303089
0.32364985 0.07336356 -0.5489362 -0.39465788 0.17012958 -1.2821336 0.20314181 -0.32489973
0.049311914 -0.048191555 -0.32014462 -0.21590772 -0.35701874 0.12204159 -0.06292149 0.22541769
0.3376694 0.07086343 -0.12429098 -1.8947222 0.031581543 -0.22523604 -0.19892119 0.06106438
-0.01726809 0.11996051 -1.1133509 0.34951073 -0.1873344 0.13906287 -0.22889714 -0.012252573
-0.37424862 -0.0713157 -0.4296037 0.064411275 -2.0684285 0.29941377 -0.03931916 0.033521745
0.057752233 0.19865002 -0.16793022 0.19953871 -0.07343208 -1.118658 0.13926499 0.32183653
0.09076912 -0.08202271 -0.09148855 -1.1796434 -0.02924033 -0.6976111 -0.4236353 -0.15527412
-0.8706569 0.3301271 -1.0744208 0.21462943 0.13569555 0.2815706 -0.8309133 -0.014016757
0.14029361 -0.16343191 0.1867218 -0.57900894 0.085509546 -0.64394945 -0.3265774 -1.0193198
0.17469622 0.105384454 0.17987268 0.16375054 -0.044372633 0.12872195 -0.3869786 0.010755284
-0.85352176 -1.066057 0.13807571 -0.9401579 0.15808588 -0.61234593 0.11061837 -0.7891056
-0.10123887 -0.030979827 0.23337966 0.1226826 0.04797095 0.16029106 -0.075838804 0.24960758
0.15362398 0.17725031 0.039733086 -0.081033684 -1.0561271 -0.07909875 0.056955308 0.2334595
0.10024467 0.08187078 -0.009321433 -0.19499758 -0.9158944 -0.33333302 -0.78374356 -0.07010122
-0.0099762995 -1.6400177 -0.79552 -1.3805817 0.12821226 -0.97486204 -0.021204483 0.22617607
-0.8124273 0.13898635 -0.7032692 -0.4118836 -1.4404705 -0.11400735 -1.6961489 -1.3489075
0.232901 -0.11315368 -0.19901727 -0.2901787 -0.17169066 -0.7943259 -0.13470972 0.0071156607
0.080780566 0.039546546 -0.26104355 -0.6326413 -0.5214309 -0.09204678 -0.16266795 0.057794213
0.2733939 0.017254712 -0.06223793 -2.0291972 0.09675337 -0.22221473 -0.094265684 0.020025345
-0.025092416 -0.07366834 -0.8475821 0.10231954 -0.31556928 -0.04353113 -0.18554038 -0.44151047
-0.6397469 -0.031652488 -0.18846864 0.092616275 -2.0552485 0.16189 -0.3939921 -0.034445994
-0.01271975 0.19696254 -0.20760629 0.2333877 -0.17728989 -0.77392495 0.11019698 0.23341279
-0.052019704 -0.081008255 -0.028514685 -1.4892722 -0.013582984 -0.71200687 -0.45645446 -0.069153905
-0.5495971 0.20672527 -1.4516313 0.09621333 0.033634342 0.2361584 -0.48715657 -0.006309143

bias f4 [128]
00000000: 0cfb bb3e 59c4 ce3e 08b7 ff3e 9d73 8f3d
00000010: b13d 0c3d 9015 f23c 5287 6e3d 46d7 c83e
00000020: 299d a7bd 00ba a33e af80 f03e dfb0 8dbc
00000030: 4014 863e 191c 7fbc 9b0d ae3e 1639 bd3e
00000040: 2e99 3fbd 733f a3bb adb5 bcbd e988 023f
00000050: 12aa fd3c ecb9 e73e 70f9 0a3d 33bf 2ebd
00000060: ab94 e03e c5da debd 2687 aabd a6e9 8abc
00000070: 0b87 833e f8ce bb3e a297 b23e a47d de3e
00000080: 8030 d1bd 59ed 07bd fd58 b33e 938d 63bc
00000090: 32b2 f83e 7c6f cd3e 8b04 47bd 4e2f a93e
000000a0: d478 cb3e 90b2 7ebc 6ecd c23e e181 d93e
000000b0: e66f d13e 94ef e93e ac21 943c b6ae 8c3d
000000c0: f3be aa3e 12aa a83e d720 84bd 4e91 b83e
000000d0: 859b f8bd 9eee b5bc 91b1 e73a ec08 793c
000000e0: fa29 c3bd 88c8 9cbd bde8 a6bc 9c68 f73e
000000f0: 1fd3 823e 6f9e 10bd 8538 7dbd 957d b53e
00000100: af73 723e b54a 48ba 230a eabb 9c25 a53e
00000110: 418e be3e 7b28 8dbd 225f db3e 1028 8bbd
00000120: 6059 b73e e72c 9d3e d205 063f a12b 8abb
00000130: 29f2 b43e 0e6e a4bd bbdf f33e 1df9 883c
00000140: b3fa d03e 3b1a a13c 736b c43e b3bf 9bbd
00000150: 665c a63e 2147 bc3e 2e55 f33c d83c 3abc
00000160: 4356 cd3e f6a3 edbd 6df9 ed3e 9f68 113e
00000170: 42ac a13e 22c5 d23e cf1e ca3e 5c7d 803c
00000180: b23a 813e 3851 45bc 5c01 d1bd f48c 4c3b
00000190: 2ab4 0dbd 95e1 1f3d 060e 6bbd 1835 c83e
000001a0: 799e 63bd b9bc ed3c 3707 8dbc 394a f53c
000001b0: f2bc 003f 9a28 f33c d7ac ffbc d7b8 93bd
000001c0: 7d6a 433c 523a e83e 6bc8 863e 4857 43bd
000001d0: 96d4 c43e d320 58bd 9ed7 e23e 3b15 d63c
000001e0: b332 05be 7879 d73e 23f3 bbbc 9820 86bd
000001f0: b592 51bd d9ea 12bd e639 843e 391b cabd
0.3671497 0.40384176 0.4994433 0.07004473 0.03423852 0.029551297 0.05823452 0.3922674
-0.08184273 0.31977844 0.46973178 -0.017296253 0.26187325 -0.015570664 0.33994755 0.36957616
-0.046776943 -0.004981929 -0.092143394 0.5099016 0.030964885 0.45259035 0.03392929 -0.04266281
0.43863425 -0.10881571 -0.08326559 -0.016957115 0.25688967 0.36681342 0.34881312 0.4345523
-0.10214329 -0.033185337 0.3502883 -0.013888734 0.48573452 0.40124118 -0.048588317 0.33043903
0.39740622 -0.015545502 0.38047355 0.42481902 0.40905684 0.45690596 0.018082462 0.06869261
0.33348808 0.32942253 -0.06451576 0.3604836 -0.12139038 -0.022208508 0.001767682 0.015199881
-0.09529491 -0.07655436 -0.02037465 0.48321998 0.25551698 -0.035307344 -0.06182148 0.35447374
0.23676942 -0.0007640527 -0.0071423217 0.32255256 0.37217906 -0.06892487 0.42846018 -0.06794751
0.35810375 0.3069832 0.5235263 -0.0042166268 0.35341004 -0.08028804 0.4763163 0.016720349
0.40816268 0.019665828 0.38363227 -0.07604923 0.3249237 0.36773017 0.029703703 -0.011367045
0.40104875 -0.11603539 0.4647936 0.14200066 0.31576735 0.41166025 0.3947663 0.015684776
0.25240093 -0.01204329 -0.102053374 0.0031211944 -0.034595646 0.03903349 -0.05738642 0.39103007
-0.055571053 0.029020654 -0.017215354 0.029942619 0.5028831 0.029682446 -0.031210346 -0.0721299
0.011927244 0.45356995 0.26324782 -0.04769066 0.3844344 -0.05276568 0.44305128 0.02613317
-0.13007621 0.4208486 -0.022943085 -0.065491855 -0.0511653 -0.0358685 0.25825423 -0.098684736

weight f4 [2, 128]
00000000: 4a0d dd3e c58d 0c3f dc52 2b3f a51b 95ba
00000010: 8f25 dfbc 906c 0abd 87bb 87bd 12d8 273f
00000020: 4ea1 2a3d 48fd 103f c8ad 063f 21d0 29bd
00000030: e94b 643f 7cea 413b 8cfc 283f 761e df3e
00000040: 6763 cd3b 13e1 dfbc 8168 edbc 1530 3d3f
00000050: 9ca7 9d3c 60fb 183f 6f3d cfbd a387 b13c
00000060: 8586 c63e 2602 f5bc def2 a13d 67a1 38bd
00000070: a548 e73e 9a66 c63e 4653 2f3f 78e7 143f
00000080: 39f1 36bd 55cd debc 6b38 053f 36b2 0d3d
00000090: ba35 203f b1b4 ba3e 79cc 11c0 64bd 803f
000000a0: bde2 df3e 7173 44bd 996d 2e3f 2e5f 313f
000000b0: 9971 0a3f 97ee 203f a26a 923d 65a0 59bd
000000c0: 964c 003f a098 fe3e 3afc d1bb 1402 333f
000000d0: d048 9cbd e5c0 fbbc 646d 653d 3f46 17c0
000000e0: 269c 33bd 255d 0d3c 8dc5 8aba e664 f13e
000000f0: dcb9 fd3e 4281 093d 6b1e 1d3e c7b0 243f
00000100: d22c bc3e dbd1 d2bc b373 abbd 3d5c 023f
00000110: 1ba2 f83e 0576 483d 4839 0d3f 1372 883d
00000120: b4dc 283f c304 133f dc8c 3c3f a909 40bd
00000130: 443f c53e e1b5 87bc 1902 0a3f 0d83 3bbc
00000140: 6489 1f3f 575b c23c 87e1 2f3f 94e7 ec3c
00000150: 3809 913f f32e 6c3e 8226 b73c 24cd 05bd
00000160: 04e6 ff3e 7dbc 57bf 6f44 233f 7b6c f6bf
00000170: 860e 493f c44d 2b3f 4757 063f 0830 37bd
00000180: 8c6b 3a3f 4229 04bd 8984 003d 9552 dbbc
00000190: 2d6c bebc c599 55bd ccb0 b1bc b510 103f
000001a0: bd9f db3a aa1a 80bc 2fa6 af3d 1257 913a
000001b0: ee16 323f 1d93 ae3c edcb 40bd 357b c7bd
000001c0: 295d 773c d9ee ff3e 12c9 b13e 12a4 21bc
000001d0: 303c 213f 7f90 8fbd 5cce 1d3f a080 193b
000001e0: b9d1 a23c a988 133f e6de e1bc c0fb 813c
000001f0: 6e69 233e b215 a93c 5589 173e 81de 4abd
00000200: 06d8 2f3f 157c 1b3f 33ab 003f 5076 4bbd
00000210: 2401 4ebd 8e25 433b cf24 8f3d a534 273f
00000220: 1ed3 3d3d 7ce0 353f 78c6 1c3f f816 2c3c
00000230: f441 163f 6d8a 8ebd cebd 083f 5e79 343f
00000240: 5a85 a23d b4fa 763d 246b 09bc af40 153f
00000250: 56ae 4cbd ad31 ee3e 89dc 903c 4185 78bc
00000260: a195 3f3f 34fa 0dbd bc57 37bd 6cdf d63c
00000270: 7083 103f 7a5a 303f d234 1c3f e623 103f
00000280: 0bd5 3bbd 8f41 6fbd aa30 103f 5fdc 60bd
00000290: 1f82 223f 5497 4d3f f6f9 10c0 09b8 f9be
000002a0: 748c 453f e009 39bc aca2 283f 962b 1e3f
000002b0: 40a9 2a3f 6be1 2f3f cb57 4fbd a948 59bc
000002c0: 7b00 2e3f 05af 393f 1077 943b 1662 243f
000002d0: 7baa c13c 9945 903d 2de4 f43a 170e 493f
000002e0: 56bb 13bc e0f4 ef3c 4d48 e63b 6594 3d3f
000002f0: 4c10 133f 1ee1 ce3b b323 61be 4cb5 043f
00000300: 641f 273f e285 263d 475d 2b3d a16f 303f
00000310: 5b91 453f 1a49 71bd 6686 303f 0d97 00b9
00000320: 183f 293f 0d93 243f 61f0 1b3f 157c 97bd
00000330: 6768 423f 4368 8b3c 1d3c 233f c482 62bd
00000340: 57e1 173f a73e ea3c 1318 1e3f 0bcb 86bc
00000350: 7cc9 a1bf e726 413f 0dfa 8a3c 48c2 03bb
00000360: 611a 273f e038 f5be 0750 1f3f 6390 813f
00000370: 4472 0f3f 8077 0c3f babf 253f 1be7 8d3d
00000380: 4053 1d3f 5471 8cbd 41b0 e4bc 972b d63b
00000390: b5f6 b3bc 547f 4ebd cd3e 94bd c69c 0b3f
000003a0: 8497 3a3d bb6c f9bc 0642 7abd 96f8 3abc
000003b0: 3d74 2a3f 8f11 18bd d6dd 8b3d 6c89 9fbc
000003c0: 3f74 8cbd 8777 113f 8153 5e3f 6206 0ebd
000003d0: fc4e 3e3f c920 903d 0a73 2b3f 092c 893c
000003e0: d343 f2bb f682 243f 4488 e2bc 0fcc 8abc
000003f0: f74e 7a3c 0873 ad3c 2520 313f a09d ebbc
0.431742 0.54903823 0.6692331 -0.0011376037 -0.027239589 -0.03379494 -0.06627565 0.6556407
0.04165774 0.56636477 0.5260892 -0.041458253 0.8917833 0.0029589226 0.66010356 0.43577927
0.006267953 -0.027329003 -0.028980495 0.7390149 0.019244961 0.5975857 -0.101191394 0.021671122
0.38774505 -0.029908251 0.07907651 -0.0450758 0.4517261 0.38750154 0.6848644 0.58165693
-0.04466364 -0.02719752 0.5203921 0.034593783 0.6258198 0.36465982 -2.278105 1.0057797
0.43727675 -0.047961656 0.6813598 0.6928586 0.54079586 0.6286406 0.07149245 -0.05313148
0.5011686 0.4972582 -0.0064082416 0.69925046 -0.076310754 -0.030731628 0.056012526 -2.3636625
-0.043850087 0.008628164 -0.0010587439 0.47147292 0.49555862 0.033570535 0.15343635 0.6433224
0.36752945 -0.025734833 -0.08371677 0.50921994 0.48561177 0.048940677 0.5516553 0.06662383
0.65961766 0.5742914 0.73652434 -0.046884213 0.3852483 -0.016566219 0.5390945 -0.011444819
0.62319016 0.023725195 0.687035 0.028919019 1.1330938 0.23064785 0.02235723 -0.03266634
0.49980175 -0.84271985 0.63776296 -1.9251856 0.78537786 0.66915536 0.52476925 -0.04472354
0.72820354 -0.03226591 0.031376395 -0.026772777 -0.023244942 -0.0521486 -0.021690749 0.5627549
0.001675598 -0.015637714 0.08576619 0.0011088571 0.6956624 0.021310383 -0.04706948 -0.09740297
0.015097895 0.49986914 0.34723717 -0.009865778 0.62982464 -0.07009982 0.61643004 0.0023422614
0.019875394 0.576304 -0.027572107 0.015867114 0.15958187 0.020640228 0.14798482 -0.049528603
0.68689 0.6073621 0.5026123 -0.04967338 -0.050294057 0.0029777023 0.069894426 0.65314704
0.046343915 0.7104566 0.6124034 0.010503523 0.58694386 -0.06959996 0.5341462 0.7049769
0.07935591 0.060297683 -0.008387361 0.58301824 -0.049970947 0.46522275 0.017683284 -0.015168489
0.7483769 -0.03466244 -0.044761404 0.026229583 0.5645056 0.68888056 0.610181 0.56304777
-0.04585747 -0.05841213 0.56324255 -0.054897662 0.634798 0.80309033 -2.2652564 -0.4877322
0.7716744 -0.011293858 0.6587322 0.61785257 0.66664505 0.68703336 -0.050620835 -0.013261952
0.67969483 0.72532684 0.004530795 0.6421217 0.023640862 0.07044525 0.0018683724 0.78537124
-0.009016832 0.02929157 0.007027662 0.7405456 0.5744674 0.006313457 -0.21986274 0.5183914
0.65282273 0.040655024 0.041837003 0.6892033 0.7717492 -0.058907606 0.68955076 -0.00012263302
0.661119 0.6428688 0.60913664 -0.07396714 0.75940555 0.01701749 0.637636 -0.05530049
0.59328216 0.028594328 0.61755484 -0.01645424 -1.2639613 0.75449985 0.016964937 -0.0020104814
0.65274626 -0.47894955 0.6223149 1.0122188 0.5603373 0.5486984 0.64745677 0.069288455
0.61455154 -0.06857553 -0.027916076 0.006535958 -0.021968225 -0.0504144 -0.07238541 0.5453609
0.045554653 -0.030447355 -0.06109812 -0.011411807 0.66583616 -0.03712612 0.06829421 -0.019474708
-0.0685811 0.5682301 0.86846167 -0.034674056 0.7433927 0.07037503 0.6697241 0.01674463
-0.007393339 0.6426233 -0.027652867 -0.016943006 0.015277616 0.021173015 0.69189674 -0.028761685

bias f4 [2]
00000000: 814b a03e 6820 0f3f
0.31307605 0.55908823
