tasks/solution/b2d.pt (torch, 73003 bytes, 6 tensors)

weight f4 [128, 4]
000000 db b5 86 be 53 cc 50 be cc f6 a6 bf e2 72 36 be
       -0.2631062 -0.20390444 -1.3044066 -0.17817262
000010 09 89 d6 3e c3 e4 1d bf 9e e6 6e be a7 21 47 be
       0.41901425 -0.6167719 -0.23330161 -0.19446431
000020 9e 8d a6 3e a5 b1 2e bf e9 49 9b bf 59 ad e3 be
       0.3252992 -0.68239814 -1.213193 -0.4446819
000030 29 9e ec 3e ce e3 84 be 68 eb 33 be aa 01 26 be
       0.46214417 -0.2595505 -0.17570269 -0.16211572
000040 3b 82 83 be b0 32 ed be 50 73 14 3f 59 86 25 be
       -0.25685295 -0.46327734 0.5798845 -0.16164531
000050 31 5d a0 3d de 61 58 be 6e 86 a5 bf bc 95 a9 be
       0.07830275 -0.21131083 -1.293165 -0.3312205
000060 4b fe 35 3e e3 75 55 be 3f 03 90 3f 19 f1 63 3e
       0.17772786 -0.20845751 1.1250991 0.2225994
000070 33 24 3a bf d3 35 ae 3e 97 0a 76 3f 28 08 8e 3e
       -0.72711486 0.3402544 0.9610991 0.27740598
000080 2e a4 aa 3e 65 3a 60 be c3 fa 07 bf 94 b7 1b 3c
       0.33328384 -0.21897276 -0.53117007 0.009504218
000090 fc 2a b4 3e 17 44 8e bf f6 8e 8c bf 9b 5f 22 bf
       0.35189044 -1.1114529 -1.0981128 -0.6342713
0000a0 f3 06 12 3f d0 6e ba bd 20 29 71 bf 9e b8 0f be
       0.57041854 -0.09103167 -0.94203377 -0.1403527
0000b0 8f 0b b5 3d 60 8e 23 3d 14 76 88 3e 92 f5 a3 be
       0.08840095 0.0399307 0.26652586 -0.32023293
0000c0 60 a6 c8 be 01 11 34 be a9 c5 5a 3e 8d 12 00 be
       -0.39189434 -0.17584611 0.21364464 -0.12507077
0000d0 86 7a 0b bf ee a6 72 3e 73 9f 5d 3f 10 b7 42 3e
       -0.5448383 0.23696491 0.86571425 0.19015145
0000e0 84 7b 3f 3e c8 de 71 bd a1 1e 13 be a7 35 a3 bd
       0.18699461 -0.05905035 -0.14367153 -0.07969218
0000f0 73 5c 61 be 5f a8 83 be 8b 4f 55 be 8a 9a 79 be
       -0.22007923 -0.25714394 -0.20831124 -0.24375358
000100 3a e1 6b 3e 27 e5 8e 3e e9 85 2f 3f 86 c0 4f 3e
       0.23035136 0.27909204 0.68563706 0.20288286
000110 56 07 99 be be c0 c4 be bb b4 fe be 81 2e 62 be
       -0.2988841 -0.384283 -0.4974726 -0.22088052
000120 21 9e 29 3e b1 ee a0 3e 71 3d 9b 3f 02 10 7e 3e
       0.16564228 0.31432107 1.2128125 0.24810794
000130 f3 87 b9 3e 5f e0 4c 3e e4 b6 89 3f 85 4d 29 3e
       0.36236534 0.20007466 1.0758939 0.16533478
000140 dc 72 0a 3e 3b 66 a1 be 61 66 86 bf 62 c5 f8 be
       0.13520378 -0.31523308 -1.0499994 -0.4858809
000150 82 ce 10 3e 27 2b d8 bb 92 ba 9b bd 53 e6 1b 3e
       0.14141276 -0.006596941 -0.07603945 0.1522458
000160 b0 2d 28 be 88 d3 14 3e 5b ab 42 3e 01 0b 4c 3e
       -0.16423678 0.14533818 0.1901068 0.19926073
000170 cd 01 9a 3c f5 d3 ca 3e eb a6 36 3f 77 9b 0b 3d
       0.018799687 0.39614835 0.71348447 0.03408381
000180 1b 04 ca 3d 06 8f 41 3d d3 18 1d be ba c0 13 be
       0.09864064 0.04725554 -0.15341501 -0.14428988
000190 f2 b7 96 3e 04 39 ff be 74 e5 5f bf fd 72 6d be
       0.29437214 -0.49848187 -0.8745949 -0.23188396
0001a0 80 f0 a1 3e bf 7f f6 bb aa d1 a2 3f c8 ed 49 3d
       0.316288 -0.0075225527 1.2720234 0.04929903
0001b0 1e 8c 40 be 27 eb fe 3e a8 00 2f 3f b4 97 6d 3e
       -0.1880345 0.49788782 0.68360376 0.23202401
0001c0 ff 76 8e be 82 64 f7 3d a1 aa 02 bf 42 62 69 3e
       -0.27825162 0.12079717 -0.5104161 0.22791389
0001d0 32 80 ca 3d 5e 4b a6 3e 37 e8 f5 3b 56 69 5d 3e
       0.098877326 0.32479376 0.007504489 0.21622214
0001e0 94 d4 80 be bc 8d 0a bf f6 b4 5a bf 5d 7f c0 be
       -0.25162184 -0.5412252 -0.85432374 -0.3759717
0001f0 01 a9 23 be 6a 4b 3a be 02 0f 99 bf 2b b1 6d be
       -0.15982439 -0.1819283 -1.1957705 -0.23212115
000200 36 9a 4f bd 66 bb 90 bd bf 23 89 3e 49 2a 68 be
       -0.050684176 -0.070669934 0.26785085 -0.2267238
000210 d5 58 5e be 55 41 9d be b1 27 16 3f 57 9c ab be
       -0.21713574 -0.30713907 0.58654314 -0.33517715
000220 73 ea d3 3e e1 17 c3 be 19 a2 95 3e ee a5 5f 3e
       0.41389808 -0.38104156 0.29225233 0.21840641
000230 85 64 ad be a6 4f 11 3f 5c 75 3c 3f ae 03 db 3d
       -0.33865753 0.5676216 0.73616576 0.10694061
000240 a5 42 5c 3e 26 4b 08 be c6 11 b2 bd 35 a0 a2 be
       0.21509798 -0.13309917 -0.08694796 -0.31762853
000250 5d ca 36 be 26 e8 41 3e 6f 18 bd 3f 81 75 cf 3e
       -0.17850633 0.18936214 1.4773082 0.40519336
000260 4b 58 bc 3e 1c 00 9c 3e f1 10 90 be 63 e9 26 3e
       0.36786112 0.30468833 -0.28137925 0.16299967
000270 c4 12 ae be 9b 63 48 3f 25 f7 9f 3f 60 25 9f 3e
       -0.33998692 0.78276986 1.2497298 0.31083202
000280 75 cb d5 3d 79 60 b1 be 76 3e cb be 86 a2 a2 3d
       0.10439197 -0.34643915 -0.3969609 0.07941155
000290 ef f8 05 bf 1e 99 f3 3e f2 c4 bc 3f cc 09 c0 3e
       -0.5233297 0.47577757 1.4747603 0.37507474
0002a0 5f ee 27 bf dd f7 03 3f 5d 69 98 3f fc ca d0 3e
       -0.655981 0.51550084 1.1907154 0.40779865
0002b0 90 90 42 bc 90 6d c5 be 47 bf df 3e 65 99 0b bf
       -0.011875287 -0.38560152 0.4370062 -0.54530936
0002c0 b2 c8 b8 3d a2 7c 1e 3f 9d 0d b1 3f ef 09 fb 3e
       0.090226546 0.61908925 1.383228 0.49031016
0002d0 a9 50 65 3f 51 de 07 bf d7 60 87 bf 8e ed de be
       0.895762 -0.530736 -1.0576428 -0.43540615
0002e0 68 69 8a be 6e d4 1f 3f 2e 24 42 3e 62 73 c7 3e
       -0.27033544 0.62433517 0.18959114 0.38955218
0002f0 53 b7 f6 3d 5d d6 39 be 72 05 bf be 56 dc 2b be
       0.12046685 -0.1814818 -0.37308842 -0.1678327
000300 28 bf 8d be 77 10 c2 3e b9 86 b6 3e e5 9d 1c be
       -0.27684903 0.37903187 0.3564966 -0.15294607
000310 40 2e 8b 3b 02 c1 0d be f4 10 89 bd a1 20 1c 3e
       0.004247457 -0.13843158 -0.06692687 0.15246822
000320 af 98 1c 3f 6b 02 ae 3e 4f aa 3b 3f 40 47 a6 3e
       0.61170477 0.3398622 0.73306745 0.32476234
000330 55 a4 9d 3e ae 5d bd 3e 54 38 db 3e 49 21 8c 3e
       0.30789438 0.36985534 0.42816412 0.27369145
000340 11 1e 71 bd 84 ad 39 3d 5c 7b 9f 3f fa 71 26 3e
       -0.058866564 0.045331493 1.2459521 0.16254416
000350 de 33 4c 3e ad 8b 54 bc c5 1c c6 3f b8 c6 56 3c
       0.19941661 -0.012972754 1.547753 0.013108902
000360 50 7a b1 3c de 63 17 3e ec ee b2 bd 31 ae bb 3d
       0.021664768 0.1478419 -0.08736977 0.09164084
000370 e3 6e 55 3e 5c 52 d8 be 2a 7b 12 3f 7b a4 b0 be
       0.20843081 -0.42250335 0.57219183 -0.3450049
000380 dd bb 3e be da 66 f6 3d 93 c3 a7 bf 44 e1 b9 be
       -0.18626352 0.12031336 -1.310656 -0.36304677
000390 e9 a0 46 3e 13 e2 0a be 48 53 17 3f 1f 94 6d be
       0.1939732 -0.13562803 0.5911145 -0.23201035
0003a0 e8 de 75 3e 1e cc 03 bf b2 99 05 bf 7f 69 c1 be
       0.24010813 -0.51483333 -0.52187645 -0.377758
0003b0 5f bc 99 3e 50 a0 96 be 39 e3 1e bf 9d c3 e6 bd
       0.30026528 -0.29419184 -0.62065464 -0.11267779
0003c0 fe e1 f8 be 15 e3 5d bc fb a2 f0 3d 8a 2b 91 bc
       -0.48609918 -0.01354291 0.11749836 -0.017720956
0003d0 98 94 bd 3d d3 93 cf bd 6f 74 5b be fc f8 85 be
       0.09256858 -0.10135617 -0.21431135 -0.26166523
0003e0 e0 5b 20 3e 69 64 b2 bd 46 73 e8 3d 91 14 19 3d
       0.15660048 -0.08710558 0.11350112 0.03737313
0003f0 c5 f0 77 3e a4 c6 54 be f4 12 3d 3e d3 1a 99 bc
       0.2421294 -0.207789 0.18464261 -0.018689549

bias f4 [128]
000000 e2 b0 cd be 53 03 10 3f 44 f4 df 3d ab e4 3e bf
       -0.40174013 0.5625507 0.10935262 -0.7456767
000010 10 68 09 bf 03 e4 d3 be f0 b8 d1 bd b8 15 1b 3d
       -0.5367441 -0.41384897 -0.10240352 0.03786251
000020 c6 81 2e 3f 7b 7d f4 bd f3 c6 ee 3d 59 78 2f 3e
       0.6816677 -0.11937996 0.1165904 0.17135753
000030 ae 81 df be ca f6 a7 be d1 9d 0e 3f df 60 d4 3d
       -0.43653625 -0.32805473 0.5570956 0.10370039
000040 2c 23 11 bf f0 ad 8c bd 87 46 0f 3c eb d4 13 bf
       -0.56694293 -0.068691134 0.008744842 -0.5774676
000050 ad 90 e6 be db 5d f8 be 3d 2c fa 3e a3 b0 b3 3e
       -0.45032254 -0.48509106 0.48861876 0.350957
000060 9f 26 57 be ac 1f af 3e 18 f9 83 be 8b 34 9d 3e
       -0.21010827 0.3420385 -0.2577598 0.3070415
000070 5a b7 34 3f eb 77 10 3b 7e 65 86 bd 1c e0 16 be
       0.7059227 0.0022044133 -0.06562327 -0.14733928
000080 a2 7f 05 3f 8d 55 bd 3e 66 c6 b0 be e4 bf 22 3f
       0.5214788 0.36979333 -0.34526366 0.6357405
000090 32 da 20 3f ee 53 0e bf 10 42 68 bb 6f 37 b3 3e
       0.6283294 -0.55596817 -0.0035439767 0.3500323
0000a0 e8 9e eb be ff 1d af be cf 5e 41 3e 0a d6 97 3e
       -0.46019673 -0.34202573 0.18883823 0.29655486
0000b0 c0 bb 59 be 2b 8b 93 3c 24 3b e9 3e 4f d1 c7 3e
       -0.21263027 0.018010696 0.45552933 0.39026877
0000c0 5f 50 27 3f 11 0e 28 3f 9c 46 cc be 8c 34 a3 be
       0.6535701 0.65646464 -0.3989762 -0.31876028
0000d0 26 32 a7 be a7 12 bf be 73 eb d7 be fd 64 12 bf
       -0.32655448 -0.37318918 -0.4217182 -0.57185346
0000e0 81 bb 7e be 2d 26 a4 be 84 bf 20 3e 15 a9 5f 3e
       -0.24876215 -0.32060376 0.15698057 0.21841843
0000f0 ae bf ef be ec aa 1a 3f 5f 80 05 3f 8e 25 14 3f
       -0.46825927 0.60417056 0.52149004 0.57869804
000100 89 17 de 3e 19 87 66 3d b7 4f e1 be c3 35 86 3e
       0.4337733 0.056281183 -0.4400613 0.26212892
000110 75 27 27 bf 90 6e 76 3e 26 05 23 be f3 c1 8d 3e
       -0.6529458 0.24065614 -0.15919933 0.27687034
000120 d5 48 19 3f 11 b4 b7 be 0a 49 20 3f 2e fa 2a bf
       0.5987676 -0.35879567 0.6261145 -0.66787994
000130 3c 64 47 be 11 16 32 bd 0e cd 25 bf b7 a2 00 bf
       -0.1947183 -0.043478075 -0.64766014 -0.50248283
000140 4d f9 20 3f 04 2f 23 3f 66 7c 07 bf a3 dd 6b 3e
       0.628804 0.63743615 -0.5292419 0.23033766
000150 e3 60 a5 be 8b 36 cf be 0a dc a4 be 55 b8 d6 be
       -0.3230048 -0.404713 -0.32199126 -0.4193751
000160 e7 eb c3 3e 4a ec 18 be ac 1b 19 3d cc 4b b4 be
       0.38265917 -0.14933887 0.037379906 -0.35214078
000170 b1 a9 cb 3e 3c 42 26 3e bb ce 23 3f ec a4 1d 3f
       0.39777902 0.16236204 0.6398732 0.61579776
000180 5f 05 de 3d f2 32 a2 bd 40 02 de be 52 a0 fd 3e
       0.10840868 -0.07919873 -0.43361092 0.49536377
000190 f0 8c e5 be 5d 7e da be c5 0d 11 bf 59 1a 2e 3f
       -0.4483409 -0.42674533 -0.56661636 0.68008953
0001a0 50 14 c1 3e 27 a6 5b 3e b0 15 ba 3e 48 a9 3e bf
       0.3771081 0.21450101 0.3634467 -0.7447705
0001b0 66 83 ed 3e 74 52 1f bf 70 ea 14 3f ae c5 9c 3e
       0.46389312 -0.6223519 0.58170223 0.30619568
0001c0 54 13 92 3d 05 c4 ef 3e 98 15 88 be 5a 8c d6 be
       0.07132593 0.4682924 -0.26578975 -0.41903955
0001d0 c6 8a 1f 3f 3d 69 fc be 4b 87 6a 3e 50 90 d3 3d
       0.62321126 -0.4929904 0.22903173 0.1033026
0001e0 a2 ba b6 3d 33 d6 44 bf ad 68 7b 3e 14 78 3c bf
       0.08922316 -0.7688934 0.2455165 -0.73620725
0001f0 d7 a8 b6 3e 04 f6 d6 3d c0 83 b7 be 25 e4 1b 3f
       0.3567569 0.104961425 -0.35842705 0.60894996

weight f4 [128, 128]
000000 e2 0e 95 bd 40 b5 96 ba 59 9e b8 bd 78 4a 35 bc
       -0.07278229 -0.0011498109 -0.090145774 -0.011065118
000010 7c 51 b2 3c 7e 0a ef bc 7d 1b 81 bc 3a f7 d8 3c
       0.02176737 -0.029179808 -0.015760178 0.026485074
000020 3b ba 8f bd 38 d4 eb 3c fb 4c 75 3b 96 78 bb 3c
       -0.070179425 0.028787717 0.0037429917 0.022884648
000030 37 89 9b bd 38 63 8b 3c e3 c7 51 bc 58 af a5 3c
       -0.07594531 0.017015085 -0.012804004 0.020225212
000040 a8 0d b7 bd ce d5 ce bd 9e 71 07 3d 39 cd 0b 3d
       -0.089381516 -0.10099374 0.03306734 0.034131262
000050 9b 40 14 bb f8 2c 86 3c 73 0f 03 3d d4 f3 bc bc
       -0.0022621516 0.016378865 0.031997155 -0.023065485
000060 76 c1 68 3d f7 e4 a5 bd fa d4 c2 bd 79 81 5d 3d
       0.056825124 -0.08100312 -0.09513278 0.054078553
000070 9b 3d a0 bd 21 46 c1 3c 9e b0 74 3d 55 9f 77 bb
       -0.0782425 0.02359301 0.059738748 -0.0037784178
000080 d7 ed 91 3d b6 a2 a4 bd 9f 7d 1a 3d 9a c4 48 3c
       0.071254425 -0.08038847 0.037717458 0.012253905
000090 8f 85 5e 3c 89 69 01 3d 6a eb 80 3c ba e4 81 3d
       0.013581648 0.031594787 0.015737254 0.06342454
0000a0 13 0e 49 bd d4 39 e4 3c 0d 7f db bc 2e 21 17 ba
       -0.049085688 0.027859606 -0.026793981 -0.0005765137
0000b0 66 52 3a 3c eb aa bc 3c e4 a4 4f 3d 63 ac 23 bd
       0.011372184 0.023030719 0.05069436 -0.039959323
0000c0 53 33 b6 bd 47 24 11 bd 38 d3 37 bd 84 2b 7d bd
       -0.08896508 -0.035434987 -0.04487917 -0.061809078
0000d0 4a df 97 3d 92 3a af bc 71 ff ab 3d 6c 3a f4 bc
       0.07415636 -0.021390233 0.08398331 -0.029813014
0000e0 e7 f0 a0 bc ce 4c 93 3b 71 e7 c6 bd 41 6a 89 3c
       -0.019646121 0.00449524 -0.09712113 0.016774299
0000f0 09 6e c5 bc c0 2b 04 3d d2 7e 5b bc c4 68 23 3d
       -0.02410032 0.032268286 -0.013396936 0.039894834
000100 ad b5 05 3d 68 db c1 bd d0 53 68 3c c1 46 d7 bc
       0.032643963 -0.094656765 0.014180139 -0.026278855
000110 b0 e0 86 3d 3b 9c 7f bd 4a 9c 20 3d be 38 88 3d
       0.065858245 -0.062404852 0.03921155 0.06651448
000120 20 03 d9 3b 61 87 4d bd 40 7f 4f bd 4b 18 92 3d
       0.006622687 -0.050177936 -0.050658464 0.0713354
000130 dd 61 bd bb 04 b3 63 bd 27 a3 8b bd 00 25 c8 bc
       -0.0057794885 -0.055590644 -0.06818228 -0.024431705
000140 67 4c 15 bd 68 96 99 3c 55 0b 98 bd 1c ae b1 bd
       -0.036449816 0.018748477 -0.074240364 -0.08675787
000150 a4 e7 b4 3b 9a 7c 2e bb a7 21 1b 3c 2a dc c1 bc
       0.005520778 -0.0026624561 0.009468473 -0.023664553
000160 c0 0b 86 3d d6 04 0b bd c1 b6 c6 3c be ab c3 bc
       0.0654521 -0.03394016 0.024257066 -0.023885604
000170 e1 a2 84 bd 1c fa 8d bb d9 f5 8d 3b 4c c6 a6 bd
       -0.06476379 -0.004332794 0.004332286 -0.08143291
000180 92 fc a7 bd 03 81 a2 bd cd d4 73 3d 72 8c 83 bd
       -0.08202471 -0.07934763 0.059529115 -0.06423272
000190 38 50 61 bd e4 85 96 3c 09 66 77 3d 97 77 d0 bb
       -0.055008143 0.01837439 0.060400043 -0.0063619125
0001a0 ae fd d0 bd b3 ec 2d bd 81 2e 08 3d f7 fc 7d bc
       -0.102046356 -0.042462062 0.033247475 -0.015502206
0001b0 a6 8c 7d bc 6e 3d 47 3d c8 ea ca bc 5a 4c f6 3c
       -0.015475428 0.04864257 -0.024770156 0.030065704
0001c0 2a 67 61 3d 76 61 3f 3d 99 7b 3f 3c 2c 3b 99 bd
       0.055030026 0.046723805 0.011687183 -0.07481989
0001d0 5b 33 4f bd cb d7 6f bd fe 1c e3 3c 18 22 6c 3d
       -0.050586086 -0.058555406 0.027723785 0.0576497
0001e0 1c b7 8c bc 48 ed d3 3c 01 e8 26 3d b5 52 26 3d
       -0.017177157 0.02586998 0.0407486 0.04060622
0001f0 27 56 ee 3a dd 4e 88 bd 99 53 d4 bc 44 8b 8b bd
       0.0018183634 -0.06655667 -0.025918769 -0.06813672
000200 d0 ae 37 bf d7 54 6a 3e 6a 2a 88 3d bf f7 4f bf
       -0.7175112 0.22883926 0.06648715 -0.81237406
000210 aa 5a d0 bd dc 0d 21 bf 21 3b 4a 3e 8e 61 bb 3e
       -0.10173543 -0.6291177 0.19749118 0.36597866
000220 37 51 2e 3e 2c ce 44 3e 45 ca 1e 3e cb 8a d9 3c
       0.17023169 0.19219273 0.15506847 0.02655544
000230 4b cd 37 bf 9c 1c 28 bf c2 e9 1a 3e 76 a8 c1 be
       -0.7179763 -0.65668654 0.15128234 -0.37823838
000240 c1 0e 36 bf fc 68 9e be 06 69 ec be e6 f5 d2 be
       -0.7111626 -0.30939472 -0.46173877 -0.4120323
000250 53 0e 40 be b6 ab 61 3c 4a 44 6c 3e 2c 0f 25 be
       -0.18755464 0.013773849 0.23072925 -0.16119069
000260 97 0f 19 3d 8a 16 42 3e 70 73 ac be 9f 30 74 3e
       0.037368383 0.1895391 -0.33681822 0.23846672
000270 86 5b 8d 3e 6b f2 61 3e ad c4 11 3e 10 62 48 bc
       0.2760889 0.22065131 0.14235182 -0.012230411
000280 b0 4d 4a 3e 08 d1 28 3e 92 34 27 be 7f 39 98 3e
       0.19756198 0.16485989 -0.16328648 0.29731366
000290 bd c6 60 3e 8f cb 4e bf 88 f1 f6 3d 86 75 c3 3e
       0.21950813 -0.80779356 0.12057787 0.381756
0002a0 de 8f 48 be 2b a1 4b 3e c9 34 d2 3e 04 78 7e 3e
       -0.19586131 0.198857 0.41055897 0.2485047
0002b0 83 7c 97 be 30 e5 26 be 7f 01 74 3e 2e 5c 95 3e
       -0.29587182 -0.16298366 0.23828696 0.2917189
0002c0 d9 1b 87 3e f6 72 51 3e a1 99 b6 be bc be 91 be
       0.26388434 0.2045401 -0.35664085 -0.2846583
0002d0 bd 03 13 bf fc 9f 92 bf 71 dc cf bd 37 f8 52 3d
       -0.5742758 -1.1455073 -0.10149468 0.051506247
0002e0 aa 93 59 3d 39 cd 86 be 03 b0 65 3e cd 29 5d 3b
       0.05311934 -0.26328447 0.22430424 0.003374684
0002f0 b8 76 46 bf aa 4f 9e 3e de 6e 81 3e d2 e8 44 3e
       -0.775249 0.30920154 0.25279897 0.19229439
000300 a1 59 47 3e 8b 2e ac 3e 30 40 36 be 2f 8f d2 be
       0.19467784 0.3362926 -0.17797923 -0.41124865
000310 64 b3 74 bf f1 cc 8e 3d 98 c2 89 be 81 4c 0a 3e
       -0.9558623 0.06972683 -0.26906276 0.13505746
000320 76 40 9a 3e e9 49 5a be 2b 03 83 3e 13 48 8b be
       0.30127305 -0.21317257 0.25588354 -0.27203426
000330 c4 25 3a be c0 fe b5 bc 56 89 79 be cb 97 18 be
       -0.18178469 -0.0222162 -0.24368796 -0.14901654
000340 9b 79 16 3e 1d a4 9e 3e 87 c8 41 3d b3 c4 60 3e
       0.14694826 0.30984583 0.04731038 0.21950035
000350 33 46 e2 be fd df 0e bf 54 87 3f 3c 91 d1 14 bf
       -0.44194183 -0.5581053 0.01168998 -0.5813227
000360 50 90 82 bd 8e c2 84 be c7 8a 3a 3e bb 18 f7 be
       -0.06375182 -0.25929683 0.18217002 -0.48261055
000370 eb 53 81 3e e1 55 81 3c 96 4b 14 3e 38 e0 84 3e
       0.25259337 0.01578802 0.14481959 0.25952315
000380 75 81 db be 4d e3 71 be de 17 33 bf d7 42 ee 3d
       -0.42872205 -0.23621865 -0.69958293 0.116338424
000390 39 78 0b be 63 97 6e bb 36 31 e0 3c 54 3a 64 3e
       -0.1362008 -0.0036406151 0.027367216 0.22287875
0003a0 bc 0c 18 3e a9 a6 a1 3e 15 e4 22 3e b7 0c 79 bf
       0.14848608 0.31572464 0.15907319 -0.97285026
0003b0 8a ea 1d 3e 67 96 46 bf 39 26 8e 3e 5f f5 57 3d
       0.15421501 -0.77573246 0.27763537 0.05272424
0003c0 5c ac 71 3d f9 e8 81 3e 69 5f 8e be 01 a2 32 bf
       0.059002265 0.25373057 -0.27807167 -0.6977845
0003d0 7a 0b 1e 3e f1 50 07 bf 7b 38 b7 3d 0c 47 34 3e
       0.15434065 -0.5285788 0.0894632 0.17605227
0003e0 fc 0f c5 b9 f5 32 0b bf 9f 45 11 3e 86 1b 85 bf
       -0.00037586677 -0.5437463 0.14186715 -1.0399024
0003f0 68 67 d8 be 3e bf f9 bb 16 18 c1 3d 2a 6d 38 3e
       -0.42266393 -0.007621675 0.09428422 0.18010393

bias f4 [128]
000000 e7 d0 10 3d c1 1d 95 3e 70 60 1e bd 62 7b 84 3e
       0.035355475 0.29124263 -0.03866619 0.25875384
000010 87 b3 b6 bd 65 69 4a 3e bb 93 43 bb e6 31 ec bc
       -0.08920961 0.19766767 -0.0029842693 -0.028832387
000020 37 aa 9c 3e a1 11 7e 3e 63 ef 94 3e 81 84 9b bd
       0.30598614 0.24811412 0.29088888 -0.075936325
000030 47 37 31 bd ce d8 c0 3e f8 a7 90 bd 51 90 58 3a
       -0.043265607 0.3766541 -0.070632875 0.0008261251
000040 e4 03 c5 bd 97 4a 3d 3c a3 85 51 bd 51 be a3 3e
       -0.09619883 0.011553428 -0.051152837 0.31981137
000050 a3 b3 d7 bc 36 1f 77 3e b8 8f 50 3e 3d 1f 32 bd
       -0.026330775 0.24133 0.20367324 -0.043486822
000060 87 cf 32 3d 7f 6d a5 bc 62 b8 1f 3d cf a4 44 3c
       0.043654945 -0.020193813 0.0389942 0.012002184
000070 6e 6c 69 3e eb cf 4d ba be ea 71 3e 63 19 9c bd
       0.22795269 -0.00078511116 0.23624703 -0.0762203
000080 e9 41 c7 bd ff d0 8b 3e bb 2e 89 3d 10 3a 7c 3e
       -0.09729368 0.2730789 0.06698366 0.24631524
000090 11 30 43 bc 48 5b 83 3c 4c a7 c7 3e a8 9e c0 bd
       -0.011913315 0.016034737 0.38994825 -0.09405261
0000a0 3b 61 75 3e 44 b1 33 3c e7 90 e1 bd d8 5e 71 3e
       0.23962872 0.010967556 -0.11013966 0.23571336
0000b0 26 2b 91 bc 87 7a fd 3c 35 e2 b0 bd a4 9e 76 3e
       -0.01772077 0.030942215 -0.086368956 0.24083954
0000c0 e4 8f 13 3e a0 2c 52 bc be ff 3e 3d 6b cf 15 bb
       0.14410359 -0.012828022 0.046630614 -0.0022859226
0000d0 3b 5b 9b 3e 3a 43 12 bd a6 c9 8b bd ae d0 c1 3e
       0.3034304 -0.035708643 -0.06825571 0.37854522
0000e0 24 f3 07 be 92 04 c3 3c fe 21 a5 3e d1 a8 96 3e
       -0.13276345 0.02380589 0.32252496 0.29425672
0000f0 23 a2 81 3e 88 d7 d2 bd e8 37 9b bd 52 10 db bd
       0.25319013 -0.102950156 -0.07579023 -0.10696472
000100 b8 77 d0 bd 9b d3 3a 3d f0 e9 09 3d ec 58 95 bc
       -0.101790845 0.04561196 0.033670366 -0.018230878
000110 d4 4b c5 3d 12 e9 a1 3b 3d a4 98 bd b4 15 ef 3d
       0.09633604 0.004941114 -0.07453201 0.116740614
000120 38 10 2d 3d 75 0b 6d 3e 70 75 88 3e cf ef 5f 3e
       0.042251796 0.23148902 0.26652098 0.21868823
000130 2e 32 e4 3c ac fa 60 3e 89 47 8c bd 76 dc 86 3d
       0.027855959 0.21970624 -0.06849582 0.06585018
000140 a5 09 96 bd a8 d8 64 3e 36 ed 91 3e 14 8a 70 bc
       -0.07326058 0.22348273 0.2850129 -0.014681358
000150 7b 97 6b 3e 26 91 8b bb b3 67 6a 3e fe 57 e9 bd
       0.23007004 -0.0042592464 0.2289112 -0.11393736
000160 41 61 a9 3e 63 da bc bd 4a cb f5 bc eb 9a 4d bd
       0.3308201 -0.092213415 -0.030004162 -0.05019657
000170 2b f3 84 3e 5f ee 93 3d df 25 b4 bd 83 e0 e3 bd
       0.25966772 0.072232 -0.08796286 -0.111268066
000180 6f 79 f4 b7 50 28 a6 3e 40 5c 8d 3e ee da 4c 3e
       -2.9143614e-05 0.3245263 0.27609444 0.2000539
000190 49 16 32 3d 20 39 c4 3e 7e 0e be bd fe e6 ad 3e
       0.043478284 0.38324833 -0.09280108 0.33965296
0001a0 c2 49 6a bc 13 8a d8 3c 07 9a 4b bd 70 c3 86 3c
       -0.014299812 0.026433026 -0.04970744 0.016450614
0001b0 74 e0 db bd 9a 93 6d bb e7 11 54 bd 98 92 b3 bd
       -0.107361704 -0.0036251307 -0.051774886 -0.08768195
0001c0 00 3b b6 3e f2 63 c0 3e 3b 3d 4d 3d ff 51 7d 3d
       0.35591888 0.37576252 0.050107222 0.061845776
0001d0 d0 33 4a 3e fa 75 07 3d d0 81 ad 3d 02 14 61 bd
       0.19746327 0.033071496 0.084720254 -0.05495072
0001e0 bd 49 83 be d4 c2 16 bd e1 fe 4b 3e ac 2f b3 3e
       -0.25642195 -0.036806896 0.19921447 0.34997308
0001f0 60 e0 18 3d b3 8f 69 3e 74 d1 8a 3e 8d fa 98 3e
       0.037323356 0.22808723 0.27112925 0.29878655

weight f4 [2, 128]
000000 e2 72 de bc 2b 1f 18 3f 17 b3 75 bb a7 a2 ea 3e
       -0.02715439 0.5942256 -0.003749078 0.4582722
000010 90 c1 6e 3d 46 1d 13 3f f2 ef 00 bd 5e 6a 76 bd
       0.058290064 0.5746654 -0.03147883 -0.060160033
000020 21 6b ba 3e 1b d2 c6 3e d0 2a e8 3e 49 e3 48 3b
       0.36409858 0.38832173 0.45345163 0.003065305
000030 82 92 41 3c b5 bc ca 3e d5 aa 32 bd b1 13 4f bd
       0.011814715 0.39597097 -0.04361995 -0.05055589
000040 93 db 13 3c 8a d0 1f 3b 7b 94 15 bd 9b 80 17 3f
       0.009024519 0.0024385774 -0.036518555 0.5918061
000050 00 60 e7 bc 8a ba 85 3e 59 fd d5 3e d1 59 5a bc
       -0.028244019 0.2611888 0.4179485 -0.013327078
000060 29 98 1d bd aa 70 2b 3c 69 a0 2b 3d e8 18 5a bd
       -0.03847519 0.010463873 0.041901026 -0.05324641
000070 ad 62 0d 3f 1c 1c 5a bc 7f b0 9d 3e 67 2a 13 bd
       0.5522869 -0.013312366 0.30798718 -0.03592911
000080 40 30 31 bd 38 80 8c 3e 0d 4d 7b bc 8d d2 01 3f
       -0.043258905 0.27441573 -0.015338195 0.507119
000090 42 49 b1 3c 7a c9 46 bd fc 04 14 3f 0d 18 57 3d
       0.021641377 -0.048531987 0.57820106 0.05251317
0000a0 14 20 c2 3e 88 75 c1 be 2c 2f 20 bd 85 2d 6f 3e
       0.379151 -0.37784982 -0.039107487 0.23357208
0000b0 ab 4e 0b bd 0f 74 33 bd 43 15 f3 3c dc 96 0e 3e
       -0.03401057 -0.043811854 0.029673224 0.13924736
0000c0 2e ff 0f 3e 28 54 9e 3c 75 9e 3e bc bf 0e 01 bd
       0.14062187 0.019327238 -0.011634459 -0.031508204
0000d0 e0 e4 13 3f ce 44 f5 bc 9a 7e 70 3d ae 33 11 3f
       0.5777111 -0.029940035 0.058714487 0.5671948
0000e0 21 07 9d bf ae 95 5c 3b 47 cf fe 3e 25 78 ec 3e
       -1.22678 0.0033658552 0.49767515 0.46185413
0000f0 2e 27 15 3f c6 20 f1 3d 53 4e 50 3d 80 db 1e bd
       0.5826291 0.11773829 0.050855946 -0.03878355
000100 1f f5 06 bd e8 98 2a 3d ae 92 89 3b 3e 83 9a bc
       -0.03294861 0.04164973 0.004198394 -0.01886141
000110 24 ff ce 3e 27 65 73 bd cb 95 99 bd d1 54 da 3e
       0.40429032 -0.05942264 -0.07499274 0.42642835
000120 6d f3 e1 be a0 ec d6 3e cd 58 17 3f e2 5b 10 3f
       -0.44131032 0.41977406 0.59119874 0.563902
000130 d5 bc 46 bc 8c 05 03 3f 95 3f 80 bd af eb a7 3e
       -0.012129982 0.5118034 -0.06262127 0.32797
000140 fe 32 58 3d dd c3 d6 3e 8c 4a 18 3f 42 bd 84 bc
       0.052783005 0.41946307 0.5948875 -0.016203526
000150 ae 68 03 3f 98 f4 ef bc d1 69 09 3f b0 a3 b3 bb
       0.51331604 -0.029291436 0.5367709 -0.0054821596
000160 31 a9 13 3f 4e fa 9a bd fe 88 a0 bd d3 78 f6 bc
       0.5768004 -0.07567273 -0.07838629 -0.03008691
000170 bb 3a 2d be 96 39 c6 3e c0 69 78 3c 87 3b 80 bd
       -0.16916935 0.3871581 0.0151619315 -0.06261354
000180 a8 ba 8f bd 25 89 0f 3f ed c4 0b 3f 6f 61 16 3f
       -0.07018024 0.5606864 0.5459736 0.5874242
000190 38 9d aa bc 7c 70 17 3f 2a 65 2c bd 64 51 0c 3f
       -0.02082692 0.5915601 -0.042088665 0.5481169
0001a0 f4 2b c8 bf 19 1f 85 bd 60 eb 99 bc 0e bf 3d bc
       -1.5638413 -0.06500072 -0.018788993 -0.0115811955
0001b0 3d 10 8f 3c 0a 67 8d bc c5 7a b0 3d 2f a4 65 3d
       0.017463798 -0.017261047 0.086171664 0.05606478
0001c0 97 86 ab 3e d8 c4 18 3f 4a 49 9f bc 82 3f 21 bd
       0.3350112 0.5967536 -0.019444127 -0.039367206
0001d0 49 38 b5 3e 78 4a 0e bd 99 12 da 3e f4 4c da bc
       0.35394505 -0.034738988 0.42592314 -0.026648022
0001e0 af 32 a4 bf 7a f2 6c bd 2e b4 c7 3e 52 57 c2 3e
       -1.2827967 -0.05784843 0.39004654 0.37957245
0001f0 9f 9c 2f bd be 8f 15 3f f5 0b f9 3e 99 84 ea 3e
       -0.042873975 0.5842246 0.48641935 0.4580429
000200 2a b0 81 bd 98 75 6f 3e ec 26 17 bd c4 c5 1c 3f
       -0.06332429 0.23384702 -0.036902353 0.61239266
000210 f5 ba 0e bd 85 81 d6 3e 94 76 ec 3c 2a 0d f5 bb
       -0.034846265 0.4189569 0.028865136 -0.007478376
000220 14 1f 15 3f 7c 62 c9 3e ea 40 00 3f 5e 2b 7a bc
       0.58250546 0.3933295 0.5009905 -0.015269129
000230 d9 b5 a2 3c cd 9b 13 3f 1b 37 a6 bc e4 f9 89 bd
       0.019862102 0.5765961 -0.020289948 -0.06737116
000240 7c f5 7e 3c c2 48 91 bc 62 50 09 3c 7d f0 93 3e
       0.015561458 -0.017734889 0.008380981 0.28894415
000250 25 ff a3 3d 68 ad 1f 3f 54 03 0b 3f 46 2d c6 bb
       0.08007649 0.6237397 0.54301953 -0.0060478775
000260 ef 5d 47 3d d7 26 72 bd ae 53 09 bd de 9b 51 3d
       0.048673566 -0.05911907 -0.03352707 0.051174037
000270 d7 4c 18 3f d0 93 66 3c 86 ad e7 3e 4a 1a 80 3d
       0.5949225 0.014073327 0.45249575 0.06255014
000280 fe ec 3f 3d 71 c7 d4 be 57 a6 32 bd d9 26 16 3f
       0.046856873 -0.41558412 -0.043615665 0.58653027
000290 e2 a6 dd bc eb 35 31 bd e4 f3 e1 3e 4d 76 8c bd
       -0.027057115 -0.04326431 0.44131386 -0.068585016
0002a0 5f 66 a3 3e 2d 12 82 bf 99 aa 5c 3d 01 45 16 bf
       0.3191404 -1.0161797 0.053873632 -0.5869904
0002b0 50 98 74 bd 7d ee f0 bc ca 6b c5 3c b0 5e 23 3f
       -0.05971557 -0.029410595 0.02409925 0.63816357
0002c0 98 97 a0 be 0c eb 15 bd da dc 3c bd 2e 47 2e 3d
       -0.31365657 -0.03660111 -0.046109058 0.04254835
0002d0 48 b4 14 3f 6d 03 09 bd 52 7e 44 3d 79 24 b1 3e
       0.5808759 -0.033450533 0.04797203 0.3459814
0002e0 b1 f9 eb 3e 94 87 40 3d 79 ba ef 3e 75 db 10 3f
       0.46088937 0.047004297 0.46821955 0.56584865
0002f0 8b 3d e3 3e 76 08 2c bd 25 42 98 3d 67 b6 69 bd
       0.4438289 -0.042000256 0.07434491 -0.057058718
000300 53 ec 2e 3c 5b e6 37 bd 28 12 07 3d a0 46 87 bd
       0.010676461 -0.04489742 0.0329763 -0.066052675
000310 89 ad 89 3e db b8 45 3d fd 48 2b bc 35 a5 e9 3e
       0.2689021 0.048271995 -0.0104544135 0.45633855
000320 60 aa 3c 3e 41 0c 29 3f 9f b0 cd 3e c7 a9 f2 3e
       0.18424368 0.6603432 0.40173814 0.47395155
000330 22 2a 05 bd 5d e7 19 3f 35 bb 4d bc f7 3d e9 3e
       -0.032510884 0.6011866 -0.012556841 0.45555088
000340 36 1d 38 3c b0 a6 cc 3e 16 fb cd 3e 3a 56 35 bd
       0.011237433 0.39970922 0.40230626 -0.044271685
000350 10 1a 17 3f 50 c1 87 bd 41 dd e4 3e b1 7d ec bc
       0.59024143 -0.06628668 0.44700053 -0.028868528
000360 cc 19 00 3f f8 53 9d bc 14 7b 74 3c 30 3d 64 3d
       0.5003936 -0.019205078 0.014921922 0.055722415
000370 df 90 19 3f 9c 32 c8 3e 84 a1 14 3d 81 fc a5 3d
       0.5998668 0.39101112 0.036286846 0.08104802
000380 2b 89 d9 bb 4c 17 0a 3f b2 d5 f0 3e 90 a9 10 3f
       -0.006638666 0.539418 0.47038037 0.5650873
000390 d5 45 a9 bc 65 be b5 3e 4c e0 5e 3d cd 7e fb 3e
       -0.020663181 0.35496822 0.054413125 0.4912018
0003a0 34 0c c7 be e6 c4 74 bd 90 f6 b7 3c 19 a9 90 bd
       -0.38876498 -0.05975809 0.022456437 -0.07063503
0003b0 b4 8a 10 bd da 6d 28 bd 69 35 86 bd 7b 3c 82 bd
       -0.035288528 -0.041120388 -0.06553156 -0.06359192
0003c0 cd 25 18 3f c9 68 6e 3e 19 ef 16 3d c8 1b 87 bc
       0.5943268 0.2328216 0.036849115 -0.01649274
0003d0 29 42 20 3f bf 09 93 bd ea 14 b9 3e 46 9a 90 3c
       0.6260095 -0.07179593 0.3614877 0.017651688
0003e0 95 f3 c2 bf 48 81 90 bd 04 58 94 3e ff cb 18 3f
       -1.5230585 -0.070559084 0.289734 0.59686273
0003f0 67 62 86 3a d4 e9 28 3f 5f b6 fb 3e fc 23 12 3f
       0.0010252715 0.65981793 0.49162576 0.5708616

bias f4 [2]
000000 3d 65 9f 3e d1 d4 b2 3e
       0.31131926 0.3492799
