tasks/solution/PPO_LunarLander-v2-eps0.2.pth (torch, 43623 bytes, 11 tensors)

action_layer.0.weight f4 [64, 8]
0	0x3ebfc8df	0.3745794
1	0x3ebb73b6	0.36611718
2	0xbddebb75	-0.10875598
3	0x3eed9478	0.46402335
4	0x3d977e92	0.07397188
5	0x3e2aa872	0.1666582
6	0xbe5ef9bd	-0.21774955
7	0x3e075ffc	0.13220209
8	0x3ddcc164	0.10779074
9	0xbe410a43	-0.18851571
10	0x3e47eefd	0.1952476
11	0xbdca9d43	-0.098932765
12	0x3ecbd121	0.3980799
13	0x3e90265e	0.28154272
14	0x3d84e62d	0.06489215
15	0xbd742793	-0.059608053
16	0x3edebdda	0.4350422
17	0x3de37b68	0.11107522
18	0xbd74fe33	-0.059812736
19	0x3d644747	0.055732038
20	0xbee93ef6	-0.45555848
21	0xbd3b0078	-0.045654744
22	0xbe23fd77	-0.16014658
23	0x3e1f3983	0.15549283
24	0xbe51db1d	-0.20493741
25	0xbe2b93b5	-0.16755565
26	0x3c46117a	0.012089128
27	0xbe9bfd0b	-0.30466494
28	0xbe552e7e	-0.20818517
29	0xbef610c3	-0.48059663
30	0x3eb83b81	0.35982898
31	0xbecf43f4	-0.40481532
32	0x3e8ae41b	0.27127156
33	0x3dcc7a42	0.09984256
34	0xbe3c6dca	-0.18401256
35	0x3ea72e10	0.3265233
36	0x3eb4b13d	0.35291472
37	0x3efc16e5	0.49236217
38	0x3c072967	0.008249617
39	0xbd91a942	-0.071123615
40	0x3e7e2b43	0.2482119
41	0x3bf3196f	0.0074188034
42	0x3e7cc2be	0.24683663
43	0x3ecf477b	0.40484223
44	0x3c793e42	0.015212597
45	0xbe537f67	-0.20654069
46	0x3e542707	0.20718013
47	0xbd341882	-0.043968685
48	0x3e017632	0.12642744
49	0xbea88f89	-0.3292201
50	0xbe90ac9b	-0.28256688
51	0xbea5a82b	-0.32354864
52	0xbe90ebee	-0.28305
53	0x3e800cfa	0.250099
54	0x3cec9dc8	0.02888383
55	0x3e74ea5e	0.23917529
56	0x3da29287	0.07938104
57	0xbdd7dd9f	-0.10540318
58	0x3ea5c66b	0.32377943
59	0xbebd8f89	-0.3702357
60	0xbe9e70ba	-0.3094538
61	0xbeb3c94f	-0.35114524
62	0x3e3ad989	0.18247046
63	0xbd07a49b	-0.033115964
64	0x3e3f7c11	0.18699671
65	0xbdebf442	-0.11521198
66	0x3ed52ff0	0.41638136
67	0xbe76f26e	-0.24115917
68	0xbf172b25	-0.5905021
69	0xbecee674	-0.40410197
70	0x3ed12b9f	0.40853593
71	0x3ddfcccc	0.10927734
72	0x3e384653	0.17995577
73	0xbeb70326	-0.3574459
74	0xbece9218	-0.40345836
75	0xbeea47d2	-0.4575792
76	0xbe2674a0	-0.16255426
77	0x3e4d4aeb	0.2004811
78	0xbc48facc	-0.012266826
79	0x3ea18278	0.31544852
80	0xbeb9800c	-0.36230505
81	0xbea33257	-0.31874344
82	0x3df99939	0.12187428
83	0xbed020ae	-0.40649933
84	0x3e81a8b7	0.25324032
85	0xbdf87ede	-0.12133573
86	0x3e0827b0	0.1329639
87	0xbdb01cfe	-0.0859928
88	0xbece181c	-0.4025277
89	0xbc78e0f4	-0.015190352
90	0xbdbb1605	-0.09135059
91	0xbe3b79ab	-0.18308131
92	0x3efd195f	0.4943342
93	0x3ed6bbc6	0.41940135
94	0xbeab29c6	-0.33430308
95	0xbdd2bfeb	-0.10290512
96	0x3e8f98b1	0.28046182
97	0xbe856f0d	-0.26061288
98	0xbcefe70f	-0.029284982
99	0xbf060cb2	-0.5236312
100	0xbee54279	-0.44777277
101	0x3cbedbf5	0.023298243
102	0xbcb2463b	-0.021762004
103	0xbdc5e772	-0.09663285
104	0x3d89eee8	0.06735021
105	0xbe5fe5f9	-0.21865071
106	0xbe813afb	-0.2524031
107	0xbea4d78f	-0.32195708
108	0xbeff751f	-0.49894044
109	0xbe60a957	-0.21939598
110	0x3ea77204	0.32704175
111	0xbda3f284	-0.080052406
112	0x3d1e2355	0.038607914
113	0xbecd3130	-0.4007659
114	0xbe2ec611	-0.17067744
115	0xbe9a1de3	-0.30100927
116	0xbdd12f84	-0.10214141
117	0xbeb09d4f	-0.34495017
118	0xbdf02d16	-0.117273495
119	0xbd603624	-0.054739133
120	0x3b8d80d2	0.004318335
121	0xbe50c73f	-0.20388506
122	0x3dad0d71	0.08449829
123	0xbeb71119	-0.35755232
124	0xbf1e2d57	-0.61787933
125	0xbec29914	-0.38007414
126	0xbdf9e538	-0.12201923
127	0xbe73d4da	-0.23811665
128	0x3ef08514	0.4697653
129	0x3af5decb	0.0018758414
130	0x3eccd35f	0.40005013
131	0x3ed23021	0.41052344
132	0xbefbf0cf	-0.4920716
133	0x3e3162fe	0.17322919
134	0xbbfadda4	-0.007655816
135	0xbe3efed2	-0.18651894
136	0xbef0e1a2	-0.47047144
137	0xbed5ab83	-0.41732416
138	0x3d2aa34d	0.041659642
139	0xbe8260b3	-0.254644
140	0x3e741242	0.2383509
141	0xbe8ecdf0	-0.27891493
142	0x3e826af7	0.25472233
143	0xbd8e7d6c	-0.06957516
144	0x3d55a522	0.052159436
145	0x3e2b3134	0.16717988
146	0x3e4ebfd2	0.20190361
147	0x3efd6c25	0.4949657
148	0x3ee1516e	0.44007438
149	0xbe735da6	-0.23766193
150	0x3db80160	0.08984637
151	0xbe4b860a	-0.1987535
152	0xbe2814bf	-0.16414164
153	0xbeaa6f6c	-0.33288133
154	0x3eb943cb	0.36184534
155	0xbec36bb2	-0.38168103
156	0x3c622c6f	0.013804539
157	0xbcd90dfe	-0.02649593
158	0x3e285bb7	0.16441236
159	0xbd937bb6	-0.0720133
160	0x3db0b395	0.086280026
161	0xbd8f5c7c	-0.07000062
162	0xbce2a48c	-0.027666353
163	0xbee4b47a	-0.44668943
164	0x3e7d5156	0.24738058
165	0x3b835c2a	0.0040087895
166	0xbe4308e3	-0.19046359
167	0x3ee279fe	0.44233698
168	0xbd84d6d0	-0.06486285
169	0xbe8d1c9e	-0.27560896
170	0xbe8c717a	-0.27430326
171	0xbe8b5934	-0.27216494
172	0x3ea54da4	0.32285798
173	0xbd8f0633	-0.06983604
174	0xbe8d22b7	-0.27565548
175	0xbc43bda5	-0.01194707
176	0xbed2819d	-0.41114512
177	0xbd91dd70	-0.07122314
178	0x3e334412	0.17506436
179	0xbf03cb97	-0.5148253
180	0x3e252d6a	0.16130605
181	0x3e0a16c6	0.1348525
182	0xbb098bfc	-0.0020987978
183	0x3c1d2188	0.009590514
184	0x3eadf53b	0.33976158
185	0x3e2d566b	0.16927497
186	0x3e2aa871	0.16665818
187	0x3d29daa5	0.04146828
188	0xbec37418	-0.3817451
189	0x3d680177	0.056642022
190	0xbdab453b	-0.08362814
191	0xbe42f867	-0.1904007
192	0x3e8621b2	0.26197582
193	0x3ea16fff	0.3153076
194	0x3c09bcb5	0.008406808
195	0x3d079695	0.03310259
196	0xbca87212	-0.020562205
197	0x3d353e6c	0.044248983
198	0x3ce36b40	0.027761102
199	0x3cc57add	0.024106437
200	0xbe108639	-0.14113702
201	0xbcf1c07c	-0.029510729
202	0x3eac4851	0.33648923
203	0x3eb8fa05	0.3612825
204	0xbe3bacfc	-0.18327707
205	0xbe908c88	-0.28232217
206	0xbdb4a191	-0.08819879
207	0xbebe9483	-0.3722268
208	0x3da31048	0.0796209
209	0x3e1ed0b8	0.15509307
210	0x3ec7f5e0	0.39054775
211	0x3e7024f5	0.23451598
212	0xbf1d1dc6	-0.61373556
213	0xbecaf845	-0.3964254
214	0x3d23c265	0.03998031
215	0x3e88200c	0.2658695
216	0x3c66298c	0.0140479915
217	0xbe517c58	-0.2045759
218	0x3e3e5a71	0.18589188
219	0xbe456866	-0.19278106
220	0xbf09e799	-0.53869015
221	0x3e3948bd	0.18094154
222	0xbdee9ee6	-0.11651401
223	0xbc1052a8	-0.008808769
224	0xbe1eabbb	-0.15495197
225	0x3e82dd72	0.25559574
226	0x3ec968b0	0.39337683
227	0x3e7530e8	0.23944438
228	0xbf0c13d2	-0.54717743
229	0xbf0c92a8	-0.5491128
230	0xbe11b764	-0.14230114
231	0x3e7278ef	0.23678945
232	0x3ea87498	0.32901454
233	0x3ea9bf1e	0.33153623
234	0x3e62f7e4	0.22164875
235	0x3e9ed529	0.31022003
236	0xbe32c42d	-0.17457648
237	0xbe7b431d	-0.2453732
238	0xbe3be695	-0.18349679
239	0xbeb1f127	-0.34754297
240	0x3da55fc6	0.08074908
241	0xbe6dd0e3	-0.23224215
242	0xbc4e86a3	-0.012605342
243	0xbec854af	-0.39127108
244	0xbebb31ec	-0.36561525
245	0xbeca4c06	-0.39511126
246	0xbe40323b	-0.18769161
247	0x3e6533dc	0.22383064
248	0xbe160794	-0.14651328
249	0x3d772d07	0.060345676
250	0xbceffc9c	-0.029295258
251	0xbee3c57d	-0.4448661
252	0xbe74c09a	-0.23901597
253	0xbe8347e5	-0.2564079
254	0xbdef6df9	-0.116908975
255	0xbe22a295	-0.15882333

action_layer.0.bias f4 [64]
0	0x3e18bdb7	0.1491612
1	0xbe1c2eca	-0.15252224
2	0xbe033c3e	-0.1281595
3	0xbe88dc0d	-0.26730385
4	0x3e9cca73	0.30623206
5	0xbe53a0f8	-0.20666873
6	0x3e23a167	0.15979539
7	0xbd8f5132	-0.06997909
8	0xbd5af214	-0.05345352
9	0x3e096de9	0.13420834
10	0xbd02fe5a	-0.03198085
11	0x3dea1d71	0.11431397
12	0x3e13ed76	0.14446053
13	0xbe8d48c6	-0.27594584
14	0x3dba7591	0.09104455
15	0x3c7be51f	0.015374451
16	0x3db657b7	0.08903449
17	0x3ca4fbed	0.020139659
18	0x3e19c976	0.15018257
19	0xbe2c8faf	-0.16851686
20	0xbe16e82a	-0.14737001
21	0x3e975b01	0.29561618
22	0x3dab3e5b	0.08361503
23	0xbd0edbb9	-0.034877513
24	0xbe862b89	-0.2620509
25	0x3db1d64f	0.08683454
26	0xbe36fb38	-0.1786927
27	0x3e26987c	0.16269106
28	0xbe241f59	-0.16027583
29	0xbc63ecbc	-0.013911422
30	0xbde3589a	-0.11100884
31	0xbccbedf6	-0.024893742
32	0x3eaae5ee	0.33378547
33	0xbc6f6244	-0.014610831
34	0x3e08a940	0.13345814
35	0x3e25bdd7	0.161857
36	0x3e5e79ad	0.21726103
37	0xbe05e6c3	-0.1307631
38	0xbd9f19b0	-0.077685714
39	0x3ddaa580	0.10676098
40	0xbd20ff4d	-0.039305974
41	0x3e363d8d	0.17796917
42	0xbd2e15ad	-0.04250114
43	0xbe65cdb7	-0.22441755
44	0x3d96868c	0.073498815
45	0x3da18ec9	0.07888562
46	0x3e2fe90a	0.17178741
47	0x3e69dbae	0.22837707
48	0x3df158dd	0.117845275
49	0x3e31a7d8	0.17349184
50	0xbc8958cd	-0.016765976
51	0xbe8ffa1c	-0.28120506
52	0xbe8d135c	-0.27553833
53	0xbe803a13	-0.25044307
54	0xbe633d87	-0.2219144
55	0xbdca6731	-0.098829634
56	0xbe9a8da6	-0.30186194
57	0xbea72112	-0.32642418
58	0xbe47bb5c	-0.19505066
59	0xbe251530	-0.16121364
60	0xbdcdb791	-0.10044778
61	0x3e018075	0.12646659
62	0x3e2471ad	0.16058989
63	0xbe15981e	-0.1460881

action_layer.2.weight f4 [64, 64]
0	0xbe20a396	-0.15687403
1	0x3db9db2c	0.09075007
2	0xbe1e4fa6	-0.15460071
3	0xbb2a7c16	-0.0026013902
4	0x3d391185	0.045182724
5	0xbdf90678	-0.12159437
6	0x3d0f451c	0.034978017
7	0x3d86306c	0.065522045
8	0xbdff792d	-0.12474284
9	0x3dc125cb	0.094310366
10	0x3dc1181f	0.09428429
11	0x3daa9e31	0.08330954
12	0xbc815e2b	-0.015791973
13	0x3d4b8209	0.049684558
14	0x3dd6ecca	0.10494383
15	0x3d145235	0.03621121
16	0xbeb995d2	-0.36247116
17	0x3dc274f9	0.09494967
18	0xbdecc2a1	-0.1156056
19	0xbca0dfac	-0.019637905
20	0x3d6b3157	0.0574201
21	0x3b75916e	0.0037470716
22	0x3e02ee05	0.1278611
23	0xbd7105f5	-0.05884357
24	0xbddde51f	-0.10834717
25	0x3c952012	0.018203769
26	0xbe8b3862	-0.27191454
27	0xbdb3a122	-0.08770968
28	0xbe32c7e2	-0.17459062
29	0xbe5edfdf	-0.21765088
30	0xbda13ba3	-0.07872703
31	0x39d5cbc6	0.0004077835
32	0x3d10c8cf	0.035347756
33	0x3d1b48d0	0.037911236
34	0xbba0fd23	-0.0049129887
35	0xbdbc08d6	-0.09181373
36	0xbe49514a	-0.19659916
37	0x3e5cfabc	0.21580023
38	0x3c43cd42	0.011950793
39	0x3d80d43e	0.06290482
40	0xbda9375d	-0.08262513
41	0xbe882b8d	-0.26595727
42	0xbd586bff	-0.052837368
43	0x3dec49e9	0.11537535
44	0xbbcfbd59	-0.0063397107
45	0x3e214b72	0.15751436
46	0xbe801fde	-0.25024313
47	0xbdb69ad8	-0.08916253
48	0x3c90608d	0.017624164
49	0xbe01adc6	-0.12663946
50	0xbdb66eed	-0.08907876
51	0x3e87be9b	0.26512608
52	0x3cab5a8c	0.0209172
53	0xbb505cee	-0.0031793672
54	0xbdb0665f	-0.08613276
55	0xb9f488c8	-0.00046641217
56	0x3d6d44b5	0.057926852
57	0x3dd47e71	0.10375679
58	0x3da51031	0.08059729
59	0xbdaa642f	-0.0831989
60	0xbe056632	-0.13027266
61	0xbe00ba50	-0.12571073
62	0xbe0f8179	-0.14014234
63	0xbd951d11	-0.072809346
64	0x3b7683d9	0.0037615208
65	0xbe1e459c	-0.15456241
66	0x3e3687f8	0.17825305
67	0x3def71eb	0.1169165
68	0xbe4e0ea8	-0.20122778
69	0xbd941660	-0.0723083
70	0x3da17572	0.07883729
71	0x3e37b47d	0.17939945
72	0x3e5c584e	0.2151806
73	0xbb02bf14	-0.0019950317
74	0x3d7ac99f	0.061227437
75	0xbe16c5ec	-0.14723939
76	0x3e64821d	0.2231526
77	0x3d70bd3e	0.058774225
78	0x3dc51a93	0.09624209
79	0x3ec5f682	0.38664633
80	0x3e0c8017	0.13720737
81	0xbdbe3c79	-0.09288878
82	0xbe246605	-0.16054542
83	0x3dbeaa91	0.09309877
84	0xbdd480af	-0.10376107
85	0xbc91e751	-0.017810496
86	0xbdfb4edd	-0.12270901
87	0x3e28a7f3	0.16470318
88	0x3d699a9a	0.057032205
89	0x3d9365fd	0.07197187
90	0x3e385bb6	0.18003735
91	0x3da8824b	0.082279764
92	0x3e5df212	0.21674374
93	0xbc6fe6a8	-0.014642395
94	0x3e159c63	0.14610438
95	0x3dd9fd1b	0.10643979
96	0x3e478181	0.19482996
97	0x3e28acf5	0.16472228
98	0xb9bc8921	-0.00035960323
99	0x3e5dc827	0.21658383
100	0x3e0ed216	0.13947329
101	0xbca2923c	-0.01984512
102	0xbe299876	-0.16562065
103	0xbe3ff1f8	-0.18744648
104	0x3e630236	0.22168812
105	0x3e783b21	0.24241306
106	0xbd7c0108	-0.06152442
107	0x3dc361e4	0.095401555
108	0xbdd74979	-0.10512061
109	0xbd17050d	-0.03687005
110	0x3d330221	0.043703202
111	0xbbf520bf	-0.0074807103
112	0xbe05e609	-0.13076033
113	0x3cb9fab8	0.02270256
114	0x3e1f4680	0.15554237
115	0xbdb32e6d	-0.087490894
116	0xbb2d8d95	-0.0026482095
117	0x3eb250a2	0.34827143
118	0xbd5f9f33	-0.054595184
119	0xbe0d03c1	-0.13770963
120	0x3e24e931	0.1610458
121	0x3e111756	0.14169058
122	0xbe51b722	-0.20480016
123	0x3e088717	0.13332783
124	0x3debedd7	0.11519974
125	0xbd52d1b6	-0.051469527
126	0xbcfd9a0b	-0.030957242
127	0xba106806	-0.0005508665
128	0xbe516383	-0.20448117
129	0xbd8a9216	-0.06766145
130	0xbcfbf678	-0.030757174
131	0x3e1c6c8d	0.15275784
132	0xbe83b6b0	-0.25725317
133	0x3cce0db0	0.025153011
134	0x3d0c04c4	0.034184232
135	0x3e2358b5	0.15951808
136	0x3dd5c034	0.104370505
137	0xbd0fd8c8	-0.035118848
138	0x3ec9885a	0.3936184
139	0x3e16eec7	0.14739524
140	0x3da81ee4	0.08209017
141	0xbcbab7ed	-0.02279278
142	0x3db2d233	0.087314986
143	0x3d851228	0.06497604
144	0xbe822d67	-0.25425264
145	0x3e723de1	0.23656417
146	0xbdefc1c0	-0.11706877
147	0x3e861fc8	0.26196122
148	0x3d8119e5	0.06303767
149	0x3e0c5dc7	0.13707648
150	0x3dc66dc9	0.096889086
151	0xbe3bb257	-0.1832975
152	0xbe1fe451	-0.1561444
153	0xbdcf29cc	-0.10115394
154	0xbc503832	-0.0127087105
155	0xbdface46	-0.12246375
156	0xbe4da765	-0.20083387
157	0xbd970bb4	-0.07375279
158	0x3e6db91f	0.2321515
159	0x3e07a697	0.13247143
160	0xbe0a3cb3	-0.13499717
161	0xbe46a8c8	-0.19400322
162	0xbcac3ed2	-0.021026049
163	0x3e380863	0.1797195
164	0x3ccbe3a6	0.024888825
165	0x3e2e3e45	0.17015941
166	0xbd4c9a8d	-0.04995208
167	0x3dae7718	0.08518809
168	0xbe13216d	-0.1436822
169	0xbdefe9b7	-0.117144994
170	0x3a5ecaea	0.00084988645
171	0x3cd22fd1	0.025657566
172	0xbdcfa96f	-0.10139739
173	0x3e4b1efa	0.19836035
174	0xbda40210	-0.08008206
175	0x3cefa856	0.029255074
176	0xbd66cd0f	-0.056347903
177	0xbd30ae7c	-0.04313515
178	0x3d35e56c	0.044408247
179	0x3d927e8b	0.071530424
180	0x3e54fda9	0.20799889
181	0x3e63fdb7	0.22264753
182	0xbe191c7b	-0.1495227
183	0x3d272b9c	0.040813074
184	0x3d3cf814	0.046135023
185	0xbcbdd776	-0.023174029
186	0x3d8f5480	0.06998539
187	0xbdea1719	-0.11430187
188	0xbdfeacb5	-0.12435285
189	0xbd703c8a	-0.058651485
190	0xbb809d81	-0.003925026
191	0xbe2a539b	-0.16633455
192	0xbe82e52f	-0.25565478
193	0x3e0fdfae	0.14050171
194	0x3d1b9d2a	0.03799168
195	0x3de66b3b	0.11250921
196	0xbe583f53	-0.21117906
197	0xbdc09e79	-0.09405226
198	0x3d850ebf	0.06496953
199	0x3dd02c93	0.10164752
200	0x3d67dcf3	0.056607198
201	0x3e1a6432	0.15077284
202	0x3e25b22d	0.1618125
203	0xbb9c5633	-0.004771018
204	0x3df52c42	0.11971332
205	0x3cb70de2	0.022345487
206	0x3db66071	0.089051135
207	0x3e9207a9	0.2852147
208	0xbdebb2bc	-0.115087
209	0xbd7ddc55	-0.061977703
210	0xbe954d93	-0.29160747
211	0x3e261e7c	0.16222566
212	0x3d4c2906	0.04984381
213	0x3dfa30b9	0.12216324
214	0x3b922112	0.0044595087
215	0x3dcf8ebd	0.10134647
216	0x3d7472d9	0.05967984
217	0xbe14ef19	-0.14544334
218	0x3dc3127a	0.095250085
219	0xbd4c15ad	-0.04982536
220	0xbd35cbb6	-0.044383727
221	0xbd9f85fa	-0.07789226
222	0x3d9c74fe	0.07639502
223	0x3e3326ba	0.17495242
224	0xbe09fd2b	-0.13475482
225	0xbd0f48a7	-0.034981396
226	0xbdf70c20	-0.120628595
227	0x3e51b7f0	0.20480323
228	0xbc053ec4	-0.00813264
229	0x3c6a84aa	0.014313856
230	0xbd822fde	-0.06356786
231	0x3c8cf281	0.017205479
232	0x3e04244b	0.1290447
233	0xbd841fdc	-0.06451389
234	0xbdb9906c	-0.090607494
235	0x3e2a0d1a	0.1660656
236	0xbc33a5b2	-0.010964798
237	0x3d2b1e85	0.041777153
238	0x3c52c21d	0.012863663
239	0xbc4004c4	-0.011719886
240	0x3d3f995a	0.046777107
241	0x3dd92b31	0.10603941
242	0xbcce22cf	-0.025163082
243	0x3e00e905	0.1258889
244	0x3e793f85	0.24340637
245	0x3eccf818	0.4003303
246	0xbe073f0d	-0.13207646
247	0xbe8d2b56	-0.27572125
248	0x3dcc2b55	0.099692024
249	0x3dda8e3a	0.10671659
250	0x3de57afc	0.11205098
251	0xbdac7b24	-0.08421925
252	0x3d8367a4	0.06416252
253	0xbe0a7219	-0.13520087
254	0x3d9660fd	0.07342718
255	0x3d7ba551	0.061436955

action_layer.2.bias f4 [64]
0	0x3d67b07e	0.0565648
1	0x3d4a9649	0.04945973
2	0xbd2b2779	-0.04178569
3	0x3ba92499	0.0051618335
4	0x3e0c870f	0.13723396
5	0x3afe61fd	0.0019407865
6	0xbd5b2c20	-0.053508878
7	0x3cb4ffdc	0.02209466
8	0xbd617b1a	-0.05504904
9	0xbc246710	-0.010034338
10	0xbdb45d43	-0.08806851
11	0xbc200629	-0.009767094
12	0xbb12a864	-0.00223782
13	0xbdab9439	-0.083778806
14	0x3dc4cb23	0.09609058
15	0x3e0bc067	0.13647614
16	0xbd8b2ad7	-0.067952804
17	0x3d665514	0.05623348
18	0xbd35d7e0	-0.044395328
19	0xbd2a915c	-0.04164253
20	0x3d0f1692	0.034933634
21	0x3be1765d	0.006880565
22	0x3d496197	0.049165335
23	0xbda265f5	-0.07929603
24	0x3dc3f2b6	0.09567778
25	0xbd85838c	-0.06519231
26	0x3ccbd9dc	0.024884157
27	0x3b1a234b	0.0023519571
28	0x3ddcaead	0.10775504
29	0x3cfcd9fb	0.03086566
30	0x3d573540	0.052541018
31	0x3cb16fb8	0.021659717
32	0x3dc89a57	0.09795063
33	0xbc2d729c	-0.010586407
34	0x3b92fc52	0.0044856453
35	0x3deb9471	0.11502922
36	0xbd52531c	-0.05134879
37	0xbd35e5dd	-0.044408668
38	0x3ddd4aba	0.108052686
39	0x3d5979a3	0.053094517
40	0xbe0c7493	-0.13716345
41	0x3c90748b	0.017633697
42	0xbdf73d5d	-0.12072251
43	0xbd84e8f7	-0.06489747
44	0x3da9e16e	0.082949504
45	0x3ddf9d16	0.10918634
46	0xbd29ee11	-0.041486803
47	0x3dc869f9	0.09785838
48	0x3dd881cb	0.10571631
49	0x3db74c3d	0.08950088
50	0xbdd6ae69	-0.10482485
51	0xbd117715	-0.035513956
52	0x3c8b63a5	0.017015288
53	0x3dbe266a	0.09284671
54	0xbd4116b3	-0.04714079
55	0x3c7d4eb2	0.015460657
56	0x3da0865a	0.078381255
57	0xbd4f8aac	-0.050669357
58	0xbd8661db	-0.06561633
59	0x3df195d8	0.117961586
60	0xbb65e122	-0.0035076817
61	0x3d7fba88	0.06243375
62	0xbdeba716	-0.115064785
63	0xbd99599f	-0.07487797

action_layer.4.weight f4 [4, 64]
0	0x3dd580d4	0.10424963
1	0xbd95c898	-0.07313651
2	0x3d581373	0.052752923
3	0xbe370ba3	-0.17875533
4	0x3da4b19f	0.08041691
5	0x3d216ad6	0.039408527
6	0xbd3bb465	-0.045826335
7	0xbcfa60b0	-0.030563682
8	0x3ba40a8e	0.005006141
9	0xbd7203fb	-0.059085827
10	0xbddcebea	-0.107871845
11	0xbdaaa64a	-0.08332498
12	0xbd198caa	-0.037487663
13	0x3daacccd	0.08339844
14	0x3d106f76	0.035262547
15	0x3e1bada2	0.15202954
16	0x3cf719a6	0.030163597
17	0x3d286d20	0.041119695
18	0x3de875be	0.113505825
19	0xbe101323	-0.140698
20	0xbd0afabe	-0.033930533
21	0x3daf4c6a	0.08559497
22	0x3d404130	0.046937168
23	0xbde6b636	-0.11265223
24	0xbc84ac46	-0.016195428
25	0xbc8f033f	-0.017457603
26	0x3c873086	0.01650263
27	0x3ceffa98	0.029294297
28	0x3e09ff18	0.13476217
29	0x3ca30c57	0.019903345
30	0x3c12059d	0.008912471
31	0xbdc6a9f8	-0.09700388
32	0x3dd914c1	0.105996616
33	0x3c35e6fc	0.011102434
34	0xbd8a2f09	-0.067472525
35	0x3d1a775e	0.037711494
36	0xbdc72203	-0.09723284
37	0x3ce75231	0.028237434
38	0x3d9a66e6	0.075391576
39	0x3d3638f1	0.044487897
40	0xbc87d76e	-0.016582217
41	0xbc333746	-0.010938471
42	0xbde548cd	-0.11195526
43	0x3cf95fd3	0.0304412
44	0x3df5c961	0.120013006
45	0x3d9f7e0c	0.077877134
46	0xbd5b7c44	-0.053585306
47	0x3d9411ad	0.07229934
48	0xbc23eb5b	-0.010004844
49	0xbc97a03c	-0.018509023
50	0xbda00c97	-0.07814901
51	0xbcc3acd4	-0.023886122
52	0x3b9f30eb	0.0048581264
53	0xbd9cba89	-0.07652766
54	0xbd213b55	-0.039363224
55	0xbdfa6202	-0.12225725
56	0xba619523	-0.0008605292
57	0x3e0215c8	0.12703621
58	0xbccba157	-0.024857206
59	0xbc3cb29a	-0.011517191
60	0x3cbbcfe8	0.022926286
61	0xbde4c085	-0.11169533
62	0xbdc2add9	-0.09505815
63	0x3d674ec1	0.05647159
64	0xbe8fd35d	-0.28090945
65	0x3e05bf78	0.13061321
66	0xbe248ab8	-0.16068542
67	0xbd9dce21	-0.077053316
68	0x3e6124fe	0.21986768
69	0xbd8ec7d5	-0.06971709
70	0x3d451036	0.048111163
71	0x3d6beaa3	0.057596814
72	0xbdf50d99	-0.11965484
73	0x3c8f33ff	0.017480848
74	0xbe61e30b	-0.22059266
75	0x3e6c6f09	0.23089232
76	0x3d74c742	0.05976034
77	0xbe302030	-0.17199779
78	0x3e450de6	0.19243583
79	0x3e2e96dc	0.17049736
80	0x3dfa3d10	0.12218678
81	0x3da8eb8c	0.08248052
82	0xbd1be20d	-0.038057376
83	0x3e4cc9d1	0.19998862
84	0xbd919d9a	-0.07110138
85	0x3e82bc91	0.2553449
86	0x3eb12786	0.34600466
87	0x3e79f215	0.24408753
88	0xbe8d4fe9	-0.2760003
89	0xbe468901	-0.193882
90	0xbda40e05	-0.080104865
91	0xbe76fd59	-0.24120082
92	0xbe144f42	-0.1448336
93	0xbd93f3ae	-0.072242126
94	0x3d20769e	0.039175622
95	0x3e360b08	0.17777646
96	0xbe3d8f8c	-0.1851179
97	0x3d6a7381	0.05723906
98	0x3cdb58c2	0.026775721
99	0xbdc9c854	-0.09852663
100	0x3e992004	0.29907238
101	0x3ea42925	0.3206264
102	0xbe337751	-0.17525984
103	0xbe56aa28	-0.20963347
104	0x3e6b2b12	0.22965649
105	0xbe081876	-0.13290581
106	0x3e386799	0.1800827
107	0xbd38400d	-0.04498296
108	0x3e492a46	0.19645032
109	0x3e3b4d53	0.18291216
110	0x3c5faeb9	0.013652497
111	0xbc293717	-0.010328076
112	0xbe8f1d9e	-0.27952284
113	0xbe3e4a6a	-0.18583074
114	0x3e342ad6	0.17594466
115	0x3e03a06b	0.12854163
116	0x3e8847fd	0.26617423
117	0x3e372e6f	0.17888807
118	0x3d9ead54	0.077479035
119	0x3e25f1e0	0.16205549
120	0x3db0f3e3	0.08640268
121	0x3d9f07ea	0.07765181
122	0xbc762523	-0.0150235025
123	0xbda7f6a8	-0.08201343
124	0xbde480cf	-0.11157381
125	0xbdbc9a2e	-0.09209095
126	0x3c62dcb6	0.013846567
127	0xbe0758e6	-0.13217506
128	0x3e4e9eb1	0.20177723
129	0x3db21de6	0.08697109
130	0x3e56b4e0	0.20967436
131	0x3e3fbf2a	0.18725267
132	0xbe3c6ee6	-0.1840168
133	0x3e21adc6	0.15788946
134	0x3e24a15b	0.16077177
135	0x3e4bc1a5	0.19898088
136	0x3e50641d	0.2035069
137	0xbd804123	-0.06262424
138	0xbdb9fbc6	-0.09081225
139	0xbc120d71	-0.0089143375
140	0x3e020287	0.12696277
141	0x3da4b11c	0.080415934
142	0xbe1c51e3	-0.15265612
143	0xbe667fb5	-0.22509654
144	0xbd2192e0	-0.03944671
145	0xbe5c76ed	-0.21529742
146	0xbd2e9711	-0.042624537
147	0xbe146eea	-0.14495435
148	0xbd3050c5	-0.043045778
149	0xbe7d550b	-0.24739473
150	0xbe788d96	-0.24272761
151	0x3cc3e5df	0.023913322
152	0x3e7e1b23	0.2481504
153	0xbde2e3e1	-0.11078621
154	0xbe0d9320	-0.13825655
155	0x3de3b764	0.11118963
156	0xbe28796a	-0.16452566
157	0xbd72feb1	-0.059324924
158	0x3e07a979	0.13248242
159	0x3dc87c44	0.09789327
160	0x3e0f7679	0.14010037
161	0x3de45f4e	0.111509904
162	0x3e0251e0	0.12726545
163	0x3a8c874d	0.0010721475
164	0xbe30939b	-0.17243807
165	0xbe496078	-0.19665706
166	0x3d69f014	0.057113722
167	0xbb09f142	-0.0021048342
168	0x3e3a1b24	0.18174416
169	0x3e600ab8	0.21879089
170	0x3e152b3c	0.14567274
171	0xbe4cbf8c	-0.19994944
172	0xbe802ac7	-0.25032637
173	0xbdc8bf41	-0.09802104
174	0x3e5d458e	0.21608564
175	0x3d81e7bb	0.06343027
176	0x3df8f5c9	0.12156255
177	0x3e37bc6f	0.17942975
178	0xbe34963c	-0.17635435
179	0xbe5173cf	-0.20454334
180	0xbe00fe18	-0.12596929
181	0xbe306264	-0.17225033
182	0x3e503158	0.20331323
183	0x3d5e0de1	0.054212455
184	0xbc86ca01	-0.016453745
185	0xbe8bcc73	-0.2730442
186	0xbe122bbd	-0.14274497
187	0x3e49b4b3	0.19697838
188	0x3dddb2e0	0.10825133
189	0x3de85e6e	0.11346136
190	0x3df903da	0.12158938
191	0x3e7af6cd	0.2450821
192	0x3e273932	0.16330412
193	0xbe2cc383	-0.16871457
194	0x3c83742c	0.016046606
195	0xbe56472b	-0.20925586
196	0xbde89618	-0.11356753
197	0x3d53c99c	0.05170594
198	0xbe176e4c	-0.14788169
199	0xbde77675	-0.11301891
200	0xbcdb6880	-0.026783228
201	0x3e5a4f12	0.21319225
202	0xbd331c80	-0.04372835
203	0xbe529dfb	-0.20568077
204	0xbe7f4279	-0.24927701
205	0x3e78d781	0.24300958
206	0x3db5ca67	0.08876496
207	0x3dbe969f	0.093060724
208	0x3dcb568e	0.09928618
209	0x3ba3860f	0.0049903463
210	0x3dfb81e2	0.122806326
211	0xbc986530	-0.018602937
212	0xbd21f2e4	-0.03953828
213	0x3bdc9373	0.0067314445
214	0x3c97236f	0.018449513
215	0xbd18da3f	-0.03731751
216	0xbcbb6c9b	-0.022878936
217	0x3e8f35e2	0.27970797
218	0x3cb3b779	0.021938073
219	0x3d4450be	0.047928564
220	0x3eac3093	0.3363081
221	0x3d9e97a9	0.07743771
222	0xbd91478f	-0.07093727
223	0xbe67f9dc	-0.22653908
224	0x3d382795	0.044959623
225	0xbd6d6022	-0.057953008
226	0xbb8fc168	-0.0043870695
227	0x3d947fc1	0.072509296
228	0xbc50c65f	-0.012742608
229	0xbd990a20	-0.07472634
230	0xbd2acae6	-0.041697405
231	0x3e1d6863	0.15371852
232	0xbe4fe377	-0.20301615
233	0xbe3afd2b	-0.18260638
234	0xbe2cb594	-0.16866142
235	0x3e6e62f5	0.23279937
236	0x3e3a7161	0.18207313
237	0xbe0f4439	-0.13990869
238	0xbe8e8339	-0.2783449
239	0x3e1b69e5	0.15177114
240	0x3d9edea6	0.077573106
241	0xbd5ef760	-0.054435134
242	0xbdb1748f	-0.0866481
243	0x3e2bdf4e	0.16784403
244	0xbe2207bc	-0.15823263
245	0x3bc42bf5	0.0059866854
246	0xbe4e36f9	-0.20138158
247	0xbe4e1e24	-0.20128685
248	0xbe567d47	-0.20946227
249	0x3e29dd7b	0.16588394
250	0x3e5deca1	0.21672298
251	0xbdb8b21c	-0.09018347
252	0x3d329b25	0.04360499
253	0xbda48d9c	-0.08034822
254	0xbe1d8e8d	-0.1538641
255	0x3d5551c6	0.05207994

action_layer.4.bias f4 [4]
0	0x3de403ec	0.111335605
1	0x3d3e9a34	0.04653378
2	0x3d657684	0.05602123
3	0x3dd5a167	0.10431176

value_layer.0.weight f4 [64, 8]
0	0xbe353fa7	-0.17700063
1	0xbd2960b1	-0.041351978
2	0xbd6be1ed	-0.057588506
3	0x3e3e834c	0.18604773
4	0x3e87d9d0	0.26533365
5	0xbe4f22e4	-0.20228153
6	0x3e8be85a	0.27325708
7	0x3bb686f2	0.005570286
8	0x3e90e7ac	0.28301752
9	0x3dc89124	0.097933084
10	0x3e4f9e96	0.2027534
11	0x3ef3ea7c	0.47639835
12	0xbd596cfd	-0.053082455
13	0xbf030e9c	-0.5119417
14	0x3ecbcafb	0.398033
15	0xbe028333	-0.12745361
16	0x3df3ff85	0.11913971
17	0x3eb7f6f7	0.35930607
18	0xbc8e579c	-0.01737576
19	0x3eb9dba3	0.36300382
20	0x3e660f5c	0.22466797
21	0xbe3d7b40	-0.18504047
22	0xbbacb9c2	-0.0052711675
23	0xbe09cd4a	-0.13457218
24	0x3eaaeda6	0.33384436
25	0x3e83471e	0.25640196
26	0xbe8702b3	-0.26369247
27	0x3c90a647	0.017657412
28	0x3e12dc2b	0.143418
29	0x3e60c34e	0.21949503
30	0x3ddad7ae	0.10685669
31	0x3db296dd	0.08720181
32	0x3b861951	0.0040923734
33	0x3d8d0977	0.06886571
34	0xbe434a36	-0.19071278
35	0x3e7c78a3	0.24655394
36	0x3ea1256c	0.31473863
37	0xbebb01a6	-0.36524695
38	0xbea281d1	-0.31739667
39	0x3e8708bd	0.26373854
40	0xbec2f66d	-0.38078633
41	0x3e52e57c	0.20595354
42	0xbeb6579c	-0.35613716
43	0xbdc58574	-0.09644595
44	0xbd9a93a0	-0.075476885
45	0x3f01deb1	0.50730425
46	0xbd8d6b9d	-0.06905291
47	0x3e58946f	0.21150373
48	0x3db9f187	0.09079271
49	0x3ef8095a	0.48444635
50	0x3e594ead	0.21221419
51	0x3ee0ec41	0.43930247
52	0x3e77267e	0.24135777
53	0xbd8b4dbf	-0.06801938
54	0xbddd3cf3	-0.10802641
55	0xbc9d9d9e	-0.019240197
56	0x3e5fe2f2	0.21863917
57	0xbe7f1d4c	-0.2491352
58	0xbea9b048	-0.33142304
59	0xbec45218	-0.38343883
60	0xbe56cecf	-0.20977329
61	0x3e3490ae	0.17633316
62	0x3d33b9c2	0.043878324
63	0x3d8d0682	0.06886007
64	0x3c9af215	0.018914262
65	0x3e884e26	0.26622123
66	0xbe11b16d	-0.14227839
67	0x3ebf68b6	0.37384576
68	0x3d7ea1de	0.062166087
69	0x3d055d1e	0.032559507
70	0x3d3e3c07	0.046443965
71	0xbe0a82aa	-0.13526407
72	0x3e3011ce	0.17194292
73	0xbe2615f1	-0.16219307
74	0xbd46e310	-0.048556387
75	0xbeafecc1	-0.34360316
76	0xbc8c00d1	-0.017090233
77	0x3e5c9e18	0.21544683
78	0x3e2c4bae	0.16825745
79	0x3e009001	0.12554933
80	0x3e8e4b67	0.27791902
81	0x3ebe7379	0.37197474
82	0x3e8b726b	0.2723573
83	0x3d99050d	0.074716665
84	0xbd7eeb14	-0.062235907
85	0xbe5351fc	-0.20636743
86	0xbea77390	-0.32705355
87	0xbe51aeac	-0.20476788
88	0x3d9e584d	0.07731686
89	0xbe944da8	-0.28965497
90	0xbe735c18	-0.237656
91	0x3e59cd8b	0.21269815
92	0x3e396488	0.18104756
93	0xbe6bdb50	-0.2303288
94	0x3ebf44f0	0.37357283
95	0xbe144e08	-0.14482892
96	0x3eaa3a64	0.33247674
97	0x3e60ab87	0.21940432
98	0xbd5ced6d	-0.053937364
99	0x3edefb6b	0.43551192
100	0xbe038b37	-0.12846075
101	0xbe7c6e0f	-0.24651359
102	0x3e60ed04	0.21965414
103	0xbdb88abc	-0.090108365
104	0xbde00ddc	-0.109401435
105	0x3d97f47b	0.07419678
106	0xbd2fdb19	-0.042933557
107	0x3e86bfac	0.2631811
108	0x3ebe4fa9	0.3717015
109	0x3da9ce94	0.08291355
110	0x3e0c66da	0.1371111
111	0x3e55c410	0.20875573
112	0xbc058b43	-0.008150878
113	0x3e40579f	0.18783425
114	0xbcd7def6	-0.026351433
115	0x3e064f08	0.13116086
116	0x3e7e4a8e	0.24833128
117	0xbde7f38d	-0.113257505
118	0x3e0289bd	0.12747855
119	0x3dbb74dc	0.091531485
120	0x3e0b8b13	0.13627271
121	0x3ebc6e67	0.3680298
122	0xbe8b35bc	-0.27189434
123	0xbd2ee75a	-0.042701103
124	0xbd9c20a1	-0.07623411
125	0xbea4b9f6	-0.32173127
126	0xbea9fbbb	-0.33199868
127	0xbd8029cc	-0.06257972
128	0x3e278676	0.16359887
129	0xbe666eef	-0.22503255
130	0x3dadfcc7	0.08495479
131	0x3e1f3683	0.15548138
132	0xbe83a940	-0.25715065
133	0x3e6e72ff	0.23286055
134	0x3ccd0424	0.025026388
135	0xbe8e14bf	-0.27750203
136	0xbcc22191	-0.023697646
137	0xbec92de4	-0.39292824
138	0x3eb33ac2	0.35005766
139	0x3ea4dfca	0.32201988
140	0x3e21a408	0.15785229
141	0x3de269b4	0.110553175
142	0x3eb55c14	0.35421813
143	0x3f2a5154	0.66530347
144	0x3e088212	0.13330868
145	0xbeb6a0f6	-0.35669678
146	0x3ea2d016	0.31799382
147	0x3dd24c97	0.102685146
148	0xbddfcf15	-0.1092817
149	0xbdb04d00	-0.086084366
150	0x3ee521e1	0.4475241
151	0x3e6f472a	0.2336699
152	0x3d832598	0.06403655
153	0xbdf6ecf3	-0.12056913
154	0x3e1f6618	0.1556629
155	0xbee1701f	-0.44030854
156	0xbc6d6326	-0.014488971
157	0x3e250fdb	0.1611933
158	0x3db35b33	0.08757629
159	0x3eaf61c0	0.34254265
160	0x3d772e56	0.060346924
161	0x3e5b6544	0.21425349
162	0x3e315ab5	0.17319758
163	0x3e30d9c6	0.17270574
164	0x3d5addbb	0.053434115
165	0xbeecb3f2	-0.46231037
166	0xbc5410ef	-0.01294349
167	0xbe45a452	-0.19300964
168	0x3e29e832	0.16592482
169	0x3e7ef455	0.24897893
170	0xbec8635d	-0.39138308
171	0xbea30a97	-0.31844017
172	0x3e2bda95	0.16782601
173	0xbdaa3136	-0.083101675
174	0x3edbf416	0.4295966
175	0x3ea02e2f	0.31285235
176	0xbd9965d2	-0.07490124
177	0xbd5de371	-0.054171983
178	0x3e39fefc	0.18163675
179	0x3e529f32	0.2056854
180	0x3e88e67e	0.26738352
181	0xbc165850	-0.009176329
182	0x3dae0251	0.084965356
183	0xbed91bf9	-0.42404154
184	0xbc0f0873	-0.008730042
185	0x3e0e2d40	0.13884449
186	0x3de5a220	0.112125635
187	0xbe95723a	-0.2918871
188	0xbdeb1e42	-0.114803806
189	0xbe3f6fd9	-0.1869501
190	0xbea15f7f	-0.3151817
191	0xbc31c559	-0.010850274
192	0x3d7e421a	0.062074758
193	0x3e508a1c	0.20365185
194	0xbc77e2b2	-0.015129732
195	0xbb86e439	-0.0041165617
196	0xbd9559af	-0.072924964
197	0x3e06766d	0.13131113
198	0xbebbba25	-0.36665455
199	0xbd9441d3	-0.072391175
200	0x3e86ae9a	0.26305085
201	0x3e1c7fe2	0.15283158
202	0xbdd4855e	-0.10377
203	0x3e9bede3	0.3045493
204	0xbe50f59a	-0.2040619
205	0x3ea8aa0b	0.32942232
206	0x3e8bf822	0.27337748
207	0xbb31c350	-0.0027124472
208	0x3d8304b6	0.06397383
209	0xbefa1fc8	-0.48852372
210	0xbdb39578	-0.08768743
211	0xbd6c2c8d	-0.057659674
212	0xbea4552f	-0.3209624
213	0x3d0bf468	0.03416863
214	0x3e91bd86	0.28464907
215	0x3d8993d4	0.06717649
216	0x3e887330	0.2665038
217	0xbe3019f1	-0.17197396
218	0x3db175bc	0.08665034
219	0x3ede4b00	0.43416595
220	0x3ea793bc	0.327299
221	0xbe969a21	-0.29414466
222	0xbed95b6d	-0.42452565
223	0xbe855b3c	-0.2604617
224	0x3dbfcb91	0.09364999
225	0xbc7ff5a5	-0.015622531
226	0x3d96af0e	0.07357608
227	0xbf0ed263	-0.55789775
228	0xbe9d671f	-0.30742738
229	0x3e801cd0	0.25021982
230	0x3e349c58	0.17637765
231	0xbe26dd34	-0.1629532
232	0x3e9aa99e	0.30207533
233	0xbe7710b2	-0.24127463
234	0xbe88df45	-0.2673284
235	0x3e32feac	0.17479962
236	0xbe18e2d9	-0.14930286
237	0xbd919933	-0.071092986
238	0xbdda1a1b	-0.106495105
239	0x3e840eb0	0.25792456
240	0x3e28354e	0.16426584
241	0x3e110e9a	0.14165726
242	0xbe12d8c8	-0.14340508
243	0x3eb7e38d	0.35915795
244	0x3eb1b7f3	0.34710655
245	0xbe6f83d8	-0.23390138
246	0xbd4517d3	-0.048118424
247	0xbdecf7dc	-0.11570713
248	0xbea18819	-0.31549147
249	0xbe927831	-0.28607324
250	0x3ea978d0	0.33099985
251	0x3c752661	0.0149627635
252	0x3de29146	0.11062865
253	0x3e0bf9a0	0.13669443
254	0x3e899296	0.2686965
255	0x3eda15ea	0.42594844

value_layer.0.bias f4 [64]
0	0x3e91b767	0.28460237
1	0xbd18111f	-0.037125703
2	0xbe03818e	-0.1284239
3	0xbe0319cb	-0.12802808
4	0xbdda1717	-0.10648935
5	0x3e8e5cc2	0.27805144
6	0x3e86ba15	0.26313844
7	0x3c7cf232	0.015438603
8	0xbe040eef	-0.12896322
9	0x3de02651	0.10944808
10	0x3e836cdc	0.2566899
11	0x3e4b91c6	0.19879827
12	0x3e0c4fc4	0.13702303
13	0xbe093f5b	-0.13403074
14	0xbe97e704	-0.29668438
15	0xbe54cbf8	-0.20780933
16	0x3e395461	0.18098594
17	0x3ed0f949	0.4081519
18	0x3e1b6792	0.15176228
19	0xbda9633e	-0.08270882
20	0xbdcd7f4d	-0.10034046
21	0xbe46ab02	-0.19401172
22	0xbdd221f0	-0.10260379
23	0xbe81d4f4	-0.25357783
24	0xbd05bcfb	-0.03265093
25	0x3e96f1bb	0.294813
26	0x3ebd47c5	0.36968818
27	0x3e186027	0.14880429
28	0xbe9808a4	-0.29694092
29	0x3ebc2247	0.36744902
30	0x3e1f055c	0.15529388
31	0x3c872d92	0.016501222
32	0xbc77dfbd	-0.015129027
33	0x3e9faba1	0.3118563
34	0x3da538eb	0.08067497
35	0x3e8edca9	0.27902725
36	0x3e09c689	0.13454641
37	0x3e4b8e3a	0.19878474
38	0x3dfecd42	0.124414936
39	0x3ec12da8	0.37730145
40	0x3eb9b1f5	0.36268583
41	0xbeb63f1f	-0.35595033
42	0x3e46612a	0.19373003
43	0xbd3650e0	-0.044510722
44	0xbe8f39b2	-0.27973706
45	0x3db1feea	0.08691199
46	0xbe839249	-0.25697544
47	0xbeae32cc	-0.3402313
48	0xbed0558c	-0.40690267
49	0xbe67156c	-0.22566766
50	0x3deb55b6	0.114909574
51	0x3e8feecf	0.28111884
52	0x3e5a14a8	0.21296942
53	0x3cb23973	0.02175591
54	0x3ecba736	0.3977601
55	0xbee0e78a	-0.4392665
56	0xbe982486	-0.29715365
57	0x3e1a999f	0.15097664
58	0xbe9ec3d2	-0.31008774
59	0x3ef2aa01	0.47395328
60	0x3ddf9501	0.10917092
61	0xbe42a03a	-0.19006434
62	0x3ec92f29	0.39293793
63	0x3e3cd630	0.18441081

value_layer.2.weight f4 [64, 64]
0	0x3dcc5009	0.09976203
1	0x3dd0bde0	0.10192466
2	0xbcc00364	-0.023439117
3	0x3decb2d9	0.1155755
4	0x3acd63cf	0.0015670004
5	0xbc75d799	-0.015005016
6	0xbb88d33c	-0.0041755717
7	0xbd8d6ef1	-0.06905926
8	0xbda51aa1	-0.0806172
9	0x3e06b6fc	0.1315574
10	0xbddfd14c	-0.10928592
11	0x3dfd76db	0.123761855
12	0x3d59fd20	0.053219914
13	0xbdbef81f	-0.09324669
14	0xbd21f355	-0.0395387
15	0xbd12ca4a	-0.03583745
16	0x3dc66dba	0.096888974
17	0x3d0ef6e2	0.034903415
18	0x3e16e110	0.14734292
19	0xbdba2aa3	-0.090901636
20	0x3d20d93b	0.039269667
21	0x3d9d9d11	0.07695974
22	0xbd105d1e	-0.035245053
23	0xbd717576	-0.05894991
24	0xbdc5ae78	-0.09652418
25	0x3cdef5aa	0.027216751
26	0x3d3f5016	0.046707235
27	0xbd023f43	-0.031798612
28	0x3df12c00	0.117759705
29	0xbc6d4484	-0.014481667
30	0xbcf964f3	-0.030443644
31	0x3dffe56c	0.124949306
32	0x3a277b54	0.0006388922
33	0x3d9cba6a	0.07652743
34	0x3d9493da	0.07254763
35	0xbcedf5c5	-0.029047856
36	0xbd62c519	-0.05536375
37	0x3dc06d6c	0.093958706
38	0xbd6aeb1f	-0.057353135
39	0x3d2389b9	0.039926264
40	0x3e324772	0.17410067
41	0xbd0dc3b2	-0.034610458
42	0xbc2c010a	-0.010498295
43	0x3d894402	0.067024246
44	0xbdef5edd	-0.116880156
45	0x3e1a4f86	0.15069398
46	0x3df6f8aa	0.12059148
47	0xbdb09c3f	-0.086235516
48	0xbdf6057c	-0.12012765
49	0xbc9954fb	-0.01871728
50	0x3e1f7534	0.15572053
51	0xbcb53e3a	-0.022124398
52	0x3cc46e65	0.023978421
53	0xbdf3ac8b	-0.11898144
54	0x3c5d4348	0.013504811
55	0x3ba1e844	0.0049410183
56	0x3d965879	0.073410936
57	0xbd0ef9dd	-0.034906257
58	0xbafdc260	-0.0019360296
59	0x3e033c10	0.12815881
60	0x3cd9880b	0.026554128
61	0xbd5c5901	-0.05379582
62	0xbdbb0e11	-0.09133542
63	0x3d847614	0.06467834
64	0x3d80b682	0.062848106
65	0x3e4a12a1	0.19733669
66	0x3d84ee30	0.06490743
67	0x3ca2781c	0.019832663
68	0xbddc069d	-0.10743449
69	0xbd2dde93	-0.04244859
70	0x3d9bf1b6	0.07614462
71	0xbea68498	-0.32523036
72	0xbcd90e37	-0.026496036
73	0x3d53e743	0.05173422
74	0x3df3224e	0.118717775
75	0x3e89cec5	0.26915565
76	0x3e246800	0.16055298
77	0x3ca0d35d	0.019632036
78	0xbe31236e	-0.17298672
79	0xbdee0984	-0.11622909
80	0x3e17f554	0.14839679
81	0x3f04c2b4	0.51859593
82	0x3e154041	0.14575292
83	0x3bb6b1b3	0.0055753826
84	0xbc8947f8	-0.01675795
85	0xbc194c94	-0.009356637
86	0xbb9bb262	-0.0047514895
87	0xbecbe669	-0.39824226
88	0xbdf02c8e	-0.11727248
89	0x3d52cfa1	0.05146754
90	0x3e312f3e	0.17303178
91	0x3d915627	0.070965104
92	0xbebd1a6f	-0.3693423
93	0x3ea0c369	0.31399086
94	0x3e4298bf	0.1900358
95	0x3ca84dc4	0.020544894
96	0x3e5553d8	0.20832765
97	0x3be37f6d	0.0069426806
98	0x3cf3c0bf	0.029754994
99	0x3e7dfe8d	0.24804135
100	0x3e463121	0.19354679
101	0x3e5e0a4a	0.21683612
102	0x3da6083e	0.08107041
103	0x3d355eac	0.04427974
104	0x3ebb5d70	0.36594725
105	0xbefd2223	-0.49440107
106	0xbd2acd9a	-0.041699983
107	0x3d56fc61	0.05248678
108	0xbe6f31b7	-0.23358808
109	0xbde7c0a3	-0.113160394
110	0xbea0cc70	-0.31405973
111	0xbe95d6dc	-0.29265487
112	0xbee67512	-0.45011193
113	0x3c94f58c	0.018183492
114	0xbb3432e0	-0.0027496144
115	0x3e6d94a8	0.23201239
116	0x3e0c7fe6	0.13720664
117	0xbe2fe45b	-0.17176954
118	0x3ee35f3d	0.444086
119	0xbf11f62c	-0.57016253
120	0xbea68150	-0.32520533
121	0x3df1c313	0.118047856
122	0xbde61fea	-0.11236556
123	0x3f042ea7	0.51633686
124	0x3e7e3122	0.2482343
125	0xbde6918b	-0.11258229
126	0x3e2fdf5f	0.17175053
127	0x3cfba48f	0.030718116
128	0xbde17f02	-0.11010553
129	0x3dc5b3d3	0.096534394
130	0xbd221093	-0.039566588
131	0x3da9686a	0.082718685
132	0xbe0100a1	-0.12597896
133	0xbbaf0a9d	-0.0053418414
134	0xbe37e83f	-0.17959689
135	0x3d1e17d8	0.038596958
136	0xbe0402fa	-0.1289176
137	0xbdd494c6	-0.10379939
138	0xbd0b2fa8	-0.033980995
139	0x3e4317d9	0.19052066
140	0xbd4a1f3f	-0.049346205
141	0xbc7d7224	-0.015469108
142	0x3d9f9b20	0.077932596
143	0xbd261009	-0.040542636
144	0xbd835c79	-0.06414122
145	0x3e2adb4a	0.16685215
146	0x3e0b5e2d	0.13610144
147	0x3dfeee3f	0.124477856
148	0x3d94c4d0	0.072641015
149	0x3dc8894c	0.09791812
150	0xbd168ff0	-0.036758363
151	0x3be9f9c3	0.0071403696
152	0xbd9d9816	-0.07695024
153	0xbd5d565d	-0.05403744
154	0x3e0c6b6b	0.13712852
155	0xbdaccdf2	-0.084377185
156	0x3db35fd4	0.08758512
157	0xbd6127c3	-0.05496956
158	0xbcc8d923	-0.024517601
159	0x3cf3bcb4	0.029753067
160	0xbdda4b2d	-0.1065887
161	0x3d204c25	0.039135117
162	0xbd77d9bb	-0.06051038
163	0x3e40e9e6	0.18839225
164	0xbdb83949	-0.08995301
165	0x3d19ad7f	0.037518974
166	0x3bbf01bc	0.005829064
167	0xbd990a18	-0.07472628
168	0x3e5ad23f	0.21369265
169	0xbdaa65ec	-0.08320221
170	0xbd0f101c	-0.034927472
171	0x3d194743	0.037421476
172	0xbd34e626	-0.0441648
173	0x3ddf4f9b	0.109038554
174	0xbce90d7d	-0.028448815
175	0xbdd7f12f	-0.10544049
176	0xbd4bfec4	-0.04980351
177	0x3d3e5929	0.04647175
178	0x3e1d891e	0.15384337
179	0x3d6d02d2	0.057864018
180	0xbd43e4c6	-0.047825597
181	0x3cbb06f7	0.02283047
182	0xbd2af3c0	-0.041736364
183	0xbe007ca7	-0.12547551
184	0xbcab2f21	-0.020896496
185	0xbdd88486	-0.10572152
186	0x3cfdae8f	0.030967025
187	0x3d99c501	0.07508279
188	0x3ccc0a88	0.024907365
189	0xbe0ffc49	-0.14061083
190	0x3dc401f9	0.09570689
191	0xbd842aa6	-0.06453447
192	0xbe1bdd77	-0.15221201
193	0x3daf7481	0.08567143
194	0xbc458437	-0.012055448
195	0xbd18dd5d	-0.037320483
196	0x3d869dd4	0.06573072
197	0x3b5af9e0	0.0033413097
198	0x3d543bd4	0.05181487
199	0xbddf10d3	-0.10891881
200	0x3de1e7ad	0.11030517
201	0x3cf7e69e	0.030261334
202	0x3d4e24e2	0.050328143
203	0xbd05ca61	-0.032663707
204	0x3ba5abb4	0.005055869
205	0x3d9d4c6a	0.076805905
206	0x3e05c6a5	0.13064058
207	0xbd8fcfd9	-0.07022066
208	0xbdea9790	-0.114546895
209	0xbdcb226e	-0.09918676
210	0x3b92d03b	0.0044803894
211	0xbde59c0c	-0.11211404
212	0xbcd61206	-0.026131641
213	0xbd67e250	-0.056612313
214	0x3d322e8d	0.043501426
215	0xbdbeb227	-0.093113236
216	0x3dd0a4d1	0.10187686
217	0xbe090541	-0.1338091
218	0xbe024a95	-0.12723763
219	0x3d2e3032	0.04252643
220	0xbe00f4b1	-0.12593342
221	0xbbf6ec19	-0.0075354693
222	0xbd4c7266	-0.049913786
223	0xbd7fda85	-0.062464256
224	0x3dbc35f1	0.09189976
225	0xbdd9a926	-0.10627966
226	0x3ca4aa2a	0.020100672
227	0xbd617100	-0.055039406
228	0x3d65e0f2	0.056122728
229	0x3deec7bc	0.1165919
230	0x3de1d345	0.110266246
231	0xbdc6774c	-0.09690723
232	0xbdced336	-0.10098879
233	0xbde69c0b	-0.112602316
234	0x3b213b0c	0.0024601845
235	0x3d91f313	0.07126441
236	0x3d86f3f6	0.065895006
237	0x3d514557	0.05109152
238	0x3e0129df	0.12613629
239	0xbdf6f807	-0.12059026
240	0xbddcca11	-0.107807286
241	0xbcfe7980	-0.031063795
242	0x3d9b3a2c	0.07579455
243	0xbdcbfe5f	-0.09960627
244	0x3d8920f9	0.06695742
245	0xbc91be7b	-0.017791023
246	0x3d2f601d	0.04281627
247	0x3db9164d	0.09037457
248	0x3e199e3e	0.15001771
249	0x3dd1f410	0.10251629
250	0xbc133fe1	-0.008987398
251	0xbd5548ea	-0.05207149
252	0x3d64de7a	0.055876233
253	0x3df9de9e	0.12200664
254	0xbc3bcf19	-0.01146295
255	0xbd4cafd9	-0.04997239

value_layer.2.bias f4 [64]
0	0xbd9c354d	-0.07627354
1	0x3e631a94	0.22178108
2	0x3c24547c	0.010029908
3	0xbdecf8a2	-0.115708604
4	0xbd29fc80	-0.04150057
5	0x3e0dcf9d	0.1384873
6	0xbd77740c	-0.060413405
7	0x3d96d519	0.07364864
8	0xbdce423b	-0.10071226
9	0xbd652364	-0.055941954
10	0xbdae794c	-0.08519229
11	0x3e3d945f	0.1851363
12	0x3d05113f	0.03248715
13	0x3df6609b	0.12030145
14	0xbdfaea0c	-0.12251672
15	0xbd8a4eee	-0.06753336
16	0xbdc4e4c6	-0.096139476
17	0xbe08902a	-0.13336244
18	0xbdeabdab	-0.114619575
19	0xbe50215c	-0.20325226
20	0x3d6924c0	0.056919813
21	0xbc1e8731	-0.009675787
22	0xbc885dfa	-0.016646374
23	0xbe288225	-0.16455896
24	0x3cb93854	0.022609867
25	0x3dc33dc5	0.09533266
26	0xbde4d581	-0.11173535
27	0x3e1c73af	0.15278505
28	0x3cbb4c85	0.022863636
29	0xbd491467	-0.049091723
30	0x3db15851	0.08659423
31	0xbe09023a	-0.13379756
32	0xbd1de562	-0.038548835
33	0x3cf7cc7c	0.030248873
34	0x3d5cd4de	0.053913943
35	0xbe4574f3	-0.19282894
36	0x3d8600b7	0.06543105
37	0xbbe82320	-0.0070842654
38	0x3d5cf131	0.053940956
39	0x3c32597c	0.010885593
40	0x3b511139	0.0031901135
41	0x3e18e31e	0.14930388
42	0xbd8fc4d6	-0.07019965
43	0xbe04191e	-0.12900206
44	0x3d03870c	0.032111213
45	0xbd7ac108	-0.061219245
46	0xbdcd24dd	-0.10016797
47	0x3dea2f7f	0.114348404
48	0x3e3a0520	0.18166018
49	0x3d230296	0.039797388
50	0xbd53eefb	-0.05174158
51	0xbcaf84e6	-0.021425676
52	0xbdf626fa	-0.12019153
53	0xbc53bd2d	-0.012923521
54	0x3d3376c9	0.043814454
55	0x3d1e5d5d	0.038663257
56	0x3dfe051e	0.1240332
57	0xbe115f53	-0.1419652
58	0x3b1a7ef4	0.0023574205
59	0x3d77925b	0.06044231
60	0xbd7ca1f6	-0.061677895
61	0x3e2004c9	0.15626825
62	0x3de7f35f	0.11325716
63	0xbd7eec2d	-0.062236954

value_layer.4.weight f4 [1, 64]
0	0xbd4c0912	-0.049813338
1	0xbdfb8203	-0.12280657
2	0xbddf22d8	-0.10895318
3	0x3bc0ad49	0.005880032
4	0x3cc62e04	0.024191864
5	0x3ddfbd17	0.10924738
6	0xbe26641e	-0.16249129
7	0xbba05a74	-0.0048935954
8	0xbc000ae6	-0.007815098
9	0x3ca56302	0.020188812
10	0x3cc393f9	0.02387427
11	0xbe2bacc1	-0.16765119
12	0x3c4cbe41	0.012496532
13	0x3e112461	0.14174034
14	0xbb4d8b1d	-0.0031363436
15	0x3b77f92c	0.0037837727
16	0xbc131a33	-0.008978414
17	0x3b10cf68	0.002209628
18	0xbc74f33f	-0.0149505725
19	0x3dad140b	0.084510885
20	0x3be8e699	0.0071075675
21	0xbba033ed	-0.0048890025
22	0xbd770b54	-0.060313538
23	0xbe33d5d3	-0.17562036
24	0x3d9518a9	0.07280094
25	0x3c8d9632	0.017283533
26	0x3c02be11	0.007979886
27	0x3bf4bbec	0.007468691
28	0x3c98f611	0.018672021
29	0xbc386b0c	-0.011255991
30	0xbd09df10	-0.033659995
31	0xba9423b9	-0.001130215
32	0x3bf13bbd	0.0073618577
33	0x3c2d9820	0.010595351
34	0xbae0ed97	-0.0017160651
35	0x3e1e6092	0.15466526
36	0xbd52408d	-0.05133109
37	0x3caa81a6	0.020813774
38	0xb9d94768	-0.00041442667
39	0x3987f0dc	0.0002592866
40	0xbc51d300	-0.012806654
41	0xbda0b914	-0.07847801
42	0x3b8afb87	0.00424141
43	0x3ca19a4d	0.019726897
44	0x3c2a3b79	0.010390156
45	0xbc8508c9	-0.01623954
46	0xbaf50645	-0.0018693885
47	0x3c656e37	0.014003328
48	0x3dc47d9e	0.09594272
49	0x3bebd174	0.0071965996
50	0x3bc68417	0.006058227
51	0x3cc2fdee	0.023802724
52	0xbd84dc3a	-0.064873174
53	0x3c881885	0.016613254
54	0x3aac5017	0.0013146427
55	0x3ca0be44	0.019621976
56	0xbe1a2870	-0.15054488
57	0xbbcada78	-0.0061905943
58	0xb8ca5f20	-9.649829e-05
59	0xbcb9ba64	-0.022671886
60	0xbbdf6dbe	-0.006818502
61	0xbe2c28f4	-0.16812497
62	0x3ba54066	0.0050430773
63	0xbc24576a	-0.010030607
