tasks/solution/PPO_LunarLander-v2-eps0.18.pth (torch, 554407 bytes, 11 tensors)

action_layer.0.weight f4 [256, 8]
000000 c4 6d 4e 3e e0 d9 78 3e 30 e1 ec bd 35 5b fc 3e
       0.2015906 0.24301863 -0.115663886 0.49288335
000010 b6 54 91 3d 8e e9 1a 3e 91 d6 10 be 0d 17 5c 3e
       0.070962355 0.15128157 -0.1414435 0.21493168
000020 53 e4 15 3e 8b 16 4f be c7 3a 25 3e 43 aa 2c 3c
       0.1463788 -0.20223443 0.16135703 0.01053864
000030 8c f2 46 3e 51 08 de 3d 7f 7a 44 3d 6f 80 1a be
       0.19428462 0.1084143 0.047968384 -0.15088056
000040 67 94 31 3e 20 11 8a 3d 53 e6 1d be 4c ec fd 3d
       0.17341767 0.067415476 -0.15419893 0.12398586
000050 0e 07 20 bd f6 2c d5 bc a0 f0 3d bd d4 6d 4f 3e
       -0.039069228 -0.026022416 -0.046372056 0.2025674
000060 16 9d 62 be 7c da 28 be 72 5a 65 3c a8 93 82 be
       -0.22130236 -0.16489595 0.013998615 -0.25503278
000070 49 82 39 be 19 06 fd be bf e2 c1 3e 4c 1d 9f be
       -0.18116106 -0.49418715 0.37868306 -0.3107704
000080 e4 f9 4e 3e ae be 22 3d df 56 3b be da 15 a4 3e
       0.20212513 0.039732628 -0.18294857 0.3204792
000090 30 b2 75 3e 58 c8 e6 3e 97 3a 15 bd af 14 e5 bd
       0.23993754 0.45074725 -0.03643283 -0.11185586
0000a0 b6 e1 cf 3d 7a 2f e9 3c ce 3d 0e 3e 6b 90 a0 3e
       0.10150473 0.028465021 0.13890764 0.31360182
0000b0 71 f3 88 3e a9 07 db bd d5 90 4d 3e 12 12 5c 3d
       0.2674823 -0.106948204 0.2007478 0.05372817
0000c0 38 5f e7 3d 82 d6 de bd c8 0d c1 be 93 12 8c be
       0.112974584 -0.10880758 -0.37705827 -0.2735792
0000d0 6c de 08 be 71 cd a0 3e 72 5d 20 3e a3 71 bf 3e
       -0.13366097 0.3140674 0.15660647 0.37391385
0000e0 29 d6 16 3e fe 35 2d bd 0b a1 99 3e a7 22 9b be
       0.14730133 -0.04228782 0.3000568 -0.30299875
0000f0 06 cd 44 be e0 e2 cb be 59 2d 8e 3d 3e a8 45 be
       -0.19218835 -0.3982153 0.06942243 -0.1930246
000100 c3 3f c2 3d 96 c0 d0 bd f7 f0 9b 3e 6f 5d 89 be
       0.09484818 -0.10192983 0.3045728 -0.26829097
000110 6f 37 cc be f9 0b b1 be 05 fc ce 3e c9 4c e2 3d
       -0.39886042 -0.34579447 0.4042665 0.11049802
000120 6f e2 80 3e 29 27 96 be 1e 78 b5 be 60 0d be be
       0.25172755 -0.29326752 -0.35443205 -0.3711958
000130 2a 50 4f be 08 0a 2e 3e 46 4e 9c 3d 06 d1 af 3e
       -0.20245424 0.16996014 0.07632117 0.3433916
000140 73 2f 9f bd 63 b8 19 be 89 a1 3f 3e 90 a4 9a be
       -0.07772722 -0.15011744 0.18713965 -0.30203676
000150 01 e4 86 3d ce 71 0a be 5b ed 38 3e 65 39 99 be
       0.06586457 -0.13519976 0.18059294 -0.299266
000160 81 e1 e4 bd df e5 07 3e d6 d5 02 3c e1 4d 1c be
       -0.11175824 0.13271283 0.007985553 -0.15264083
000170 4e fa b5 3e 3e 88 00 3f 11 69 c5 be 5f bd 88 bd
       0.3554253 0.5020789 -0.38556722 -0.06676745
000180 ca 77 af 3e 06 af 16 be c4 1d 18 be 2d d0 dd be
       0.3427108 -0.14715204 -0.14855105 -0.43322888
000190 62 73 80 be 70 11 f8 3d 88 0e 00 be 85 a6 7d be
       -0.2508803 0.12112701 -0.12505543 -0.24770553
0001a0 6f 69 2e 3d 96 0f 3a be 98 8e 4c be b4 c2 7f be
       0.042581018 -0.18170008 -0.1997627 -0.24976617
0001b0 d2 3f bc be 5a 04 b0 be 28 19 00 3f f2 5c 90 3d
       -0.3676744 -0.3437832 0.50038385 0.07048978
0001c0 b7 74 1e 3e 2d ff 8a be 18 c7 e4 bd 6a 7d 7a be
       0.1547421 -0.2714781 -0.111707866 -0.24461904
0001d0 41 7d 06 be 46 54 bd be c7 ea 03 be 7a 92 32 be
       -0.13133718 -0.36978358 -0.12882529 -0.17438689
0001e0 a9 2e 04 3e 86 ab ed bd 8f ca 00 3d c7 cf b9 be
       0.12908424 -0.11604981 0.031443175 -0.36291334
0001f0 fd 5f de be ad cc 95 be b9 a6 01 be ed 91 83 be
       -0.43432608 -0.29257718 -0.12661256 -0.2569727
000200 a9 9d 61 3e 7d da e1 bd 6a f9 37 3e 34 e8 1c 3e
       0.22032799 -0.110280015 0.17966238 0.15322953
000210 8e 89 be be f5 ae a5 3d 1b 99 0c bd 03 95 b1 be
       -0.3721432 0.08090011 -0.0343257 -0.34684
000220 41 c3 65 be b6 81 5f be 67 c9 47 3e 09 ea d5 bd
       -0.22437765 -0.21826825 0.19510423 -0.10445029
000230 f2 97 34 3c 2d 89 e5 be fc 34 b1 3e 85 a4 96 be
       0.011022555 -0.4483122 0.34610736 -0.29422393
000240 4f 3d 05 be 7f f0 1d 3d 35 0b 3e 3e c2 28 ec 3e
       -0.13011669 0.038559433 0.18558963 0.46124846
000250 0c 3d 9c 3e d7 22 bb be af b6 4b 3e 09 45 8d be
       0.30515325 -0.36550018 0.19893907 -0.27591732
000260 b7 43 45 3b 47 07 71 be bc ca 8a 3e 44 cd c8 be
       0.0030100176 -0.23537932 0.271078 -0.39219105
000270 d5 f2 28 3e 69 4d 57 3e 13 05 c1 3c 31 aa 6e be
       0.16498883 0.21025623 0.02356199 -0.2330711
000280 7c 66 74 3e b9 65 3a bc 92 de 2b 3d f1 8b b5 be
       0.2386722 -0.011376792 0.041960306 -0.3545833
000290 cb a3 b9 bb 18 18 ea bd 16 12 8a be d8 c6 8d 3e
       -0.0056652776 -0.11430377 -0.26966923 0.27690768
0002a0 cb a2 84 3d 87 c7 23 be db eb 49 be 65 6b 60 bd
       0.06476363 -0.15994082 -0.19718878 -0.05478992
0002b0 47 f1 93 3e 46 f4 c6 3d 31 a8 67 be 8d 59 0e be
       0.28895018 0.0971456 -0.22622754 -0.13901348
0002c0 43 63 5a be 9d c9 93 3d e0 c9 68 3e 42 9f da be
       -0.21326928 0.07216189 0.22733259 -0.4269963
0002d0 46 22 2c 3c bf 3f 62 3e 42 59 48 bd 43 13 f9 bd
       0.010506218 0.2209463 -0.048913248 -0.12161877
0002e0 73 e2 56 3e 66 85 f4 3c e9 a9 8e 3d a4 47 2d bd
       0.20984821 0.029848766 0.069660015 -0.04230465
0002f0 1d 07 19 be 1f 5f 97 3d 30 94 14 be 48 4b 3c be
       -0.1494412 0.0739119 -0.14509654 -0.18388093
000300 67 71 a6 3e a8 ae 8a 3e 92 ad ff bc 11 38 17 bd
       0.32508394 0.27086377 -0.031210694 -0.036918703
000310 6a 9f 09 3c 07 f5 34 bd a4 aa 56 3d 25 0a 8e bc
       0.008399824 -0.04417899 0.05240883 -0.017338822
000320 ce 25 8e be 81 f7 08 be c4 5c b2 3e 96 58 24 3e
       -0.27763218 -0.13375665 0.348364 0.16049418
000330 8b 61 31 be 55 0c a7 be 83 e1 a3 bd ed 6e bf be
       -0.17322366 -0.32626596 -0.08001997 -0.37389317
000340 02 cb d0 bd 8a 88 d9 3d f7 92 94 3e cf 80 27 3e
       -0.10194971 0.10621746 0.29018375 0.1635773
000350 7e fa f9 be 3d 0b fa be f6 c8 db 3d af 5a 97 3e
       -0.48823923 -0.488367 0.1073169 0.29561374
000360 f4 bc fe 3c 7f 29 f0 bd 41 e3 bb 3c 57 b2 66 be
       0.03109596 -0.11726665 0.022935512 -0.22528969
000370 b7 3d 81 be 09 7a 9e 3e 1e 1c 5d be e2 84 3f bd
       -0.25242397 0.3095248 -0.21592757 -0.046757586
000380 ec 2a 9e be 27 c0 3d 3e 5d 1d b2 3e 76 e7 36 3e
       -0.30892122 0.18530332 0.34788027 0.17861733
000390 a4 0b f9 be db da 34 bf 01 64 06 be 12 8d 7b 3e
       -0.48641694 -0.70646447 -0.13124086 0.24565533
0003a0 d8 78 7b 3e 35 22 7d 3e b1 25 79 3e c7 1d 54 3e
       0.24557817 0.2472008 0.24330784 0.20714484
0003b0 25 21 10 be 77 5c bd be 7a 02 7b be 28 1a 13 bf
       -0.14075144 -0.36984608 -0.24512663 -0.57461786
0003c0 54 97 13 3e 3f c7 58 be 2a 92 60 bd 53 7e 94 be
       0.14413196 -0.21169756 -0.054826893 -0.29002628
0003d0 ed 69 44 be f1 d0 8f be 2c fb 94 be c3 73 a0 3d
       -0.19181032 -0.28089097 -0.2909788 0.0783458
0003e0 58 86 b6 3d 4f 90 62 3d 6f 52 ab bc ce 9e d9 bd
       0.08912343 0.055313405 -0.02091333 -0.10625993
0003f0 ed ec 30 be ff d0 1f be ec d6 03 be 5f 0d ef be
       -0.1727788 -0.1560707 -0.12874955 -0.4668989

action_layer.0.bias f4 [256]
000000 ed f6 fc 3d da d1 a2 3d 99 29 af bc 9f 8a d5 3d
       0.12351785 0.07950182 -0.02138214 0.104268305
000010 73 5a fb 3d c3 e1 4c be 7c e1 da bd a5 db fc bc
       0.12273111 -0.20007996 -0.10687539 -0.030866453
000020 ea 55 9e 3d 2b 44 19 3e 37 68 02 be 38 02 80 be
       0.077312306 0.1496741 -0.12735067 -0.25001693
000030 1c 10 72 bc c6 c1 23 bd 3e c4 f2 3d 41 34 8a bd
       -0.014774349 -0.03997972 0.118538365 -0.06748248
000040 86 0c 32 3e 76 ff 1d 3d b0 5e 34 3e 01 0b 3d be
       0.1738759 0.038573705 0.17614245 -0.18461229
000050 9c 19 91 3d 37 57 a8 3d aa 94 45 be 92 d4 72 3d
       0.07084963 0.0821976 -0.19294992 0.059284754
000060 71 50 90 be 7d 74 6e 3e 6b 43 38 3b f5 a2 f9 3c
       -0.28186372 0.23286624 0.0028116356 0.030473212
000070 75 cd c6 3d 40 a2 68 bc 19 b3 e2 3d 9e 41 a1 3d
       0.097071566 -0.01419884 0.110693164 0.078738436
000080 b3 be 4a be 3a 23 b5 3d b0 2a c7 bd 35 2a 57 bd
       -0.19799308 0.088446096 -0.09724939 -0.052530486
000090 18 b9 a8 3c 61 11 20 3e d0 89 3e be 79 96 26 be
       0.020596072 0.1563163 -0.18607259 -0.16268338
0000a0 12 a9 39 3e 26 82 03 be f2 98 82 3d e1 cb 2b bd
       0.18130901 -0.12842616 0.06376828 -0.04194248
0000b0 89 36 88 3d f6 31 6a 3e c4 cc 13 be ad e2 55 be
       0.06651027 0.22870621 -0.1443358 -0.20887251
0000c0 a9 4a da 3d 56 3e 3b bd cc b0 68 bd 29 e2 85 be
       0.106587715 -0.045713745 -0.05680923 -0.2614911
0000d0 b1 ab 64 3e cf b6 5f bd 0a d3 4b bd fc 46 d0 bd
       0.2233112 -0.0546177 -0.04976181 -0.10169789
0000e0 22 ed 62 bd b7 f7 69 3d 5c bc c5 3c 22 81 67 3e
       -0.05540193 0.057121005 0.024137668 0.22607854
0000f0 53 fc 17 bb 8e 84 87 bd 1a 3e b0 3d ca 20 42 bd
       -0.0023191168 -0.0661708 0.08605595 -0.04739455
000100 84 d1 d7 bc 0a b5 72 3d d5 f9 46 3e f0 89 b4 3d
       -0.026345022 0.059254684 0.19431241 0.08815372
000110 7f fd 43 3e be 69 20 3e 48 f5 0e 3d cc 19 d7 3d
       0.1913967 0.15665337 0.034901887 0.10502967
000120 9c 26 bd 3c d4 a0 86 3c ad 6d 3a 3e af 7a 64 3e
       0.0230897 0.01643411 0.182059 0.22312425
000130 12 58 dd 3b 94 4a 61 3d b3 5d 86 3e 2b 49 8c be
       0.0067548836 0.055002764 0.26243362 -0.27399573
000140 9c 13 82 3e 94 f4 0e 3e bf 3a 62 3e c3 df b6 bc
       0.25405586 0.13960487 0.22092722 -0.022323495
000150 7b 63 50 be 02 7d 54 3e 55 c2 a4 bd e3 9b 81 3d
       -0.20350449 0.20750812 -0.080448784 0.06328561
000160 d8 59 33 3e a2 74 70 be 84 1a de 3b b4 1f d7 bd
       0.17514741 -0.23481992 0.0067780633 -0.10504094
000170 fc cd 77 3e 03 03 27 be bf b1 08 3e 6f 4e 1e 3e
       0.2419967 -0.16309743 0.13349055 0.15459608
000180 06 22 d2 3d ec 3b 37 3e bc 6e b4 3d da 33 85 be
       0.10260396 0.17893952 0.088101834 -0.26016122
000190 df 8e 2d 3e db 95 9c 3d 57 94 64 3c 12 b0 83 be
       0.16949032 0.0764577 0.013951383 -0.25720268
0001a0 46 45 9f bb 44 ee a4 bd 0f f4 73 3e 88 f9 2a 3e
       -0.004860553 -0.08053258 0.2382357 0.16696751
0001b0 df 56 24 3e 26 6d 10 3e 9f dd 22 be cd 89 0e be
       0.16048764 0.14104137 -0.15904854 -0.13919754
0001c0 da 7d ab bd b9 c1 99 bd 2e 45 49 3e ea f8 a3 3d
       -0.08373614 -0.07507653 0.19655296 0.08006461
0001d0 51 c4 4d 3e fe ea 67 bd 81 da 7c be cd 8a 15 be
       0.2009442 -0.05662059 -0.24692728 -0.1460373
0001e0 e6 9b 50 3e f9 38 14 3e dd 92 51 3d 1a 65 68 bd
       0.2037197 0.14474858 0.05116545 -0.056737043
0001f0 fc 7a 36 be 41 21 5e bd 77 4e e4 3d c2 a1 05 be
       -0.17820352 -0.054230932 0.111477785 -0.13049987
000200 cb 2a bb 3d 62 98 0e 3e e8 94 17 be 12 8a 2a 3e
       0.091390215 0.13925317 -0.14802897 0.16654232
000210 f3 63 b5 bd 96 5f 6b bc d5 eb b1 bd be 7c 7d be
       -0.088569544 -0.014366051 -0.086875595 -0.24754617
000220 dc 66 a8 3d 84 88 14 3d a6 9d 0f be 4c 73 85 3d
       0.08222744 0.036263004 -0.14024982 0.06516132
000230 f7 c1 53 be 6a 16 85 be c3 24 48 be bb 4a 90 bd
       -0.2067946 -0.25993663 -0.19545273 -0.07045504
000240 bc 4e ce bb 7c f1 60 bd bd e3 d3 3d 22 c9 82 be
       -0.006296007 -0.054917797 0.10346172 -0.25544077
000250 e8 8f 94 3d 8d 30 10 3c 4c 4c da 3d f7 f8 8c 3e
       0.072540104 0.008800638 0.10659084 0.27533695
000260 ba ec 04 3e e4 ab e5 bd a1 4b 70 be 24 57 3f bd
       0.12980929 -0.11214426 -0.2346635 -0.046713963
000270 1b 15 35 be 14 12 3b 3d da b2 c5 bc 1e 83 72 3e
       -0.17683832 0.045671538 -0.024133135 0.2368283
000280 49 df 74 3d c2 43 8b bd e6 ed 6e 3d 26 37 77 3c
       0.059783254 -0.06800033 0.058332346 0.015088832
000290 45 88 ac bc 82 28 4d 3e da b8 61 be 4d d1 e1 3d
       -0.021061072 0.20034984 -0.22043172 0.11026249
0002a0 a6 7a f9 bd cf 3e 72 be 7f 12 f4 bc 1d 50 d7 3d
       -0.121815965 -0.23656772 -0.029793976 0.10513327
0002b0 e2 b3 30 3e a7 cf a2 3d f4 3d bc 3c a3 ee 21 3d
       0.1725612 0.07949763 0.02297876 0.039534222
0002c0 19 22 b0 bd 78 89 74 3c bd f7 12 bc f7 65 5c 3e
       -0.086002536 0.014925353 -0.008970198 0.21523272
0002d0 bf d7 04 3e fa cc 63 be f3 8b 47 bd ed b9 f5 bd
       0.12972926 -0.22246161 -0.04871745 -0.11998353
0002e0 0b cc 27 bd f2 3a 81 be 9e b7 6e 3b 4e ca 3e be
       -0.040966075 -0.25240284 0.0036425362 -0.1863186
0002f0 46 a7 a3 3e fd e2 47 3e 05 b4 2d be ff fc 5f be
       0.31963557 0.19520183 -0.16963203 -0.21873854
000300 3f a1 f3 3c 77 b1 c4 bd b4 bd 64 3d cb 6c 67 be
       0.029739974 -0.09604161 0.055844977 -0.22600095
000310 1a 87 af 3d ab 4d 73 be 13 94 0e be bf 4c 0b be
       0.085706905 -0.23760097 -0.13923673 -0.13603495
000320 83 59 cc 3d 16 b7 53 bd a3 7c 8e be da fb 30 be
       0.099780105 -0.051688276 -0.27829465 -0.17283574
000330 39 22 2a be 1c 0f 79 be 59 6f fb 3c b1 93 ce 3d
       -0.16614617 -0.2432217 0.030692743 0.10086764
000340 a1 a5 0c bc 3f a9 fe bd 54 3a 4f 3d 16 a3 7a be
       -0.008584411 -0.12434625 0.050592735 -0.24476275
000350 5e 16 34 be 32 a7 5a bd b7 6f 4b 3e f8 4f 10 be
       -0.17586657 -0.053382106 0.19866835 -0.14093006
000360 81 e3 44 3e ec 67 5c bd 25 ac bd bd 35 b5 99 be
       0.19227411 -0.053810045 -0.092613496 -0.30021062
000370 87 66 70 3e 76 57 84 3e 9a 09 ec 3c 8c 38 32 3e
       0.23476611 0.25847977 0.028813172 0.17404383
000380 2b fe 02 3e 81 07 17 3e 4e 7d 17 3e a3 c7 70 be
       0.1279227 0.14748956 0.14793894 -0.23513655
000390 e9 4c 81 be a9 d4 15 be 39 be 87 3b 7d 2e 66 be
       -0.2525399 -0.14631905 0.0041425494 -0.22478671
0003a0 dd 25 32 be a6 6c 22 be 58 9b 1d be 97 f1 0a 3d
       -0.17397256 -0.15861759 -0.1539129 0.033921804
0003b0 91 f8 80 3d 49 07 21 be f7 9f 2c 3e d7 9b 6f bd
       0.0629741 -0.15725435 0.16857897 -0.05849823
0003c0 a7 39 76 bc 7b ef 20 3e 36 17 6a 3e 7a 5f 6b bd
       -0.015028394 0.15716355 0.22860417 -0.0574641
0003d0 ea e9 30 be 2e 0c 12 be bd a1 2b bc 98 15 2a 3e
       -0.17276731 -0.14262459 -0.010475573 0.166098
0003e0 1c 43 01 3e 0d 90 af bd b6 a5 85 be 0f 52 73 be
       0.12623256 -0.085723974 -0.2610299 -0.23761772
0003f0 76 7c d1 bc 68 09 16 39 62 48 06 be fc 39 2c be
       -0.025572043 0.00014308619 -0.1311355 -0.16818994

action_layer.2.weight f4 [256, 256]
000000 dc 4c 6b 3b 94 99 83 bd b4 9a 96 bd fb ab 40 bd
       0.0035903966 -0.06425777 -0.07353726 -0.047039013
000010 d8 e5 b4 bc 75 ce 5f 3d 46 9b 9b 3c 9a 03 a5 bc
       -0.022082254 0.054640252 0.018994939 -0.020143319
000020 ab 37 87 3b b2 80 32 3b aa f4 0b 3b 72 a2 46 bd
       0.004126509 0.0027237353 0.0021355548 -0.048494764
000030 e4 23 54 bd 9d fe 43 bd f5 93 4c bc 9b 33 60 bd
       -0.05179204 -0.04785024 -0.012486448 -0.054736715
000040 f9 c2 6e bc f0 cc b5 bc f5 0c 84 3d bd 08 49 3d
       -0.014572852 -0.022192448 0.06447784 0.0490806
000050 91 26 d7 3c 94 32 e7 b9 d3 e7 58 bc 4e fa 83 3c
       0.026263507 -0.00044097437 -0.013238865 0.016110566
000060 78 5a 93 bd 86 7d 3a bc a5 e2 92 bb cd bd 5a bc
       -0.0719499 -0.011382466 -0.0044825845 -0.013350916
000070 35 db 45 bd 89 8c 05 3d 57 ec 00 3d 14 47 f9 bc
       -0.048304755 0.032604728 0.03147539 -0.0304294
000080 5b c5 59 3c f6 91 c3 bb b6 a7 97 ba 23 40 cc ba
       0.013291682 -0.0059683276 -0.0011570367 -0.0015583079
000090 b5 15 23 3d cb 88 46 3c 79 45 c5 bc 4c 62 30 bc
       0.039815623 0.012117575 -0.024080979 -0.010765623
0000a0 f5 9f 48 3d eb 9f e8 3c 80 e7 25 3c f2 e3 91 bb
       0.048980672 0.028396567 0.010125995 -0.004452222
0000b0 45 29 0a bd 69 4c a7 bc 4c 3b a3 bc 19 84 af ba
       -0.033730764 -0.020422177 -0.019925736 -0.0013390809
0000c0 39 97 9a 3c 65 93 40 3d d0 ca 8d bb aa 91 c3 3b
       0.018870937 0.047015566 -0.0043271556 0.0059682922
0000d0 b9 47 26 3d 29 1c 99 3c ee ae de 3c a3 ac c2 3c
       0.040595744 0.018690186 0.027183022 0.02376396
0000e0 56 dc 3f bc 24 59 52 bd fb 1f e9 bb 7e c6 a8 bc
       -0.011710247 -0.051354542 -0.007114408 -0.020602461
0000f0 07 90 4c 3d 87 52 5a 3d 81 ff 0b 3c b9 c0 62 3d
       0.049942043 0.05330136 0.008544804 0.055359576
000100 5b e6 4a bd 73 2c 5f 3d 97 23 5a 3d 63 d0 fa 3c
       -0.04953609 0.05448575 0.053256597 0.030616945
000110 be 4b 8f bd 10 db cc bc 8c d0 9c bc c7 fe d1 3b
       -0.069968686 -0.0250068 -0.019142412 0.0064085457
000120 21 9a 79 bd 13 25 07 3a a1 15 e5 bc 69 6b 78 bc
       -0.060938004 0.0005155366 -0.027964415 -0.015162327
000130 c2 3a 0a bd 06 4a 36 bc 83 78 0c bd 95 23 06 bd
       -0.033747442 -0.011126047 -0.034294616 -0.032748777
000140 2b ab 0c 3c bd 7e b2 3c f6 05 77 3d 8f 51 a6 bd
       0.0085857315 0.02178895 0.06030842 -0.08121025
000150 72 44 f3 3c 20 1d 1a bd 35 c8 2c bd 46 03 5a ba
       0.029695723 -0.037625432 -0.04218312 -0.0008316528
000160 2c 50 1e bd 5a 39 58 bd 4a a3 16 bd f2 0c 2f bd
       -0.038650677 -0.05278907 -0.03677682 -0.042736955
000170 1c d1 56 3d 1d 96 1e 3d ad bf cb bc c5 1c 06 bd
       0.052445516 0.038717378 -0.024871672 -0.03274228
000180 41 bf 22 bd 2b 10 0e bd 7e 24 b4 bc 37 55 da 3c
       -0.039733175 -0.034683388 -0.021990057 0.026651962
000190 97 26 c3 3c 95 79 07 bd 90 95 31 3d 29 2e 21 bd
       0.023822112 -0.033074934 0.043355525 -0.039350662
0001a0 90 59 25 bd a9 07 d1 3b 74 07 10 bd d4 5e 94 3c
       -0.040368617 0.006379087 -0.035163358 0.018111624
0001b0 f7 d3 60 3d 04 77 0a bd a4 22 21 bd 00 35 dc 3c
       0.054889645 -0.03380491 -0.039339676 0.026880741
0001c0 a7 7d 67 bd ec 94 4c 3d 1f 79 09 bd 7a 91 07 3d
       -0.056516316 0.04994671 -0.033562776 0.03309772
0001d0 37 94 3e bd 73 b8 04 bd 2a 97 e8 3c 16 35 8e 3c
       -0.046528067 -0.032402467 0.028392393 0.017359298
0001e0 b1 f7 6e 3d d6 f7 41 3d ba 93 7b b9 00 d3 c8 ba
       0.058341686 0.047355495 -0.00023992258 -0.0015321672
0001f0 e4 8a 5a 3c 8b e7 81 bc e8 d6 4e 3a 7b 9d 2c bd
       0.013338778 -0.015857479 0.00078903 -0.042142373
000200 ad 18 75 bd 6d 9c 29 3d db 57 91 bc f0 b2 34 3d
       -0.059837986 0.041408945 -0.017742088 0.04411596
000210 e8 e0 c7 bb 0b 68 c0 3c 1f 3c 95 3d df 1c 26 bd
       -0.006099809 0.023487112 0.07286858 -0.040554877
000220 e8 91 c1 bb 70 8d a5 3c 65 41 33 3d 42 78 69 bd
       -0.005907286 0.020209044 0.043763537 -0.056999452
000230 5e e8 8c 3c 2a 64 0f bd ec 2c 64 3c 30 51 f6 3c
       0.017200645 -0.035007633 0.013926726 0.03006801
000240 b4 27 4b bc fd 36 4d 3c a2 97 6e bb d3 98 6d 3d
       -0.012399603 0.012525317 -0.0036406298 0.058007073
000250 29 b7 ba 3c 7c 7c f2 bb 35 27 f1 bc da bc 1d bd
       0.022792416 -0.0074000936 -0.02943764 -0.03851018
000260 f2 26 41 3d 9f b1 30 3d 9b d9 e7 3c 8c 1d 2f bd
       0.04715628 0.043138143 0.028302005 -0.042752787
000270 55 21 22 3d 0f f8 6c bb 45 2d 1a 3d c5 e7 6d 3d
       0.03958257 -0.0036158597 0.03764083 0.05808236
000280 9f ff ef 3c 50 45 2c bd 51 d7 81 3d 98 35 0d bd
       0.029296694 -0.04205829 0.063398965 -0.03447494
000290 05 29 18 3d b9 5c 55 bd 64 9d 92 bc 3e 5b 74 bd
       0.037148494 -0.05209038 -0.017897315 -0.059657328
0002a0 40 42 d8 bc 38 03 e2 3c 7e 19 ed bc 3d 6a 60 bd
       -0.026398778 0.027589425 -0.02894282 -0.054788817
0002b0 36 71 06 3d cb 74 8b 3a 07 46 f8 3a 01 f2 30 bd
       0.03282281 0.0010639665 0.0018941768 -0.043199543
0002c0 98 1b 08 bc b5 c8 8f 3a 2f 59 d5 3c 69 6e 9d bc
       -0.00830736 0.001096985 0.026043503 -0.019217687
0002d0 88 3c 8d bc 55 da 30 bd d1 66 e6 bc 8a bf 0a 3d
       -0.017240778 -0.043176968 -0.028125199 0.033874072
0002e0 57 12 48 3d 64 54 b1 3a 4b 69 a3 bc 89 ca 8d 3d
       0.048845615 0.0013529179 -0.019947669 0.06923396
0002f0 09 ff f2 bb 78 80 c9 bc 7a dd c7 bc 7b 10 ce bb
       -0.0074156565 -0.024597391 -0.0243976 -0.0062885857
000300 dd 56 90 3c 32 b8 a7 3c f2 cc 43 3d 50 66 0f bc
       0.017619545 0.020473573 0.047802873 -0.008752421
000310 80 92 5e 3d 16 fc 8c bc 0e 15 ed bc fd c3 06 bd
       0.054338932 -0.017210048 -0.028940704 -0.032901753
000320 61 3f 58 bd 8b 82 09 bd 12 0b 63 bd 10 cf f3 bc
       -0.052794818 -0.03357176 -0.05543048 -0.029761821
000330 5a 77 bc 3b a1 34 2a bc d9 8c 4d bd 13 db 26 3d
       0.0057515325 -0.010388524 -0.05018315 0.04073627
000340 f6 77 11 bc 63 5b 4a 3d 91 e1 60 3d 0a 4d 27 bd
       -0.008878699 0.04940356 0.054902617 -0.040844955
000350 3f 71 72 3c 24 a9 f6 3c f9 43 79 3d bc a8 47 bb
       0.014797508 0.03010995 0.06085584 -0.0030465564
000360 07 12 1a 3d 0f 61 4c bd 65 86 4a bd ab 50 19 3d
       0.03761485 -0.04989725 -0.049444575 0.037430447
000370 a7 64 71 bb 5a 09 75 3d b1 0b 60 bb 31 98 9e bc
       -0.0036833675 0.05982337 -0.0034186656 -0.01935968
000380 16 df 80 3d 05 17 6b 3d 59 82 97 bc de d4 12 bd
       0.0629255 0.057395 -0.018494772 -0.035847537
000390 79 23 0a bc 40 45 e9 bc 30 be 48 3d 52 48 e1 bb
       -0.008431309 -0.028475404 0.049009502 -0.0068750763
0003a0 6a 28 6a 3c ca 91 49 3d e5 bd c8 3c 3f 5d 13 bd
       0.014291862 0.0492113 0.024504611 -0.0359776
0003b0 68 ec 54 3d 5b 09 d9 3c 67 7b 1e bd 1b d7 31 3d
       0.051983267 0.026493719 -0.038691904 0.04341803
0003c0 65 5b 98 3c 7b fd 2f bc 54 e7 92 bd 3a bc 52 bc
       0.018598268 -0.010741587 -0.071730286 -0.0128622595
0003d0 e5 a1 64 bd 93 6c 94 3c 75 10 3a 3d 59 39 18 b9
       -0.055818457 0.018118178 0.04542585 -0.00014517213
0003e0 80 4a 3a 3d 5b 4b e7 bc 59 36 1c 3c eb 22 28 bd
       0.045481205 -0.028234174 0.009534442 -0.041048925
0003f0 41 d5 14 bc e8 de 35 3c 0a fd bb 3c 7f 98 08 bc
       -0.009084047 0.011100508 0.022947807 -0.008337139

action_layer.2.bias f4 [256]
000000 96 9e b9 bc c8 5a 58 3d 6d 14 5c 3d 6a 2a 63 bd
       -0.022658627 0.05282095 0.053730417 -0.05546037
000010 81 c4 de 3c f6 79 f4 3c 28 60 ea bc ed 24 ba 3c
       0.02719331 0.029843312 -0.028610304 0.022722686
000020 47 a9 94 3c 1c aa 58 3d 9a f2 44 3d f0 fa 95 bc
       0.018147124 0.052896604 0.048082925 -0.018308133
000030 59 13 9e bc c7 6e 3a 3d 7f 4b 3f 3d 8a 0a 80 bd
       -0.019296335 0.0455158 0.046702858 -0.0625201
000040 4c ed 35 bd 32 39 43 bd b3 28 7a 3c 6c fa a4 3c
       -0.044415757 -0.047661968 0.0152684925 0.020138942
000050 e3 cf 04 bd 59 46 08 bb f8 f7 81 3c 8f b5 63 3c
       -0.03242482 -0.0020793884 0.015865311 0.013898267
000060 95 be 85 bc f4 27 d8 3c 27 70 32 bd 95 f1 5f 3c
       -0.016326228 0.026386239 -0.043563988 0.0136684375
000070 74 8c 07 3d 0d 23 0a 3d 6c ab e1 bc 36 98 be bc
       0.03309293 0.033724833 -0.02754756 -0.02326594
000080 99 ed 2a 3d d3 ec 1f bd 84 51 49 3d 86 bf 3d bd
       0.041730497 -0.039044213 0.049150005 -0.04632523
000090 04 8d 2b bd 97 9d 5a bc e3 42 c6 3c 6f 96 c0 bc
       -0.04188253 -0.013343236 0.024201816 -0.023509232
0000a0 a5 90 83 bc 7e c8 10 3d 8c bb 1b 3d 0e f5 16 3b
       -0.016060183 0.035347454 0.038020656 0.0023034248
0000b0 ba ca 14 3c c2 f3 65 3d 40 01 08 3d 80 22 2c bd
       0.009081537 0.05614067 0.033204317 -0.04202509
0000c0 cc 2b 6b bd 2d 3a d1 bc c3 3f 41 3c 11 2e 62 bd
       -0.057414815 -0.025540436 0.011794987 -0.055219714
0000d0 70 9f 86 3b 01 77 07 bc df ea 34 bd 5e 25 8d 3c
       0.004108362 -0.008268119 -0.044169303 0.017229732
0000e0 a7 35 f9 3c 22 a6 77 3d ea 77 60 bd 5b a0 27 bd
       0.030421091 0.06046117 -0.05480186 -0.04092441
0000f0 06 ca 31 3d eb 95 2b bd 08 dc 82 3d 7f 7c 3b 3d
       0.043405555 -0.04189102 0.06389624 0.045773026
000100 21 8b 7b bc d7 55 2b 3d 15 cf 4f 3c 95 ae 8d bb
       -0.015352995 0.04182991 0.01268365 -0.0043237903
000110 c9 ac 89 bb 9b 80 1d bc bd a7 9e bb 95 77 44 3d
       -0.004201506 -0.009613181 -0.0048417733 0.047965605
000120 1b 93 57 bd 5b bc 0b bd 31 ce 83 3b b6 84 c2 bc
       -0.052630525 -0.034115177 0.0040223827 -0.023744922
000130 26 82 45 bd e4 ca 07 bb 48 11 d7 3c f4 c7 48 bd
       -0.048219822 -0.0020720297 0.026253358 -0.049018815
000140 02 6d 98 3c fd ed 68 3c c4 33 a1 bc 98 f5 2b 3d
       0.018606666 0.014216897 -0.019678004 0.041982263
000150 57 77 9d 3c 1c 56 85 bc 27 2e e1 3c 09 ca 00 3d
       0.019221945 -0.016276412 0.027487827 0.031442676
000160 43 8d 13 bd b4 f8 74 bb a5 2d f4 3b e5 82 4d bc
       -0.03602339 -0.0037379684 0.0074517303 -0.012543415
000170 0b d4 dd 3c 80 bc 0b 3c 00 9d 4a 3d 6d 5a d0 bc
       0.027078649 0.008528829 0.049466133 -0.025433743
000180 80 73 36 bd 9f 30 69 3d 72 07 2d 3c b2 ad 08 ba
       -0.044543743 0.056931134 0.010560857 -0.0005213871
000190 0a 0f 29 3d 5d f6 1f bd 14 e9 be bc 9a 1d 31 3d
       0.041274108 -0.03905331 -0.0233045 0.04324112
0001a0 2c fe 6c 3d 97 15 94 3c 45 0d 76 3d 4b d6 10 bd
       0.057859585 0.018076701 0.06007125 -0.035360616
0001b0 45 05 29 3d f2 94 91 bd 47 53 b4 3c 3d 73 08 3d
       0.04126479 -0.07108487 0.022012366 0.033313025
0001c0 3c 50 93 3c f4 48 41 3a 19 71 03 3c f6 ef 95 3c
       0.017982595 0.00073732366 0.00802257 0.018302899
0001d0 75 c4 6d bd 20 e7 51 3b 7d 88 90 3c 6c 12 06 3d
       -0.058048684 0.003202863 0.017643208 0.032732412
0001e0 27 38 53 bc 90 87 66 bc fe c7 62 bd c8 1b 21 3d
       -0.012891806 -0.014070407 -0.05536651 0.039333135
0001f0 01 30 bd 3c 8a 59 20 3b da 13 2e 3d d0 bd 54 bc
       0.02309418 0.0024467432 0.0424994 -0.012984708
000200 fc d4 9d 3c 56 08 16 3d 4e 3b ed 3c 48 9e 7f 3c
       0.019266598 0.036629044 0.028958943 0.015601702
000210 70 cc 49 bd 2b 54 42 3d fe 5c 22 bc 35 bc 68 3d
       -0.049267232 0.04744355 -0.009909866 0.056820113
000220 4d 79 56 3c 25 96 87 ba 0d 2e 45 bc fd 88 7a bd
       0.013090444 -0.0010344429 -0.012034905 -0.0611658
000230 49 bf 9c 3c 85 9a 49 3d 1a 22 b0 3c 0a d6 20 bd
       0.01913418 0.049219627 0.021500636 -0.039266624
000240 4d b6 e2 bc 4e ec 84 bb 0b d3 36 3d 7f 64 cd 38
       -0.027674818 -0.00405649 0.04463486 9.7938806e-05
000250 5f e0 67 bc 25 2b 87 bd ed f1 38 3c 86 38 14 bd
       -0.014152615 -0.06600026 0.011288148 -0.036186717
000260 95 d3 12 bd cd 1e f4 3c f2 a5 2f bd c7 7c aa bc
       -0.03584631 0.029799843 -0.042882867 -0.020811452
000270 46 24 01 3d 42 e9 41 3d 7f 12 16 3d fe 2e 13 bc
       0.031528734 0.047341593 0.036638733 -0.008983372
000280 f9 6f ea 3b cb 16 27 3d 0f f3 0d bc 85 54 a8 3c
       0.0071544615 0.04079322 -0.008663907 0.020548115
000290 b8 fa 67 3b 85 cb 4a 3d bf 2d 1d bd e8 86 84 bb
       0.0035397243 0.049510498 -0.038373705 -0.0040444024
0002a0 e1 73 88 bc 48 22 91 bd 73 2f 4f bd ff b2 1e bd
       -0.016656818 -0.07086617 -0.05058236 -0.038744923
0002b0 f0 48 69 3b e8 4c 2b bd a2 da 29 3d 7d b4 0f bd
       0.0035596453 -0.04182139 0.04146827 -0.035084236
0002c0 c9 59 d5 3b c7 ec 20 3d a4 2a ee 3c bb 54 82 bd
       0.0065109474 0.03928831 0.029073067 -0.06363817
0002d0 6e 34 02 3d 86 71 86 3b 76 92 30 bd 1c 30 06 bd
       0.031788282 0.0041028885 -0.043108426 -0.032760724
0002e0 b5 47 a1 3c 2b 52 b2 3c 7b 17 1a bd 72 e2 4d bd
       0.019687513 0.021767696 -0.03762005 -0.050264783
0002f0 3f 89 b1 3b 3c 33 d7 bb a1 18 1d 3c b2 56 eb 3c
       0.0054179723 -0.006567387 0.0095883915 0.028727863
000300 27 a7 c7 bc c6 4c f6 bc 40 bb 84 3d 6c 3f 45 3d
       -0.024371697 -0.030065905 0.064810276 0.048156187
000310 8d 72 62 bd f0 12 1f bc 47 04 7e 3d a2 78 47 bd
       -0.055285025 -0.009709105 0.062015798 -0.04869903
000320 37 1e 24 3d a2 66 a7 3a c3 43 83 bd b1 6f cb 3c
       0.040067878 0.0012771676 -0.06409409 0.024833532
000330 25 b9 0e 3d 71 5d b5 3c 6e 43 48 bd 63 81 00 3d
       0.034844536 0.022139283 -0.04889243 0.031373393
000340 0a de 9a bd 5b 71 54 bd 7a 7c b6 bc ea 80 50 bb
       -0.07561882 -0.051865917 -0.022276152 -0.003181512
000350 7b 85 be 3c 29 7d f5 3c d7 7e 70 bd 8c 46 b7 3c
       0.023257008 0.029966908 -0.058714714 0.022372507
000360 fb f9 ca 3c 19 b2 46 bd e3 29 59 bd 0f 7e 1f 3d
       0.024777403 -0.04850969 -0.053018462 0.03893858
000370 6c 1b ce 3c b8 b2 84 bd b4 d0 10 bd 1c 9a 93 3c
       0.02515956 -0.064794004 -0.035355285 0.018017821
000380 97 38 90 3b c2 4d f7 bb 16 a5 f9 b9 6e 9c 62 bc
       0.0044012773 -0.0075471113 -0.0004761598 -0.013831241
000390 05 f9 29 3d a4 ec 78 bc 5c c6 03 bd 31 93 cd 3c
       0.04149725 -0.015193138 -0.032171592 0.0250946
0003a0 bd dd 09 3c 61 2e 7e bd 68 f5 5f bd 0c 1d 02 3d
       0.008414683 -0.06205595 -0.054677397 0.031765983
0003b0 0c 12 11 bd da e5 99 bc b3 83 6b 3d 11 1e 74 3d
       -0.0354176 -0.01878636 0.057498645 0.059598986
0003c0 59 04 d8 bc 5c 4a db 3b 2e f2 9a 3c 43 dd 3f 3d
       -0.02636926 0.006692214 0.018914308 0.04684187
0003d0 0e 8f f2 3b 6b d1 7e 3d 43 26 0f bd 00 5c ab ba
       0.0074023074 0.062211435 -0.0349486 -0.0013073683
0003e0 3e bf 81 3d d3 3d d4 bc 53 45 81 bd f7 b1 b8 3c
       0.06335305 -0.025908386 -0.06312051 0.022545798
0003f0 a2 7b 27 bd 65 c5 31 bd 40 e6 87 3d 05 f0 3a 3d
       -0.04088939 -0.04340114 0.066357136 0.045639057

action_layer.4.weight f4 [4, 256]
000000 39 32 c2 b9 8b 49 33 3d fe 88 9c bc 90 fc c2 bc
       -0.00037039982 0.043771308 -0.019108292 -0.023802072
000010 0d 4a 2c bb f5 d3 88 3d 51 16 d1 bd f7 ce c1 bc
       -0.0026289255 0.066810526 -0.10209335 -0.023658259
000020 06 cc 29 bd 70 b5 57 bc 6c 83 68 bd 1f 35 85 3c
       -0.041454338 -0.013165817 -0.05676596 0.016260682
000030 cb 21 29 3d 00 0c b7 3c a3 7e 20 bd 27 1e 4c 3c
       0.041291993 0.02234459 -0.03918327 0.012458361
000040 4d 1e 4f 3d 09 d9 49 3c ee f0 61 bd 23 2d 8b bd
       0.050566006 0.012319812 -0.05516141 -0.067957185
000050 b0 a4 1d 3d e2 de a4 3b 9e ee ba bb 3a 2d 5e 3c
       0.038487136 0.0050314525 -0.005704715 0.013560588
000060 ef 2e 85 bc 39 a6 81 bc 7e 01 12 3d 5e 1f 1d bc
       -0.016257731 -0.015826331 0.035645954 -0.009589998
000070 73 05 d1 3b 23 d5 b0 3c 20 f5 29 bc 19 9f 1e bc
       0.0063788234 0.021586007 -0.010373384 -0.0096814865
000080 a6 f3 ad bb bd f8 96 3c f3 d6 f3 bc 6e b7 5d ba
       -0.005308586 0.018429155 -0.029765582 -0.0008457814
000090 9a ad bb bb 14 e4 60 bc c9 19 99 3b 06 47 2a 3a
       -0.005727482 -0.013726253 0.0046722633 0.00064955687
0000a0 90 0a 8b bd d3 8b c4 3b 2f 88 c1 3c a7 c6 2d 3a
       -0.06789124 0.0059981137 0.023624508 0.0006629028
0000b0 34 e1 1f 3c 8d b9 40 3c 35 3e 24 3d c4 5b b9 bd
       0.009758282 0.011762989 0.040098388 -0.09050706
0000c0 a0 1c a0 3c ca 0d c0 3c 82 92 78 3a 74 10 8a 3c
       0.0195449 0.023444075 0.00094822806 0.016853549
0000d0 0d a6 c0 3c 43 08 2e 3c f1 62 0c bc 5c 69 9a bc
       0.02351668 0.010622087 -0.008568511 -0.018849067
0000e0 8a 3c 2f 3c 3a 3a c2 bc be 6e 3a bd 04 d6 b4 3c
       0.010695586 -0.023709405 -0.04551577 0.022074707
0000f0 9c 9f 6b 3c 0c 1a 5d bd d9 f8 16 3d 95 e5 8a bc
       0.014381316 -0.05397992 0.036858413 -0.016955176
000100 9d 70 28 3d 59 7f 44 3d 7b ef 3e 3d c1 25 a0 bb
       0.04112302 0.04797301 0.046615105 -0.004887313
000110 c4 7b 17 bc 05 98 29 bc 00 81 84 3c 16 10 b5 3c
       -0.009245817 -0.010351186 0.016174793 0.022102397
000120 1b ea a8 3b 42 d0 13 bd 12 7f 54 3d 88 2b 53 3a
       0.0051548607 -0.036087282 0.051878996 0.0008055498
000130 b2 b2 52 3c 42 f9 ec bb 5d f3 1a 3d 22 63 05 bd
       0.012859987 -0.0072318623 0.037829746 -0.032565244
000140 4d 2c 0a bb 4a 73 87 3d 05 e4 fa 3b d9 1d 57 3c
       -0.0021083534 0.066137865 0.0076565766 0.013129675
000150 a8 9a b1 3c 0f 82 fc 3c 06 db 96 3c ef fb e5 bc
       0.021680191 0.030823736 0.018414985 -0.028074233
000160 18 8c 58 bd 87 59 46 bc e8 cd e6 3c 39 97 a5 bd
       -0.05286798 -0.012106306 0.028174356 -0.08085484
000170 5e 29 0c bc c9 2d 8b bd 61 de 0b bc e3 7f 72 3c
       -0.008554785 -0.06795842 -0.008536906 0.014800998
000180 2d aa d7 bc b8 01 c5 3c 5b c4 e4 bd ba 52 d4 bc
       -0.026326263 0.024048671 -0.11170264 -0.025918353
000190 b5 ab c2 bd 61 21 56 3d c8 60 cc 3c 72 80 81 3c
       -0.09505407 0.052277926 0.024948493 0.015808318
0001a0 e7 c0 b4 3c 9b 4c d5 3c df 23 70 3d 9b 25 6e bd
       0.02206464 0.026037505 0.05862796 -0.058141332
0001b0 01 51 b7 bc e1 d9 70 bd 39 7e 26 bc a3 03 3b bc
       -0.022377493 -0.058801536 -0.01016193 -0.011414441
0001c0 2a 9f ac 3d 71 10 80 bd 62 8c 03 b9 6a c7 1e 3d
       0.08428796 -0.06253136 -0.0001254543 0.038764395
0001d0 3f 4b 2d 3d 92 28 0c 3d 44 e4 d0 3c 24 7e 95 bc
       0.04230809 0.03421838 0.02549947 -0.018248625
0001e0 5d 5e e6 bc 36 f3 bd bc 44 11 42 bc ef 75 02 3d
       -0.028121168 -0.023187261 -0.011844937 0.03185075
0001f0 dc 57 b7 3b 02 09 d7 3c b8 9a 1a bc 0d 6e 35 3d
       0.0055951905 0.026249412 -0.009436302 0.044294406
000200 8c c3 4d b9 b2 fb e4 3c 70 7d 77 3c 8c 4e ae 3d
       -0.0001962317 0.027952049 0.01510559 0.085110754
000210 65 be 83 3b e0 b8 a3 b9 f0 63 f3 3c 27 ca f6 3c
       0.0040204995 -0.00031227525 0.02971074 0.03012569
000220 78 a7 28 bd ff 75 f3 bc eb 3f 51 3d 38 d4 2c 3d
       -0.041175336 -0.02971935 0.051086348 0.042194575
000230 87 e9 e2 3b 5a 53 8c 3c 42 f5 46 3c ea 24 40 bc
       0.0069248113 0.017129589 0.012143435 -0.011727551
000240 cd 48 81 bd c2 68 41 3d cb 74 99 3c 98 33 1b bc
       -0.06312714 0.047219045 0.018732449 -0.00947275
000250 f2 4d 42 bc 2c 12 92 3c 70 b7 9b bc 94 fb da bc
       -0.011859404 0.01783093 -0.019008368 -0.02673129
000260 24 0a 2e 3c a2 ec ef 3b b1 0c 8e 3c 06 75 ce 3c
       0.010622535 0.00732191 0.017340036 0.025202285
000270 b1 19 8a bb f2 3e 0f 3d cf ed 02 3d 92 90 1c 3c
       -0.0042144884 0.03497214 0.031965073 0.009555953
000280 91 ae cc 3a 2c ca bd 3c fb df 71 bd b2 3e a5 bd
       0.001561599 0.023167692 -0.059051495 -0.08068599
000290 ec fb c5 3c 7b 61 55 bc 2f 2e 3d bd ce ca 56 bd
       0.024167977 -0.013023729 -0.046186622 -0.052439503
0002a0 a6 68 37 3d cc 1d 7c bd 70 7b 6b 3b aa cc 5d bd
       0.044777535 -0.061551854 0.0035931729 -0.05415026
0002b0 1d 82 1d 3d 43 4e 65 bc b9 4e bc bc dc 29 81 3c
       0.038454164 -0.01399571 -0.022986757 0.01576703
0002c0 47 51 39 bd a1 6a 5e bc c7 e8 ab bb 20 2a c3 bc
       -0.045243528 -0.013575227 -0.005246255 -0.023823798
0002d0 f3 9f 8b 3c 8e 37 29 bd 5d e5 f8 bc 76 63 27 bc
       0.017044043 -0.041312747 -0.030382806 -0.010216584
0002e0 75 41 d3 3b d2 cf 8c 3c 0f 9f 2c bd f9 13 9b bc
       0.006447012 0.01718894 -0.042143878 -0.018930422
0002f0 05 8e 46 bd 1f be 81 bd b6 b3 be 3c 42 82 df bb
       -0.048475284 -0.06335091 0.023279052 -0.006820948
000300 73 ce da 3c 66 ff 47 bc 4c 27 ff 3c 90 d9 cd 3a
       0.02670977 -0.012206888 0.031146668 0.0015705097
000310 cb 62 e4 3a f8 1e b7 bc 86 e7 a0 3d ad 35 a6 3d
       0.0017424462 -0.022353634 0.078566596 0.081157066
000320 2c 68 17 3c 2e 42 65 3d 52 fb c3 bc 6b 89 6c 3d
       0.009241145 0.055971317 -0.02392355 0.05774824
000330 96 6c c6 3b 76 b2 95 3c cb 0a 35 bd f5 c6 33 3d
       0.006055425 0.018273573 -0.044199746 0.043890912
000340 05 64 1d bd b0 41 05 bd 77 bf 73 bc b6 1a 9c 3b
       -0.038425464 -0.032533348 -0.014877192 0.0047639264
000350 e0 7c 06 3d ff b6 e6 3b c5 e5 97 3b d7 91 1e bd
       0.032833934 0.007040858 0.004635545 -0.038713302
000360 26 41 56 3b 04 db 29 bd 7e 89 6e bc 98 9d 1c 3d
       0.003269264 -0.041468635 -0.014559148 0.03823623
000370 34 6f 79 bd f6 bf 52 3d 6a 81 5c bc 46 35 aa 3b
       -0.060897067 0.0514526 -0.013458589 0.005194339
000380 47 77 53 3c 48 9e a4 bd 22 f3 0b 3b 4d d5 31 bd
       0.012906856 -0.08038002 0.0021354635 -0.04341631
000390 c1 2e 39 3c 9b ad f5 bc 47 fd 37 bc 02 2c 56 bd
       0.011302651 -0.029990008 -0.01122982 -0.052288063
0003a0 d0 c9 79 bb cd 15 57 bd 87 4a 39 bb af 82 b5 bc
       -0.0038114674 -0.052511025 -0.0028273182 -0.022157041
0003b0 e9 db aa 3c 36 7b 98 bb 1b 13 df bc 09 fe ab bc
       0.020856814 -0.0046533598 -0.02723079 -0.020995157
0003c0 aa 62 50 3c 60 96 6a 3c 52 ea ce 3c 9c c6 a1 bd
       0.012718836 0.014318079 0.025258217 -0.0789921
0003d0 94 80 38 bd ca c1 03 3d b6 f2 f2 bc c1 a1 5f bb
       -0.045044497 0.032167234 -0.02965675 -0.0034123512
0003e0 ba 06 66 3c d7 09 37 3d bf 1f e7 3b 86 01 b8 3c
       0.01403969 0.04468712 0.007053345 0.022461664
0003f0 16 ed 0d bc 1a 75 00 3d 01 16 2d 3d 29 86 09 bd
       -0.008662483 0.031361677 0.042257313 -0.03357521

action_layer.4.bias f4 [4]
000000 36 f1 9a bc d7 52 a4 bc a6 4f b2 3c 5c ad a1 bd
       -0.018913846 -0.020059032 0.021766495 -0.07894394

value_layer.0.weight f4 [256, 8]
000000 ea a9 d3 be 47 ad 68 be 40 87 c6 be 9f ba be be
       -0.41340572 -0.2272235 -0.38775063 -0.37251756
000010 ab c7 3e 3f 34 35 02 3e c9 11 9d 3e f5 5a a5 be
       0.7452342 0.12715608 0.30677631 -0.32295957
000020 54 70 fa bd 89 5c 50 bd bc 89 50 3e 89 d4 b8 3e
       -0.12228456 -0.0508695 0.20365041 0.3609965
000030 3c 45 e3 3d 8b 6e ae bd 26 d0 5b 3e 33 97 42 be
       0.1109719 -0.08517178 0.21466121 -0.1900299
000040 56 db 23 3e 98 1a 66 3e 92 a7 ac 3d bb 09 96 3e
       0.16001639 0.22471082 0.08430399 0.293043
000050 b3 8c a0 be 6b 20 0d 3e f2 96 2c 3b 96 d0 af 3c
       -0.31357345 0.13781898 0.0026335088 0.021461766
000060 b3 64 15 be f4 f3 56 3d e6 f6 b0 be fc 78 a0 3e
       -0.14589195 0.052478746 -0.3456337 0.31342304
000070 4f 32 88 be 0c 5f c6 bd 71 3f 38 bd c5 18 02 3d
       -0.26600882 -0.096860975 -0.044982377 0.031761903
000080 24 49 5f be ff 68 69 be 51 b1 20 be 46 aa d7 be
       -0.21805245 -0.22793959 -0.15692641 -0.42122096
000090 41 a8 59 be cc 10 0a 3e 8f c4 12 3c b5 28 4a 3d
       -0.2125559 0.1348297 0.008957996 0.049355228
0000a0 20 21 23 3e 81 4e 0c 3e 4c e9 48 be 42 5e 70 be
       0.15930605 0.13701822 -0.19620246 -0.23473457
0000b0 c8 67 07 3c 14 78 fd bd 95 6f 74 3e 41 e3 a8 be
       0.0082644895 -0.12376419 0.2387069 -0.3298588
0000c0 fb 62 3b 3e c9 d3 43 3e 29 d0 1e be 2e d6 e6 be
       0.18299477 0.19123758 -0.15509094 -0.4508528
0000d0 bd 78 28 3e 0e f4 40 be 75 fa 0d 3e bd 92 88 bd
       0.16452308 -0.188431 0.13865073 -0.06668613
0000e0 89 36 ce be f1 c1 93 3e 4f 26 94 be 7d 20 15 3e
       -0.40275982 0.28858903 -0.28935477 0.14563175
0000f0 6a c5 d4 bc 72 d6 a6 3d 20 a5 10 3e e7 67 88 3e
       -0.02597304 0.08146371 0.1412549 0.2664177
000100 3b cd 2d be 22 6a 21 be 0b ff 2d 3e 53 52 e6 3e
       -0.1697282 -0.15763143 0.16991822 0.44984683
000110 c0 b6 a6 bd 8d 92 89 bd 58 0e 68 bc 47 a3 16 be
       -0.081403255 -0.067174055 -0.014163576 -0.14710723
000120 b4 f2 98 3d 06 16 ac be 38 4a d5 3d a3 f2 18 3e
       0.07468167 -0.33610553 0.10414547 0.14936309
000130 b9 83 a9 be f6 93 83 be 4e f1 67 be da 37 28 bd
       -0.3310831 -0.25698823 -0.22650644 -0.04106889
000140 2e db 3c be df d3 b7 3e a1 ec ea 3d da 4b d2 3e
       -0.18442985 0.35903832 0.11470915 0.41073495
000150 e2 b1 b3 3e 43 33 95 3c b4 22 26 bd 37 f6 78 bc
       0.3509665 0.01821292 -0.04056044 -0.015195421
000160 ea ca c8 be 9a 7f 6a be ca 29 d3 be 9c 5f 3e 3e
       -0.3921731 -0.22900239 -0.4124282 0.1859116
000170 5c 88 bb 3d f6 f1 86 3e cb cb 13 3e 30 4c 09 be
       0.09156868 0.26356477 0.1443321 -0.1340797
000180 cd e2 ab 3e 6c cf 35 3d 06 4a 07 bb 22 a8 60 3e
       0.33571473 0.044387266 -0.0020643487 0.21939138
000190 4f f8 42 3e f9 b0 72 3e 38 ab 39 be 63 28 55 bd
       0.19040035 0.23700322 -0.18131721 -0.05204047
0001a0 60 07 1b be 05 04 21 be b7 7b b0 bc f1 f1 c9 be
       -0.15139532 -0.1572419 -0.021543367 -0.394424
0001b0 0f 61 c9 3e ac 0c 47 be fe ba 8d 3c a2 c7 64 3d
       0.39331862 -0.19438428 0.017301079 0.055854447
0001c0 09 67 01 3e 48 e6 b2 be 44 b6 6d be b4 13 a9 be
       0.12636961 -0.34941316 -0.2321406 -0.33022845
0001d0 dc 42 6b 3e 35 64 6c 3e 02 f8 41 ba f8 04 96 3d
       0.22974724 0.23085101 -0.0007399322 0.073251665
0001e0 57 7b 7a 3e aa cb 4f 3e 52 db df bd 62 95 4c 3d
       0.24461113 0.20292535 -0.10930504 0.04994715
0001f0 bf 9f b5 bd 24 7f 3f 3e 5e 5d 9e 3d d4 36 de bc
       -0.0886836 0.18700844 0.07732652 -0.027125753
000200 f8 c4 8d bd 50 00 90 3e ef cb 7d 3e 76 5b 14 be
       -0.069223344 0.28125238 0.24784826 -0.14488015
000210 fb 96 99 3e 11 3a 8b be 10 3d 4d 3e 02 83 14 bd
       0.29998 -0.2719274 0.20042825 -0.03625775
000220 56 fb ec 3c a5 15 aa bd 50 2b 94 3e c4 af 36 3d
       0.02892844 -0.083049096 0.28939295 0.044601217
000230 47 0a ce be 12 cc 53 be 02 c4 1c be d5 2a a4 3e
       -0.40242216 -0.20683315 -0.15309146 0.32063928
000240 4b 71 3b 3e e7 24 37 3e ef ad 0f bc 0f ad d9 bb
       0.18304937 0.17885171 -0.008769496 -0.0066429446
000250 29 d3 24 be 82 b3 c0 be 20 ae 61 be 5e 1a 95 3e
       -0.16096176 -0.37636954 -0.2203908 0.2912168
000260 9b 7d 1a be 3c 04 91 be 9b 0f b6 be a0 d6 af 3d
       -0.15086977 -0.28323543 -0.3555878 0.08585858
000270 c4 55 98 bd 78 45 dc bd 6d 36 6f be 99 6a 04 3e
       -0.074382335 -0.107554376 -0.23360606 0.12931289
000280 2c b5 8a 3e e7 02 b8 bd 2a d4 89 3e f5 fe c5 3e
       0.27091348 -0.089849286 0.2691968 0.3867108
000290 0f ad 66 be 6a e3 21 bd 67 05 6a be 3a 79 20 3e
       -0.22526954 -0.03952352 -0.22853623 0.15671244
0002a0 39 b7 bd be b9 e7 af be 37 68 9d be ea 97 08 be
       -0.3705385 -0.34356478 -0.30743572 -0.133392
0002b0 75 3c 5a 3e bb 0f 5e 3d 40 aa 8f be 78 19 59 3e
       0.21312125 0.05421422 -0.28059578 0.21201122
0002c0 8b 7c cb bd 20 97 f8 3d f9 dd b7 bd 9a 47 60 3e
       -0.09935864 0.121382 -0.08977885 0.21902314
0002d0 5a e6 4e 3e c0 14 62 be fa 4b 64 3d 8a bb e9 bd
       0.2020506 -0.22078228 0.05573652 -0.11412723
0002e0 da b1 9d be b5 26 98 bb 6e 77 33 3c 64 54 39 3e
       -0.30799752 -0.004643286 0.010953767 0.18098599
0002f0 2e d9 fe 3e 08 8a ae 3e 4a ba bd bb f5 e1 9e bd
       0.4977507 0.34089684 -0.0057900297 -0.07757942
000300 4d ef 8c 3e 31 00 6f 3e 16 be bd bd 94 32 29 be
       0.27526322 0.23339917 -0.09264772 -0.165232
000310 46 a9 ae bd ae 10 82 be 7a 42 16 3d cd 31 ac bd
       -0.0852838 -0.2540335 0.03668449 -0.08407936
000320 bf 55 95 3e 2d 58 72 3e c7 22 64 bd 58 fd c0 3e
       0.29166982 0.23666449 -0.05569723 0.37693286
000330 47 82 2a bf f5 dc 1b be 9b c1 97 3d 8a 6a 91 be
       -0.6660504 -0.15221007 0.07409974 -0.28401595
000340 9b 26 a2 3e e3 89 32 be 85 4b ee 3d 3e 24 91 be
       0.3167008 -0.17435412 0.11635498 -0.28347963
000350 2e 54 d4 be e8 7c 35 3c 39 0f 39 3d 90 e3 5c 3e
       -0.41470474 0.011077143 0.045180533 0.21571183
000360 d0 e7 99 be 46 a3 2a 3d 79 4f 4f be b0 d9 d5 3d
       -0.3005967 0.041659616 -0.2024516 0.10441911
000370 7b 23 29 3f e0 3d 9c 3e ec 5e 6c be b1 7a 5a 3e
       0.66069764 0.30515957 -0.23083085 0.21335866
000380 86 63 7a 3e 70 59 d9 3d 78 45 b8 3d 67 e9 0d 3a
       0.24452028 0.10612762 0.08997625 0.0005413503
000390 21 32 99 3e 27 e3 70 3e b2 c0 28 3e e1 d8 38 be
       0.29921058 0.23524152 0.16479757 -0.18051483
0003a0 f9 14 f1 3e 03 83 7d 3e 6a 9a 11 3e 3d 28 0b be
       0.47086313 0.24757008 0.1421906 -0.13589568
0003b0 02 cd 52 bf c2 04 4c 3d 38 6a 00 bd 4a 5d 14 3d
       -0.8234407 0.049809225 -0.031351298 0.03622178
0003c0 c3 0c 72 bd 93 64 82 3e 00 47 23 3d ba b8 e0 be
       -0.0590942 0.25467357 0.039862633 -0.43890935
0003d0 91 4a 7b bd 45 4c 6f 3d c6 3e 9f bd 57 59 02 3e
       -0.06135041 0.058422346 -0.07775645 0.12729393
0003e0 97 61 cd be 32 4b 3a 3d a5 1d 91 be 35 77 2a 3e
       -0.40113518 0.045481868 -0.2834293 0.16647036
0003f0 6e c1 54 3e 11 69 ed 3e 5b 83 92 be a4 5d a8 bd
       0.20776913 0.46369222 -0.2861584 -0.082209855

value_layer.0.bias f4 [256]
000000 94 1d ee bd b9 98 99 3e 67 bc cc 3d 8a 05 48 3e
       -0.11626735 0.2999933 0.099968724 0.19533363
000010 44 d1 67 bd 0b b3 a3 be 7c 59 ab be 89 36 71 3e
       -0.056596056 -0.31972536 -0.3346671 0.2355596
000020 ee a2 92 3e 4d e2 d8 3d 65 74 19 3e 99 91 d4 3d
       0.2863993 0.105900384 0.14985807 0.10379333
000030 b0 40 b9 3d 20 40 30 be c8 83 ae be 04 e5 19 be
       0.09045541 -0.17211962 -0.34084916 -0.15028769
000040 3c ce 76 be c3 f5 8d 3e e5 14 d8 bc 24 46 3f 3e
       -0.2410211 0.27726564 -0.02637715 0.186791
000050 bf 0e ed 3d a6 e7 72 3e ed 52 52 bc b0 77 4d 3e
       0.11575078 0.2372118 -0.012837154 0.20065188
000060 46 ae 8f be 47 66 33 3e 0b a5 a4 bd e4 cd 53 be
       -0.28062648 0.17519484 -0.08039292 -0.2068401
000070 fd c5 01 be ce 1c 54 bd e2 21 b3 be 83 48 a7 3e
       -0.12673183 -0.051785283 -0.34986788 0.3267251
000080 76 4c 6e be ec dc 07 3e c8 38 3b bd 57 83 12 3e
       -0.23271355 0.13267869 -0.045708448 0.14307915
000090 ac b8 46 be 39 92 47 3e 44 12 5f be ea 52 9d 3e
       -0.19406384 0.19489373 -0.21784312 0.3072732
0000a0 3f 1d 29 be c9 47 a1 bd 0a f0 8e 3e dc b2 44 3c
       -0.16515063 -0.0787502 0.2791751 0.012005534
0000b0 60 ed 3b bd 45 18 5b be b7 89 93 bc b2 6d fb bc
       -0.045880675 -0.21395977 -0.018010003 -0.030691955
0000c0 70 fa 50 3d 8e c0 05 be 2a f3 12 be 4f 63 97 3e
       0.051020086 -0.13061735 -0.14350572 0.29567954
0000d0 a8 f1 d5 3d bb ea 0b 3d ae d1 7e 3e 2f 0c 44 be
       0.10446483 0.034159403 0.24884674 -0.19145273
0000e0 41 a6 21 be 59 4e ba bd 2b fe d2 bd ef 4f 94 be
       -0.15786077 -0.09096975 -0.10302385 -0.28967234
0000f0 3f ac 8d 3e c6 5b 26 be d9 a8 19 be 0b 4b 9c 3d
       0.27670476 -0.16245946 -0.15005817 0.07631501
000100 c7 e7 10 3e e8 6d c7 bd 44 2e b6 3c 96 12 b0 3d
       0.14150916 -0.0973776 0.022238858 0.08597295
000110 30 53 30 3e 9c b6 ef bd fc 95 9d 39 10 38 10 be
       0.17219234 -0.11704752 0.0003005712 -0.14083886
000120 6e 13 45 be 6f c3 36 3e 20 47 19 3e 56 04 71 bd
       -0.19245693 0.1784799 0.14968538 -0.058842026
000130 40 10 0a be a7 8b 81 3e 3d 08 57 be f6 95 7c 3e
       -0.13482761 0.2530186 -0.20999236 0.2466658
000140 31 8e a0 bd 45 46 c7 bc cc 58 3e be 4c 03 39 3e
       -0.07839621 -0.0243255 -0.18588561 0.18067664
000150 7a cb 35 be 03 22 ce bd ff e3 45 3c a0 1b 9b 3b
       -0.17753401 -0.10065081 0.012078284 0.0047335178
000160 b0 46 36 be f5 fa 1c bd 4f ee 2b bd 4a bc 98 bc
       -0.17800403 -0.03832527 -0.041975316 -0.01864447
000170 e0 37 ef bc d8 ab 54 3e ec d4 a4 3b f5 02 7a 3d
       -0.029201448 0.20768678 0.005030265 0.061037976
000180 4e a7 e6 bd a2 c5 78 bd 0d 26 0d 3e 4d 96 f6 3c
       -0.112623796 -0.060735352 0.13784046 0.030100966
000190 7a 26 7a 3b 7c 8b 78 3e 15 36 da bc 00 3f d0 bd
       0.0038169906 0.24271959 -0.026637116 -0.10168266
0001a0 bf 06 26 be b3 1e b9 bd 35 a3 a5 3d c7 33 88 be
       -0.16213511 -0.090390585 0.0808777 -0.26602003
0001b0 f7 94 c3 bd 08 0b 7a 3e ff cb 95 3e ca 89 d5 bc
       -0.09549897 0.2441827 0.292572 -0.02606668
0001c0 7c c4 78 3e 0a 58 58 3d 46 63 e0 bd 92 a1 72 3e
       0.24293703 0.052818336 -0.10956435 0.23694447
0001d0 1d dd d9 3c eb 5c 29 3e 52 42 95 bd e8 c8 0c be
       0.026594693 0.16539352 -0.0728804 -0.13748515
0001e0 27 63 54 3e b0 52 3e be f9 56 66 3e db 0e 19 3e
       0.20740949 -0.1858623 0.22494115 0.14947073
0001f0 e1 1f 3b 3e 11 a0 f3 bb cb 89 88 3d bb 0e ba 3d
       0.1827388 -0.007434853 0.06666907 0.09084841
000200 60 d4 58 be 15 37 41 3d e6 63 1f bb c1 16 37 3d
       -0.21174765 0.04717167 -0.0024321019 0.044699434
000210 5e 2d 8d 3d 64 0a 26 3e ab 0f 07 3e 68 c4 60 be
       0.06893419 0.16214901 0.1318957 -0.21949923
000220 40 5c 14 be 74 cf 55 3e e1 89 9d bd cb f4 45 3e
       -0.14488316 0.20879918 -0.07692314 0.19331662
000230 c9 db c8 bc 73 d4 85 3e 61 5d 12 bb 81 ee 09 be
       -0.024518864 0.26138648 -0.002233349 -0.13469888
000240 b7 3f b5 3d 42 57 a6 3d 84 43 74 bc b4 57 fe bc
       0.08850043 0.08122112 -0.014908675 -0.03104768
000250 77 d8 39 3e c0 e1 ad bd 93 be 61 bd 19 58 80 be
       0.18148981 -0.08490324 -0.055113386 -0.25067213
000260 5a b7 94 3e 89 e4 e5 3d a4 4c a0 be 69 22 46 3e
       0.29046136 0.1122523 -0.31308472 0.19349064
000270 be 3f 45 be 49 26 0d be 92 5f 98 be 87 4a dc bc
       -0.19262597 -0.13784136 -0.29760414 -0.026891006
000280 71 35 39 3e 35 00 a5 3e 89 6c 91 be df 34 76 be
       0.18086793 0.3222672 -0.28403118 -0.24043606
000290 53 42 8d 3d a8 fb 98 3d 56 eb 8d bb 88 53 31 bd
       0.06897416 0.074698746 -0.0043310327 -0.043292552
0002a0 b0 17 ec bd 73 96 77 be d3 bf 40 3e 23 5c 7e 3e
       -0.115279555 -0.24178486 0.18823175 0.24839835
0002b0 19 f3 a2 bd f7 92 53 be 51 ba 8d 3e 24 ea 97 be
       -0.079565234 -0.20661531 0.2768121 -0.29670823
0002c0 ea 07 99 3d 3d b1 14 3b 9e 2e a1 be 01 e7 57 3e
       0.074722126 0.002268865 -0.3148088 0.21084215
0002d0 77 f2 7c be 6a 14 af bd 77 21 ad be 59 c2 4b 3d
       -0.24701868 -0.085488155 -0.33814594 0.04974589
0002e0 b5 e9 60 be aa 0b 77 3e fc 15 7b bd 89 56 dd bd
       -0.21964152 0.24125543 -0.061300263 -0.10807521
0002f0 c8 7b 84 3e 41 e3 a7 3e 36 63 c8 3d 21 ed 82 3d
       0.25875688 0.32790568 0.09784548 0.06392885
000300 55 0a d1 bd df 7f 24 3d d5 1c fa 3d 6d 72 cc bc
       -0.10207049 0.04016101 0.122125305 -0.024956906
000310 95 75 11 bd 41 a9 2c 3e f4 bf 01 3e 30 08 77 3e
       -0.035512526 0.1686144 0.1267088 0.24124217
000320 a4 64 dc bd 28 d4 87 be ef 14 26 3c b5 8b 4d 3b
       -0.10761383 -0.2652905 0.010136827 0.003136379
000330 19 2f 5f 3e 5b 49 80 be 0e 2c 12 be f1 09 da 3d
       0.2179531 -0.25055966 -0.14274618 0.106464274
000340 33 a5 8a 3e b4 66 88 3e 73 40 45 be c5 01 9a 3e
       0.27079162 0.26640856 -0.19262867 0.30079475
000350 c0 f1 85 3e 7f 25 b6 3d 43 95 9e 3d f4 82 ef 3d
       0.26161003 0.088938706 0.07743313 0.11694899
000360 e1 16 8b be 08 58 8d be b4 45 2e bd e8 57 b6 bd
       -0.27165893 -0.27606225 -0.042546943 -0.089034855
000370 67 e2 81 3e a3 3c a3 be d7 71 0e be b9 55 16 be
       0.25368044 -0.318822 -0.13910614 -0.14681138
000380 bb cf 89 be a5 3b 45 3e c8 95 46 be 76 6c 7a be
       -0.26916298 0.19261034 -0.19393075 -0.24455437
000390 71 9c 97 3d be fe 79 3e 2f 7d a0 3e ad 7c 88 bd
       0.07402886 0.24413583 0.31345508 -0.06664405
0003a0 67 23 82 be 91 d6 eb 3b 25 ca 9c bd ac 50 16 be
       -0.25417635 0.007197209 -0.076557435 -0.14679211
0003b0 d9 b0 ed 3d b7 08 90 3d 88 74 50 3e 05 e1 d3 3c
       0.11605997 0.07032912 0.20356953 0.025864134
0003c0 b5 32 ac 3d 61 81 12 3c 40 00 b6 3c 91 48 6c bc
       0.08408109 0.008941979 0.022216916 -0.014421598
0003d0 99 0f 8e be c9 fb 99 3c dc 1b 8c be b0 3d c8 bd
       -0.27746275 0.018796818 -0.27365005 -0.09777391
0003e0 5c e9 4f be c6 89 13 be 82 e1 58 be e4 3f 6e be
       -0.20303863 -0.14408025 -0.21179774 -0.2326656
0003f0 d9 5d f4 bd 49 26 1c 3e 9c 19 95 be a9 bd bc 3d
       -0.119319625 0.1524898 -0.291211 0.09215862
