tasks/solution/PPO_LunarLander-v2-eps0.15.pth (torch, 554407 bytes, 11 tensors)

action_layer.0.weight f4 [256, 8]
0	0x3e80e719	0.25176314
1	0x3e8e3c1e	0.2778024
2	0xbd6f6f56	-0.058455788
3	0x3eea75da	0.4579304
4	0xbdb469b0	-0.08809221
5	0x3d877b0b	0.066152655
6	0xbe138e52	-0.1440976
7	0x3e388aaa	0.18021646
8	0x3e9bff8c	0.30468404
9	0xbe74abcf	-0.23893665
10	0x3e91f0a4	0.28503907
11	0xbb56250c	-0.003267589
12	0x3e7c77dc	0.24655098
13	0x3d8c7537	0.068582945
14	0x3d7e24c7	0.062046792
15	0xbcd4c4db	-0.025972774
16	0x3ea30d81	0.3184624
17	0x3db1afcd	0.086761095
18	0xbd9f9f4b	-0.077940546
19	0x3e15ac18	0.1461643
20	0xbe60c40a	-0.21949783
21	0xbd356dfa	-0.044294335
22	0xbdc8320c	-0.09775171
23	0x3e461c51	0.1934674
24	0xbe806925	-0.2508022
25	0xbe49328e	-0.19648191
26	0xbd82adb8	-0.063807905
27	0xbe886ac4	-0.26643956
28	0x3c155ce2	0.009116383
29	0xbebdb1a0	-0.3704958
30	0x3ea37d9b	0.31931767
31	0xbe887fa7	-0.2665989
32	0x3e534071	0.20630051
33	0x3d80bc2d	0.06285892
34	0xbe12af8f	-0.14324783
35	0x3e9e807a	0.30957395
36	0x3defc79a	0.11707993
37	0x3ea10c39	0.31454638
38	0x3ca0157d	0.019541496
39	0xbe0b4193	-0.13599233
40	0x3e0c98b0	0.1373012
41	0x3b1afb0c	0.002364817
42	0x3e178a9c	0.14798969
43	0x3ea70b21	0.32625678
44	0x3e40125f	0.18757008
45	0xbe344f42	-0.1760836
46	0x3e4700d3	0.19433908
47	0x3d4656e1	0.048422698
48	0x3e71e56c	0.23622674
49	0xbe1ac3d3	-0.15113764
50	0xbe933f6f	-0.28759333
51	0xbe3a7bdc	-0.18211311
52	0xbe9c566b	-0.30534682
53	0x3e6f7794	0.23385459
54	0x3e309343	0.17243676
55	0x3e353f1d	0.17699857
56	0x3e03eb86	0.12882814
57	0xbd0fcba2	-0.03510631
58	0x3e8b3c61	0.27194503
59	0xbe977066	-0.2957794
60	0xbdb8caa3	-0.09023025
61	0xbe9e6462	-0.3093596
62	0x3ded2c05	0.11580662
63	0xbe1ff024	-0.1561895
64	0x3e1b7a4c	0.15183371
65	0xbdd8b353	-0.105810784
66	0x3ea054db	0.3131474
67	0xbe81ff3c	-0.2539004
68	0xbe981f42	-0.29711348
69	0xbe773cca	-0.24144283
70	0x3eb0afff	0.34509274
71	0x3e048f2a	0.12945238
72	0x3eadf5bf	0.33976552
73	0xbea373f0	-0.3192439
74	0xbe956ae8	-0.29183125
75	0xbea954b9	-0.3307245
76	0xbe810f34	-0.25206912
77	0x3de2f3b6	0.110816404
78	0x3c6dd167	0.014515257
79	0x3ea4b375	0.32168165
80	0xbe2ad69f	-0.16683434
81	0xbe3db310	-0.18525338
82	0x3e0a1d95	0.13487847
83	0xbe88f9fb	-0.2675322
84	0x3e526781	0.20547296
85	0xbd9087aa	-0.07057126
86	0x3e70e4ca	0.23524776
87	0xbe73c682	-0.23806193
88	0xbe864b2d	-0.2622923
89	0x3e096caa	0.13420358
90	0xbc11283e	-0.008859692
91	0xbe2dd15f	-0.169744
92	0x3ed5765f	0.41691872
93	0x3ed69c21	0.41915992
94	0xbe967035	-0.29382482
95	0xbe4baf98	-0.19891202
96	0x3ea0a681	0.31377032
97	0xbe0b45d9	-0.13600864
98	0xbe0d03b3	-0.13770942
99	0xbed86c92	-0.42270333
100	0xbe686fe2	-0.2269893
101	0x3db585f5	0.08863441
102	0xbd21776c	-0.03942053
103	0xbe5f8e2c	-0.21831578
104	0x3db0f4f7	0.08640473
105	0xbe6855f0	-0.22689033
106	0xbe6ea0b6	-0.23303494
107	0xbe44a762	-0.19204476
108	0xbee00f17	-0.43761513
109	0xbeacfca7	-0.33786508
110	0x3edad111	0.4273763
111	0x3db3e719	0.08784313
112	0x3da5b655	0.08091418
113	0xbea3aefd	-0.31969443
114	0xbe56912f	-0.2095382
115	0xbe606429	-0.21913208
116	0x3d577e4c	0.05261068
117	0xbe8690b1	-0.26282266
118	0xbe060e10	-0.13091302
119	0xbe0f58a2	-0.13998654
120	0x3d2ad20e	0.04170423
121	0xbdf4a3fe	-0.119453415
122	0xbcec190b	-0.028820535
123	0xbeb0351e	-0.34415525
124	0xbe92d810	-0.28680468
125	0xbe791ce7	-0.24327432
126	0xbd8cc75e	-0.06873964
127	0xbe8044a3	-0.25052366
128	0x3ea89829	0.3292859
129	0xbd968c5d	-0.07350991
130	0x3e9575d2	0.29191452
131	0x3e471981	0.19443323
132	0xbed6ed2b	-0.4197782
133	0x3e2e7936	0.17038426
134	0xbcfe5d1d	-0.03105026
135	0xbe56cf81	-0.20977594
136	0xbe8fa256	-0.2805354
137	0xbe934786	-0.28765506
138	0x3d27f8d9	0.041008804
139	0xbe11dc44	-0.14244181
140	0x3df76cfb	0.12081333
141	0xbe9fed0b	-0.31235537
142	0x3e8d5e51	0.2761102
143	0xbe822cb0	-0.2542472
144	0xbdf3db9a	-0.1190712
145	0x3d30a0e9	0.043122206
146	0x3e40a05b	0.18811171
147	0x3ee267ac	0.4421972
148	0x3e8c1174	0.27357066
149	0xbe8c6720	-0.27422428
150	0x3d110228	0.035402447
151	0xbe1914c9	-0.14949335
152	0xbd6dfbbe	-0.05810141
153	0xbe703671	-0.23458268
154	0x3e8644bc	0.26224315
155	0xbec42cd7	-0.3831546
156	0x3e969b80	0.29415512
157	0x3e4b051a	0.19826165
158	0x3d475aa3	0.048670422
159	0xbe571946	-0.21005735
160	0x3e8fcd00	0.2808609
161	0x3c3d6714	0.01156022
162	0x3d28a300	0.041171074
163	0xbeb98b8f	-0.36239287
164	0x3d95db7c	0.07317254
165	0xbd3f169c	-0.04665242
166	0xbe55f285	-0.20893295
167	0x3ea725cd	0.32646027
168	0x3c4f4110	0.012649789
169	0xbe400c2f	-0.18754648
170	0xbe64ba13	-0.22336607
171	0xbdcb0b30	-0.09914243
172	0x3ea51dd9	0.32249334
173	0x3ad765cc	0.0016433536
174	0xbe892b1a	-0.26790696
175	0xbdfb194b	-0.122606836
176	0xbe890ec1	-0.2676907
177	0x3dac815f	0.08423113
178	0x3e5a7bf6	0.2133635
179	0xbed7a42c	-0.4211744
180	0x3de979ca	0.114001825
181	0x3e476bf9	0.19474782
182	0x3c7ab518	0.015301965
183	0xbe017796	-0.12643275
184	0x3e0e7ec5	0.13915546
185	0x3dc7ae21	0.09750009
186	0x3db81c42	0.08989765
187	0xbd4250bf	-0.047440287
188	0xbe204c30	-0.15654063
189	0x3d81edd7	0.063441925
190	0xbdc52e61	-0.09627987
191	0xbe219bc1	-0.15782072
192	0x3e8e5332	0.27797848
193	0x3e929243	0.28627214
194	0x397dbc10	0.00024198019
195	0xbdf37456	-0.11887424
196	0xbd0976aa	-0.033560432
197	0xbdb2288c	-0.0869914
198	0x3d19083f	0.03736138
199	0x3e0b2479	0.13588132
200	0xbea03026	-0.31286734
201	0xbe078abd	-0.13236518
202	0x3e8e8379	0.2783468
203	0x3e0c53d7	0.13703857
204	0xbe198acb	-0.14994352
205	0xbe92caf4	-0.28670466
206	0xbe29ee27	-0.16594754
207	0xbeb8d25c	-0.3609799
208	0xbcf46b47	-0.02983631
209	0x3df8063e	0.121105656
210	0x3e9c090e	0.30475658
211	0x3e5b3449	0.21406664
212	0xbf000bed	-0.500182
213	0xbeb3110a	-0.34973937
214	0xbce251d2	-0.027626906
215	0x3ea316ec	0.31853426
216	0x3dc9ba43	0.0984998
217	0xbdd82230	-0.10553396
218	0x3dbdcbc0	0.09267378
219	0xbe57f35a	-0.21088925
220	0xbe8a95c9	-0.27067402
221	0x3e5325a1	0.20619823
222	0xbd49b05c	-0.049240455
223	0xbd4af6d9	-0.04955182
224	0xbe90b766	-0.28264922
225	0x3e541b73	0.20713596
226	0x3eaa796a	0.33295757
227	0x3e54fa09	0.20798506
228	0xbed57b22	-0.41695505
229	0xbee78c2b	-0.45224127
230	0xbe86dc86	-0.2634012
231	0x3e6605cd	0.2246315
232	0x3e4008b5	0.18753321
233	0x3e8eb73d	0.27874175
234	0x3e51d873	0.20492725
235	0x3e15c52c	0.14625996
236	0xbe0b1bc6	-0.13584813
237	0xbea7d11a	-0.3277672
238	0xbe568c02	-0.20951846
239	0xbeaea9b2	-0.34113842
240	0x3e0daf73	0.1383646
241	0xbe4cb89d	-0.199923
242	0xbd64ca20	-0.055856824
243	0xbe8c612e	-0.27417892
244	0xbdac4440	-0.08411455
245	0xbe61ee7b	-0.2206363
246	0xbe94f163	-0.29090413
247	0x3de5b6e2	0.11216523
248	0xbe398eda	-0.181209
249	0x3dfce4de	0.123483405
250	0xbe127375	-0.14301856
251	0xbe884822	-0.26617533
252	0xbd9c0355	-0.07617823
253	0xbe093792	-0.13400105
254	0xbe158458	-0.14601266
255	0xbeba0cb6	-0.36337823

action_layer.0.bias f4 [256]
0	0x3dfce33f	0.12348031
1	0x3daef41a	0.085426524
2	0xbd4dbe6a	-0.05023042
3	0x3e0337c6	0.12814245
4	0x3df53497	0.11972921
5	0xbe6f53a0	-0.23371744
6	0xbe228974	-0.15872747
7	0xbc2ffd97	-0.010741613
8	0x3dc3a089	0.09552104
9	0x3e047b3d	0.12937637
10	0xbdf9c62d	-0.12196002
11	0xbe8f39cf	-0.27973792
12	0xbc877023	-0.016532963
13	0xbd604fa6	-0.05476346
14	0x3df9608d	0.12176619
15	0xbd894b7a	-0.06703849
16	0x3e5edd26	0.21764049
17	0x3d0c4119	0.03424177
18	0x3e488e37	0.195855
19	0xbe3d1618	-0.1846546
20	0x3dc31382	0.09525205
21	0x3d9d9efe	0.07696341
22	0xbe363a53	-0.17795686
23	0x3dc248f1	0.09486569
24	0xbe8a9a6e	-0.27070946
25	0x3e860f6d	0.26183644
26	0x3b617eb4	0.0034407796
27	0x3c63b556	0.013898214
28	0x3dedc02f	0.11608922
29	0x3c46d295	0.012135168
30	0x3e054801	0.13015749
31	0x3e226e92	0.15862492
32	0xbe631895	-0.22177346
33	0x3e1b0b4f	0.15141033
34	0xbda84117	-0.0821554
35	0xbd603551	-0.054738346
36	0x3d310588	0.043218166
37	0x3e5c3153	0.2150319
38	0xbe4ca0ba	-0.19983187
39	0xbe418986	-0.18900117
40	0x3e50db76	0.20396218
41	0xbe0471fc	-0.12934107
42	0x3dc16e07	0.09444814
43	0xbd5eecb6	-0.054424964
44	0x3d771dab	0.060331028
45	0x3e6f5ce5	0.2337528
46	0xbe153149	-0.14569582
47	0xbe47e6cc	-0.19521636
48	0x3e158b09	0.14603819
49	0xbce283b8	-0.027650699
50	0xbd3cb3b7	-0.046069827
51	0xbe8a7fc9	-0.27050617
52	0x3e8143d8	0.25247073
53	0xbd453d38	-0.048154086
54	0xbd6e762c	-0.058218166
55	0xbdd6c904	-0.104875594
56	0xbd8dc51b	-0.069223605
57	0x3d86a5d9	0.06574602
58	0x3bc83a02	0.0061104307
59	0x3e80c277	0.25148365
60	0xbc393a1d	-0.011305359
61	0xbd6a8574	-0.057256177
62	0x3db9a6a2	0.09064986
63	0xbcf020d8	-0.029312536
64	0xbd520b5c	-0.051280364
65	0x3d92311e	0.071382746
66	0x3e544406	0.20729074
67	0x3da998bc	0.08281085
68	0x3e57e21e	0.2108235
69	0x3e2ae766	0.16689834
70	0x3d8f7190	0.07004082
71	0x3dc03a6c	0.09386143
72	0x3d706ac3	0.058695566
73	0xbb851371	-0.0040611555
74	0x3e52e22d	0.20594092
75	0x3e8d9876	0.2765538
76	0x3c3b9e52	0.011451321
77	0x3ce0e367	0.027452184
78	0x3e9092b8	0.28236938
79	0xbe8d5bb6	-0.27609032
80	0x3e7fe35e	0.24989077
81	0x3e1c08b6	0.15237698
82	0x3e62cc24	0.22148186
83	0xbd004000	-0.031311035
84	0xbe5fd49b	-0.21858446
85	0x3e625282	0.22101787
86	0xbdebb192	-0.11508478
87	0x3da9de8d	0.08294401
88	0x3e369b41	0.17832662
89	0xbe52a1e1	-0.20569564
90	0x3c1ff668	0.009763338
91	0xbe0c080c	-0.13674945
92	0x3e7b96b7	0.24569212
93	0xbe41416d	-0.18872614
94	0x3e1b389c	0.15158314
95	0x3e3751b4	0.17902261
96	0x3e067004	0.13128668
97	0x3e6992a2	0.22809842
98	0x3db5ca30	0.08876455
99	0xbe8b86b8	-0.2725122
100	0x3e3b1eed	0.18273516
101	0x3d8f7766	0.07005195
102	0x3cd99a38	0.026562795
103	0xbe925fa1	-0.28588584
104	0xbcccf90f	-0.025021104
105	0xbdd8d334	-0.10587159
106	0x3e63a10c	0.22229403
107	0x3e51c41b	0.20484965
108	0x3e45b4a6	0.19307193
109	0x3e28a054	0.1646741
110	0xbe32e3f1	-0.17469765
111	0xbe23adcb	-0.15984266
112	0xbdc829b5	-0.0977358
113	0xbda47699	-0.08030433
114	0x3e55c4e0	0.20875883
115	0x3dbd48f2	0.09242429
116	0x3e672017	0.22570835
117	0xbd301dc6	-0.042997144
118	0xbe87610d	-0.2644123
119	0xbe0d5059	-0.13800181
120	0x3e598aad	0.21244307
121	0x3e29df31	0.16589047
122	0x3d8e222a	0.0694011
123	0xbd9851a9	-0.074374504
124	0xbe42c9e5	-0.19022329
125	0xbdaa4a6e	-0.083149776
126	0x3df473fe	0.11936186
127	0xbdf976fb	-0.12180897
128	0x3e081598	0.13289487
129	0x3e01e042	0.12683204
130	0xbe27ecf1	-0.1639898
131	0x3e343898	0.17599714
132	0xbdf70fa1	-0.12063528
133	0xbc7b1afe	-0.01532626
134	0xbdac46d5	-0.08411948
135	0xbe943b14	-0.28951323
136	0x3d952834	0.07283059
137	0x3d4c876e	0.049933843
138	0xbe01f8a7	-0.1269251
139	0x3de77449	0.113014765
140	0xbe827f71	-0.25487855
141	0xbe92cd2c	-0.2867216
142	0xbe54e3d2	-0.20790032
143	0xbdc1171e	-0.094282374
144	0xbcffea6e	-0.031239714
145	0xbd7ab3d1	-0.061206643
146	0x3d80c8dc	0.06288311
147	0xbe70c48e	-0.2351248
148	0x3d7281fe	0.059206
149	0x3b4a20a6	0.0030842214
150	0x3dc7d9e7	0.097583584
151	0x3e9b50f2	0.30335194
152	0x3e1734d8	0.14766252
153	0xbe181de8	-0.14855158
154	0xbe7466c3	-0.23867325
155	0xbd5c9548	-0.053853303
156	0xbe3ac954	-0.18240863
157	0x3daa3890	0.0831157
158	0xbcf5d72e	-0.030009832
159	0x3e7ca059	0.24670543
160	0x3d87af57	0.0662524
161	0xbd851183	-0.06497481
162	0x3d2a7c53	0.04162247
163	0x3cc81007	0.024421705
164	0xbc8bbb33	-0.017057037
165	0x3e523ca5	0.20530947
166	0xbe719dc9	-0.23595347
167	0x3e01bb3d	0.12669082
168	0xbe1af6c2	-0.15133193
169	0xbe88e6b1	-0.26738504
170	0xbc488ff6	-0.012241354
171	0x3df73a3b	0.120716535
172	0x3e6097e9	0.21932949
173	0x3d88fc50	0.0668875
174	0x3d6b98d1	0.057518784
175	0x3c81ef3e	0.01586115
176	0xbdbaeaef	-0.09126841
177	0xb8cc701b	-9.748359e-05
178	0xbd08cc6e	-0.033398084
179	0x3e7d4df7	0.24736772
180	0x3e146dd9	0.14495029
181	0xbe73a4ab	-0.23793285
182	0xbd20c989	-0.0392547
183	0xbe1348f9	-0.14383306
184	0xbd3703dd	-0.04468142
185	0xbe8a7b52	-0.2704721
186	0x3d60ff9e	0.054931276
187	0xbe4f6dd1	-0.20256735
188	0x3ea5d1d8	0.3238666
189	0x3e6228b9	0.22085847
190	0xbe35e535	-0.17763217
191	0xbe74484e	-0.23855707
192	0x3b47067c	0.0030368855
193	0xbdb977df	-0.09056067
194	0x3da9641d	0.08271048
195	0xbe630fc7	-0.22173987
196	0x3dd28bff	0.102806084
197	0xbe7c61a4	-0.24646622
198	0xbe1d2187	-0.15344821
199	0xbe13fa96	-0.1445106
200	0x3dbefe93	0.093259
201	0xbd02895d	-0.03186928
202	0xbe9971e0	-0.29969692
203	0xbe310feb	-0.17291228
204	0xbe3f03e1	-0.18653823
205	0xbe84e60c	-0.25956762
206	0x3d5e68d8	0.054299206
207	0x3ddf14a4	0.10892609
208	0xbce4ba72	-0.027920935
209	0xbdecf741	-0.115705974
210	0x3d60d975	0.054894883
211	0xbe7c4de1	-0.24639083
212	0xbe4a0c65	-0.1973129
213	0xbdc39604	-0.095500976
214	0x3e70dabd	0.23520942
215	0xbe0be8c7	-0.13663016
216	0x3e38c6fc	0.18044657
217	0xbdce8dd0	-0.10085642
218	0xbdd0a06f	-0.1018685
219	0xbe9841e4	-0.2973777
220	0x3e504fb4	0.20342904
221	0x3e8f1613	0.2794653
222	0x3caa28e1	0.020771446
223	0x3e45347f	0.19258307
224	0x3e3b9c18	0.18321264
225	0x3e17bb7b	0.14817612
226	0x3e11d09a	0.14239731
227	0xbe9041e3	-0.28175268
228	0xbe8c43c8	-0.27395463
229	0xbe2e0518	-0.1699413
230	0x3c8ad39b	0.016946604
231	0xbe6f155b	-0.2334799
232	0xbe4b69ab	-0.19864528
233	0xbe27382b	-0.1633002
234	0xbe7f54fb	-0.24934761
235	0x3d178cfc	0.036999688
236	0x3d876a9c	0.06612131
237	0xbe2eea14	-0.17081481
238	0x3e457ed0	0.19286656
239	0xbd94fdc8	-0.072749674
240	0xbceb339d	-0.028711135
241	0x3e536ae2	0.20646241
242	0x3e836f66	0.25670928
243	0xbd1de010	-0.03854376
244	0xbe519ad2	-0.20469216
245	0xbe14fce8	-0.14549601
246	0x3b25d49d	0.002530373
247	0x3e38b8d3	0.18039255
248	0x3dcb9104	0.09939769
249	0xbdd2b8df	-0.102891676
250	0xbe909cb2	-0.2824455
251	0xbe7c74ed	-0.24653979
252	0xbcbb62f9	-0.022874342
253	0xbca6d424	-0.020364828
254	0xbe1b2912	-0.15152386
255	0xbe4fcc28	-0.20292723

action_layer.2.weight f4 [256, 256]
0	0x3c8b81b2	0.017029617
1	0xbd091a81	-0.03347254
2	0xbd5266d1	-0.051367585
3	0xbd9b6e17	-0.07589357
4	0xbc23ae70	-0.00999032
5	0x3d74e8a3	0.059792172
6	0x3bf39b6c	0.007434299
7	0xbc89aa6c	-0.016804896
8	0xbc8c73a0	-0.017144978
9	0x3bbd5a9e	0.0057786247
10	0xba6a456e	-0.00089367374
11	0xbd01f9da	-0.031732418
12	0xbdb3b7e3	-0.08775308
13	0xbd969639	-0.073528714
14	0xbba750b7	-0.0051060575
15	0xbd9fb757	-0.07798641
16	0x3bf0f635	0.007353569
17	0xbcba4146	-0.022736203
18	0x3dbbc777	0.09168904
19	0x3d56e171	0.05246109
20	0x3d234ab5	0.039866168
21	0x3c74f54d	0.014951062
22	0xbd07e746	-0.033179544
23	0x3cac03b8	0.020997867
24	0xbd87537c	-0.0660772
25	0xbb18cb79	-0.0023314639
26	0x3c13e858	0.009027563
27	0xbcb7ba96	-0.022427838
28	0xbd341fed	-0.04397576
29	0x3cf3f881	0.029781582
30	0x3d4610f6	0.04835602
31	0xbd211b1f	-0.039332505
32	0x3ca2dd50	0.01988092
33	0xbc205d33	-0.009787845
34	0xbc9f0966	-0.019413661
35	0x3bde171f	0.0067776586
36	0x3c09018b	0.008362184
37	0x3bc77977	0.006087478
38	0xbd734da1	-0.059400205
39	0xbb6d1475	-0.0036175523
40	0x3d4e799f	0.050408956
41	0x3c7da6bb	0.015481646
42	0xbb543950	-0.0032382794
43	0xbbc33ec6	-0.005958411
44	0xbcbccd9d	-0.023047263
45	0xbd07f43a	-0.033191897
46	0xbcbe2ae7	-0.023213817
47	0x3bfd7614	0.0077350233
48	0x3c4f03fc	0.012635227
49	0x3d0d6ecd	0.034529496
50	0xbc2f22a3	-0.01068941
51	0xbc1af61a	-0.009458089
52	0x3d222c3c	0.039592966
53	0x3ba30fe7	0.004976261
54	0xba395f48	-0.0007071388
55	0x3d66c166	0.056336783
56	0xbcab9458	-0.02094476
57	0xbd729323	-0.05922235
58	0xbbea4b79	-0.0071501103
59	0xbc2e7e45	-0.010650222
60	0x3d2014e8	0.039082438
61	0x3d811630	0.0630306
62	0x3bd961d8	0.0066339783
63	0x3d1762da	0.036959507
64	0xbd5ace2b	-0.053419273
65	0x3d826f00	0.06368828
66	0x3d4f4966	0.050607108
67	0x3bd7d578	0.0065867268
68	0xbc8cc87d	-0.017185444
69	0xbcb064df	-0.021532474
70	0xbcb73356	-0.022363346
71	0xbcd8e000	-0.026473999
72	0xbd76099a	-0.06006775
73	0x3b083413	0.0020782992
74	0xbd16ae0f	-0.03678709
75	0xbc9957d7	-0.018718643
76	0xbd17a581	-0.03702307
77	0xbbc241f3	-0.005928272
78	0xbd126ce4	-0.035748377
79	0xbd639d93	-0.055570196
80	0x3c9d6159	0.019211458
81	0x3d5211ef	0.051286634
82	0x3dae96e8	0.08524877
83	0xbccd3889	-0.025051372
84	0x3d069ca6	0.032864235
85	0xbd00160d	-0.03127103
86	0xbd2361a0	-0.039888024
87	0x3bc8debc	0.0061300676
88	0xbce06429	-0.02739151
89	0xbd3fb7dd	-0.046806205
90	0xbd71076f	-0.05884498
91	0xbd63fb12	-0.05565936
92	0x3da18a32	0.07887687
93	0x3ce59acc	0.028027914
94	0xbc1c80c6	-0.009552186
95	0xbd6b7c9c	-0.057491884
96	0xbd30c6d4	-0.043158367
97	0xbd023ffd	-0.031799305
98	0xbc465b93	-0.012106794
99	0x3d1f3bd5	0.03887542
100	0x3c8ed230	0.01743421
101	0xbd008c5a	-0.03138385
102	0x3d71a9d6	0.05899986
103	0xbd40f34c	-0.047107026
104	0xbd5d0471	-0.053959314
105	0xbb9bf5b0	-0.004759513
106	0xbd0b0cca	-0.033947743
107	0x3d03e297	0.032198515
108	0x3d7dc6fc	0.061957344
109	0xbd0dc4e0	-0.034611583
110	0xbd1611be	-0.036638014
111	0x3c66d55f	0.014088958
112	0xbd86b083	-0.06576636
113	0x3d4630f6	0.048386537
114	0xbcdc244f	-0.026872782
115	0x3d105a08	0.03524211
116	0xbd3e26e1	-0.046423797
117	0xbd406b9a	-0.046977617
118	0xbc01ea4f	-0.007929399
119	0xbb15a1bc	-0.0022831997
120	0x3d2af2fb	0.04173563
121	0x3d4a8b8d	0.049449492
122	0x3cd4221d	0.025895173
123	0xbc2b8bab	-0.010470311
124	0x3c0f2029	0.008735695
125	0xbc88e0dc	-0.016708784
126	0xbbdc587f	-0.0067244167
127	0xbd5625f8	-0.052282304
128	0xbd69800c	-0.05700688
129	0x3d6845fc	0.056707367
130	0xbd30f428	-0.043201596
131	0x3cc751c7	0.024330987
132	0xbca3678d	-0.019946838
133	0x3cb9c807	0.022678388
134	0x3d9226c9	0.07136304
135	0xbd614ac7	-0.055002954
136	0xbc0f26b9	-0.00873726
137	0x3ceb6cc6	0.02873839
138	0x3cdfe64b	0.027331492
139	0xbd81b3be	-0.06333111
140	0x3cb46cdb	0.022024563
141	0xbd467a2f	-0.048456367
142	0xbc5865d6	-0.013207873
143	0x3d2b3c69	0.04180566
144	0x3c813f5a	0.015777279
145	0x3cad5a46	0.02116121
146	0xbc3d3cae	-0.011550112
147	0x3d686d95	0.05674513
148	0x3d87e612	0.06635679
149	0xbc9d21a6	-0.019181084
150	0xbd0de16d	-0.03463881
151	0xbced4aa3	-0.028966254
152	0x3d3a2e57	0.04545435
153	0x3d6216eb	0.055197638
154	0x3d02b4a0	0.03191054
155	0xbca19888	-0.019726053
156	0x3ce287b6	0.027652603
157	0xbc345445	-0.01100642
158	0x3d28265e	0.041052215
159	0x3d722e77	0.059126344
160	0xbc50daf0	-0.012747511
161	0xbb1b95a2	-0.002374031
162	0x3d87f39c	0.06638262
163	0xbd0ae4af	-0.033909496
164	0x3d702d7b	0.058637124
165	0xbd8b192e	-0.06791912
166	0xbac5031d	-0.0015030835
167	0xbd4d1867	-0.0500721
168	0xbd01aae8	-0.03165713
169	0x3cb67d29	0.022276478
170	0xbd0e2251	-0.034700695
171	0xbd5c32a5	-0.053759236
172	0x3d6a7cad	0.057247806
173	0x3cce3aba	0.025174487
174	0x3c12a945	0.00895149
175	0xbd3bf9f9	-0.04589269
176	0xbc0436ef	-0.008069738
177	0xbc12b2a1	-0.008953721
178	0x3caa120b	0.020760557
179	0xbc9bd52d	-0.019022549
180	0xbd031766	-0.032004736
181	0xbd469f32	-0.048491664
182	0xbd1d5671	-0.038412515
183	0x3d2b7704	0.04186155
184	0x3cd02ef8	0.025413021
185	0xbccf9583	-0.025339847
186	0xbcee58de	-0.02909511
187	0x3d8eb5c0	0.0696826
188	0x3d125fd7	0.03573593
189	0xbca105cf	-0.01965609
190	0xbc4302ba	-0.0119025055
191	0xbbe6edf4	-0.007047409
192	0x3cd650c4	0.026161559
193	0x3ca2e826	0.019886088
194	0x3d6787e4	0.05652608
195	0x39c35b27	0.00037261212
196	0x3d50cc98	0.050976366
197	0xbcab29e7	-0.020894004
198	0xbca9c34d	-0.02072301
199	0xbca114a9	-0.019663172
200	0xbd8547b9	-0.06507821
201	0xbd948911	-0.07252706
202	0xbd6954b2	-0.056965537
203	0xbd0f3b05	-0.034968395
204	0xbd3f75ec	-0.04674332
205	0xbd2911ff	-0.041276928
206	0xbd52d0a8	-0.05146852
207	0x3d5607ef	0.05225366
208	0xbc3294c3	-0.010899725
209	0x3d0c4190	0.034242213
210	0x3d960e19	0.07326908
211	0xbcdbde52	-0.026839409
212	0xbd870d38	-0.06594318
213	0x3cfdf5f3	0.031001067
214	0x3d740719	0.05957708
215	0xbd2ff671	-0.042959634
216	0x3d7d2a3a	0.06180785
217	0xbd33016f	-0.04370254
218	0xbd012b93	-0.031535696
219	0x3d6af97c	0.057366833
220	0xbcacdc07	-0.021101011
221	0x3d5fde78	0.054655522
222	0x3c4e7e92	0.012603419
223	0xbceae90b	-0.028675577
224	0x3d5dbcc0	0.054135084
225	0x3da5dd3a	0.08098836
226	0xb92ae113	-0.0001629631
227	0xbd210fe9	-0.039321814
228	0xbc55e12b	-0.0130541725
229	0xbd045034	-0.03230305
230	0x3d177a42	0.03698183
231	0x3bb2cfb8	0.005456891
232	0x3c798cad	0.015231294
233	0x3d51abac	0.05118911
234	0x3be8e066	0.0071068285
235	0xbcba9589	-0.022776382
236	0x3d739a1f	0.059473153
237	0x3d39b820	0.04534161
238	0xbd2f3716	-0.042777143
239	0x3d271008	0.040786773
240	0x3c496011	0.01229097
241	0xbc9090b3	-0.017647123
242	0xbd127225	-0.035753388
243	0xbc89f1e6	-0.016838979
244	0xbd9071b9	-0.07052941
245	0x3d014a2c	0.031564876
246	0x3d5cc7fe	0.053901665
247	0x3c9580ba	0.018249858
248	0x3d44cae1	0.048045043
249	0xbd199ecf	-0.037504967
250	0x3c4cf6dd	0.012510029
251	0xbd425b38	-0.047450274
252	0xbc0ea593	-0.008706468
253	0x3b218a04	0.0024648914
254	0x3c486231	0.012230442
255	0xbc388a97	-0.011263511

action_layer.2.bias f4 [256]
0	0xbc97ef75	-0.0185468
1	0x3d512ed2	0.051070042
2	0x3d5fd68e	0.054647975
3	0xbd60cc39	-0.054882262
4	0x3cb215c0	0.021738887
5	0x3d2d1744	0.042258516
6	0xbcc3a484	-0.023882158
7	0x3cee0316	0.029054206
8	0x3d18f997	0.037347402
9	0x3d43c8ff	0.047799107
10	0x3d2575f9	0.04039571
11	0xbc561679	-0.013066881
12	0xbcbd6cfe	-0.02312326
13	0x3d52449f	0.051334973
14	0x3d117f7c	0.03552197
15	0xbd6d0ba0	-0.057872415
16	0xbd2f63b5	-0.042819697
17	0xbd181386	-0.037127994
18	0x3d0e2c34	0.034710124
19	0x3cccd4b1	0.025003763
20	0xbd1a64e7	-0.037693884
21	0x3bb8d436	0.005640532
22	0x3c30dbf1	0.010794626
23	0x3c88e9a0	0.016712964
24	0xbc8061ea	-0.015671689
25	0x3cfef64e	0.031123307
26	0xbd522dc6	-0.051313184
27	0x3c601613	0.013677138
28	0x3d19feff	0.0375967
29	0x3cea7371	0.0286195
30	0xbcb1a31d	-0.021684224
31	0xbcec1cd4	-0.02882234
32	0x3d1b4e99	0.037916753
33	0xbcf9708c	-0.030449174
34	0x3d302974	0.043008283
35	0xbd519e10	-0.05117613
36	0xbd12cce5	-0.035839934
37	0xbc1b0b96	-0.0094632115
38	0x3ca2be6a	0.019866187
39	0xbcd9ed8f	-0.026602535
40	0xbc34db63	-0.011038634
41	0x3d062bda	0.032756664
42	0x3ce01414	0.027353324
43	0x3c1018a8	0.008794941
44	0x3c927db6	0.01788221
45	0x3d52fd32	0.051510997
46	0x3cf41865	0.029796788
47	0xbd067796	-0.03282889
48	0xbd80c57d	-0.06287668
49	0xbcc2c379	-0.02377485
50	0x3c648c41	0.013949455
51	0xbd6cc4d1	-0.057804886
52	0x3bf43f20	0.007453814
53	0xba9270e7	-0.0011172564
54	0xbd35382f	-0.044243034
55	0x3d04a361	0.032382373
56	0x3d037097	0.032089796
57	0x3d6a44ce	0.057194524
58	0xbd6fd990	-0.058557093
59	0xbd0e3093	-0.034714293
60	0x3d239d18	0.03994474
61	0xbd23205d	-0.039825786
62	0x3d8a83df	0.06763434
63	0x3d4d3a92	0.050104685
64	0xbc624106	-0.013809448
65	0x3d0b0084	0.03393604
66	0x3c7ead27	0.015544212
67	0xbc1bb904	-0.00950456
68	0x39b76dd9	0.00034986323
69	0xbbb2bac4	-0.005454393
70	0x384e3908	4.916734e-05
71	0x3d464749	0.048407827
72	0xbd7cb065	-0.06169166
73	0xbcf08e60	-0.029364765
74	0xbb1dd761	-0.0024084675
75	0xbccd1754	-0.025035538
76	0xbd446717	-0.047949877
77	0xba35dcec	-0.0006937522
78	0x3cd16fe6	0.025566053
79	0xbd5252d8	-0.051348537
80	0x3c90daa9	0.01768239
81	0x3c2efa93	0.010679859
82	0xbce5fbf6	-0.028074246
83	0x3d58212d	0.052766014
84	0x3cca0146	0.02465881
85	0xbbf5f09c	-0.0075054895
86	0x3cd9bb32	0.02657852
87	0x3cc790c3	0.02436102
88	0xbd0923b4	-0.033481315
89	0xb89176c8	-6.9362635e-05
90	0x3c1dbf69	0.009628155
91	0xbc223b4a	-0.009901831
92	0x3cea49e3	0.028599685
93	0x3b1fd9c2	0.0024391268
94	0x3d409376	0.04701563
95	0xbcbabdca	-0.022795577
96	0xbd207e87	-0.039183166
97	0x3d89f177	0.06735509
98	0x3c6cc859	0.0144520635
99	0x3c21cd23	0.009875569
100	0x3d46847b	0.048466187
101	0xbd02e3b2	-0.03195543
102	0xbcaf419f	-0.021393595
103	0x3d50ecdf	0.051007148
104	0x3d6e0f64	0.058120146
105	0x3c93e84f	0.01805511
106	0x3d8ac4a6	0.06775789
107	0xbd0a7c06	-0.033809684
108	0x3d25d9c0	0.040490866
109	0xbd406368	-0.0469698
110	0x3c04d0c6	0.008106416
111	0x3d10e8f7	0.035378423
112	0x3c88fd49	0.016722338
113	0x3d04d820	0.032432675
114	0x3a599191	0.0008299584
115	0x3cd8c2f8	0.026460156
116	0xbd676542	-0.05649305
117	0x3b5ae8ed	0.0033402995
118	0x3c5b4678	0.0133835
119	0x3d0b39e1	0.033990745
120	0xbc1c9e30	-0.009559199
121	0xbc6f5e6b	-0.014609913
122	0xbd5f32c8	-0.05449179
123	0x3d157c4d	0.036495496
124	0x3d0279d5	0.03185447
125	0xbc0662fb	-0.00820231
126	0x3d30bc0a	0.043148078
127	0xbc09e949	-0.008417436
128	0x3c0f08ff	0.008730172
129	0x3cfceff0	0.03087613
130	0x3cf1e74e	0.02952924
131	0x3cadfb62	0.021238033
132	0xbd4c6bd6	-0.049907528
133	0x3d3e6377	0.046481576
134	0x3b1588ce	0.0022817138
135	0x3d5400c0	0.051758528
136	0x3c836e5c	0.016043834
137	0xbbd69808	-0.0065488853
138	0xbc8a0892	-0.01684979
139	0xbd82a67b	-0.0637941
140	0x3c92ad2a	0.017904837
141	0x3d40c79a	0.047065355
142	0x3c9b1b8b	0.018934032
143	0xbd3b402e	-0.045715503
144	0xbc9e8c7b	-0.019354096
145	0xbc579b73	-0.013159621
146	0x3d4b8e38	0.049696177
147	0x3b738b62	0.0037161936
148	0xbce7550e	-0.0282388
149	0xbd775581	-0.060384277
150	0x3b8203f9	0.0039677587
151	0xbd1cc935	-0.038277823
152	0xbd1fcf2a	-0.039015926
153	0x3d149edc	0.036284313
154	0xbd444b05	-0.047923107
155	0xbc96bc08	-0.018400207
156	0x3ce74701	0.0282321
157	0x3d53cd2d	0.051709343
158	0x3d24c103	0.040223133
159	0xba0c9931	-0.00053634035
160	0x3b7aea93	0.003828679
161	0x3d2dcdb9	0.04243252
162	0xbc284d4a	-0.010272333
163	0x3cf5b472	0.02999327
164	0xbb62184c	-0.0034499345
165	0x3d46192f	0.04836386
166	0xbcf3822d	-0.029725159
167	0xba575cf3	-0.00082154496
168	0xbc8667b7	-0.016406877
169	0xbd28c562	-0.041203864
170	0xbd3a8c7d	-0.045544136
171	0x3cb0bf62	0.021575633
172	0x3c1a456d	0.009415966
173	0xbce03162	-0.027367298
174	0x3d4a7706	0.049429916
175	0xbcdaa84c	-0.026691578
176	0x3c40ae12	0.011760252
177	0x3d2c6ed6	0.04209789
178	0x3cff0692	0.031131063
179	0xbd83504f	-0.06411802
180	0x3d124cb7	0.035717692
181	0x3c5d7ffb	0.013519282
182	0xbd1c60e1	-0.03817833
183	0xbd229792	-0.03969533
184	0x3c8c39a2	0.017117325
185	0x3ca6291d	0.020283276
186	0xbd20a07a	-0.039215542
187	0xbd506921	-0.05088151
188	0x3c7fb03b	0.015605981
189	0xbc43f369	-0.011959889
190	0x3bde45a8	0.006783206
191	0x3cca8993	0.024723804
192	0xbccd935b	-0.025094679
193	0xbd16ab3d	-0.0367844
194	0x3d7b1201	0.061296467
195	0x3d3e94e1	0.0465287
196	0xbd78890c	-0.060677573
197	0xbbd35717	-0.006449591
198	0x3d4f73b5	0.050647456
199	0xbd4560fa	-0.048188187
200	0x3d34714d	0.044053365
201	0xbbf9201c	-0.0076027047
202	0xbd43ec1e	-0.0478326
203	0x3cb85479	0.022501217
204	0x3cd0697e	0.025440928
205	0x3cbfad2a	0.023398
206	0xbd5877b5	-0.052848537
207	0x3cc13abc	0.023587577
208	0xbd606bbb	-0.05479024
209	0xbd5d573f	-0.054038282
210	0xbc0335a8	-0.008008398
211	0xbc4402ef	-0.01196359
212	0x3cf0171e	0.029307898
213	0x3cfe6d66	0.031058025
214	0xbd4e1a0d	-0.050317813
215	0x3c6d3a66	0.014479255
216	0x3ce8d280	0.028420687
217	0xbd6a4b96	-0.05720099
218	0xbd758478	-0.059940785
219	0x3d06ff90	0.032958567
220	0x3cc903a3	0.024537867
221	0xbd886f8f	-0.06661903
222	0xbd172f61	-0.03691042
223	0x3d08c372	0.033389516
224	0x3c263c87	0.010146267
225	0xbc2b63a5	-0.010460769
226	0x3b28e92d	0.002577375
227	0xbc35da2c	-0.0110993795
228	0x3d31156d	0.043233324
229	0xbc836fcf	-0.016044525
230	0xbcf0fffd	-0.02941894
231	0x3d3e1af5	0.046412427
232	0x3b763928	0.003757069
233	0xbd40eebf	-0.047102686
234	0xbd56c670	-0.05243534
235	0x3d1089af	0.035287555
236	0xbd492574	-0.049107984
237	0xbc82fec6	-0.015990626
238	0x3d64407f	0.05572557
239	0x3d6c0430	0.05762118
240	0xbcca3e0c	-0.02468779
241	0x3a49a77a	0.00076924975
242	0x3c9566d5	0.01823751
243	0x3d36eeb8	0.044661254
244	0x3c88f834	0.016719915
245	0x3d79f4c3	0.06102444
246	0xbccc75e6	-0.024958562
247	0x3be6fe28	0.0070493408
248	0x3d6a2471	0.05716366
249	0xbce1a16b	-0.02754279
250	0xbd63ae14	-0.055585936
251	0x3ca6fbf6	0.020383816
252	0xbd05ee0f	-0.032697733
253	0xbd37557d	-0.044759262
254	0x3d801d7b	0.06255623
255	0x3d388723	0.04505075

action_layer.4.weight f4 [4, 256]
0	0x3b331c64	0.0027330155
1	0xbc2a0db6	-0.0103792455
2	0xbcbe47a1	-0.023227515
3	0xbcb31538	-0.021860704
4	0x3cb1d204	0.021706589
5	0x3bbf8eaf	0.0058458666
6	0xbdc46e3c	-0.09591338
7	0x3c9d4249	0.019196646
8	0x38d4ae00	0.00010141358
9	0xbc4ee102	-0.012626888
10	0x3ca23cf2	0.019804452
11	0xbd2571f8	-0.040391892
12	0x3d4b6b3f	0.049662825
13	0xbc64e4bd	-0.013970551
14	0xbc348574	-0.011018146
15	0xbc243e26	-0.010024583
16	0x3b4dc9a0	0.0031400695
17	0xbd1af2ed	-0.03782933
18	0x3c2813e9	0.010258653
19	0xbcb0dfb1	-0.02159104
20	0x3d62569a	0.05525837
21	0x3d957bd2	0.072990075
22	0xbd7d294e	-0.06180697
23	0xbcece3bd	-0.028917188
24	0xbda24f24	-0.07925251
25	0xbd724e23	-0.05915655
26	0x3d63d9f8	0.055627793
27	0x3b99bc46	0.0046916334
28	0xbb3382ba	-0.0027391152
29	0xbd1a57c4	-0.037681356
30	0xbd82baa2	-0.06383254
31	0x3d295433	0.041340064
32	0x3cb86409	0.022508638
33	0x3c66a4af	0.01407735
34	0xbba1ba5a	-0.004935545
35	0x3cc41d2f	0.023939697
36	0x3d9344ed	0.07190881
37	0x3d9fd4f7	0.07804292
38	0x3d88716e	0.0666226
39	0x3bb73961	0.005591557
40	0xbd0ad159	-0.033891056
41	0xbda689a9	-0.08131725
42	0x3bf7a79a	0.0075578215
43	0xbd69d2b9	-0.057085726
44	0xbd082d49	-0.033246312
45	0x3cba6bbd	0.022756452
46	0xbc87e0f6	-0.016586762
47	0xbc61a142	-0.013771357
48	0x3d0eef6b	0.034896296
49	0xbd21839d	-0.039432157
50	0x3ccf2776	0.025287371
51	0x3cf76b97	0.03020267
52	0xbc650c5f	-0.01398
53	0x3b2a401d	0.0025978156
54	0xbbd53111	-0.0065060933
55	0x3d85219d	0.06500552
56	0xbcfda900	-0.030964375
57	0x3cc8a434	0.02449236
58	0xbcd8978d	-0.026439453
59	0x3cec2e69	0.028830724
60	0x3b54ea0c	0.0032488136
61	0xbd09c431	-0.03363437
62	0xbc276dd3	-0.010219055
63	0xbd2eb4c2	-0.042652853
64	0xbc76c9cf	-0.015062763
65	0x3d47ad3b	0.04874919
66	0x3c00c5e9	0.007859685
67	0xbcd783bf	-0.026307939
68	0xbc4b6b9f	-0.012415796
69	0xbd67c6d9	-0.05658612
70	0xbc711ad1	-0.014715866
71	0x3c303a38	0.010756068
72	0x3cbfb689	0.02340247
73	0x3cb06874	0.021534182
74	0xbd1ccf54	-0.03828366
75	0x3da6e6a4	0.0814946
76	0x3b919018	0.004442226
77	0x3cd0a920	0.02547127
78	0xbcbd3f1d	-0.023101384
79	0xbbfb3b4b	-0.0076669804
80	0xbd355470	-0.04426998
81	0x3d97e659	0.07416982
82	0x3d9030d7	0.070405655
83	0xbc1e9863	-0.0096798865
84	0xbd19d3f2	-0.037555642
85	0x3bb4109a	0.005495143
86	0xbd1caa77	-0.038248505
87	0xbced974a	-0.029002804
88	0xbd252093	-0.04031427
89	0xbd0a7002	-0.033798225
90	0x3c2004ce	0.0097667705
91	0xbcb83a57	-0.022488756
92	0xbc69f423	-0.014279398
93	0xbd56a6d3	-0.05240519
94	0xbdc0ab44	-0.09407666
95	0x3c72ec58	0.014826857
96	0xbd6dc536	-0.058049403
97	0x3c052e80	0.008128762
98	0xbdb310f9	-0.08743472
99	0xbd8114c3	-0.06302788
100	0xbd511024	-0.051040784
101	0xba80ddc4	-0.0009831716
102	0xbc04dc19	-0.008109116
103	0xbd088d07	-0.03333762
104	0xbca4d683	-0.020121818
105	0x3cdd204b	0.026992938
106	0x3d3bce3d	0.04585098
107	0x3b06b530	0.0020554774
108	0x3c847931	0.01617107
109	0xbcc0f3cb	-0.02355375
110	0xbcb1a64d	-0.021685744
111	0x3ce17771	0.027522774
112	0x3bf44d1c	0.007455481
113	0xbb581a6d	-0.0032974735
114	0x3d638737	0.055548873
115	0x3c74481a	0.0149097685
116	0x3d012cca	0.031536855
117	0x3cf5e66a	0.030017097
118	0x3ccb9041	0.024849059
119	0xbd3ce7b5	-0.04611941
120	0x3d90e54e	0.070749864
121	0xbbd45575	-0.006479914
122	0x3d6e625c	0.05819927
123	0x3c846d26	0.016165327
124	0xbccaea5d	-0.024769956
125	0x3d4bcc7f	0.04975557
126	0xbd7106a3	-0.05884422
127	0x3c8e8e97	0.017401977
128	0x3bb0da94	0.0053971503
129	0xbd02c08f	-0.03192192
130	0xbbe0be62	-0.006858633
131	0x3c456e6d	0.012050253
132	0xbbe34d05	-0.0069366717
133	0xbc2b2b70	-0.010447368
134	0x3cbf757c	0.02337145
135	0x3d851518	0.06498164
136	0xbd0fdbd0	-0.03512174
137	0x3ce2e781	0.02769828
138	0x3d795cd1	0.060879532
139	0x3c6ad4cb	0.01433296
140	0x3ce5cb76	0.02805112
141	0xbcdbebb2	-0.026845787
142	0x3d3d271f	0.046179887
143	0x3c8f6c99	0.017507838
144	0xbd3ab026	-0.045578144
145	0x3c9def0a	0.019279022
146	0xbcfba2ec	-0.030717336
147	0xbd96b9a5	-0.07359628
148	0x3cafddc5	0.021468053
149	0x3dc8c8bf	0.09803914
150	0x3d3b6689	0.045752082
151	0x3c27698d	0.010218036
152	0x3d30cfa2	0.043166764
153	0xbd0a67e7	-0.033790495
154	0x3d1e1a7a	0.03859947
155	0x3cbbbc95	0.022917071
156	0x3d610d8f	0.05494457
157	0x3d12d43b	0.03584693
158	0x3c932535	0.017962078
159	0xbc7357d3	-0.014852482
160	0x3ca66cb3	0.020315504
161	0xbbbbb730	-0.0057286248
162	0xbd622694	-0.055212572
163	0xbd61c9f5	-0.05512424
164	0x3c2326b5	0.009957959
165	0xbc0c2a24	-0.008554969
166	0xbca226f0	-0.019793957
167	0x3ae5c09e	0.0017528718
168	0xbb2bf8dd	-0.0026240863
169	0xbd589d90	-0.05288464
170	0x3ca07cea	0.019590814
171	0xbceabc10	-0.028654128
172	0x3ac03020	0.001466278
173	0xbce253d0	-0.027627856
174	0x3c8b5306	0.017007362
175	0xbd41783a	-0.047233798
176	0xbd2744af	-0.040836986
177	0x3c44782a	0.01199154
178	0xbc946920	-0.018116534
179	0x3d447da4	0.047971383
180	0x3cc6c77a	0.02426504
181	0xbc961c35	-0.018323997
182	0xbda6614b	-0.08124026
183	0x3d132e6e	0.03593295
184	0x3ca5481c	0.020175986
185	0x3d0d0a70	0.034433782
186	0xbbb4bd75	-0.005515749
187	0x3d1c93de	0.038226955
188	0xbd407dc3	-0.046994936
189	0xbcccce74	-0.025000788
190	0x3ca9c15c	0.020722084
191	0xbca35080	-0.019935846
192	0x3d1c1df8	0.038114518
193	0xbc89f0e9	-0.016838508
194	0xbd433784	-0.047660366
195	0x3cf0b13a	0.029381383
196	0x3d1a3c2b	0.037655037
197	0x3b38a81f	0.002817638
198	0x3bed6d4e	0.007245696
199	0x3dbaef06	0.09127621
200	0xbc6b1497	-0.014348171
201	0x3d7c7cea	0.061642565
202	0xbc48f301	-0.012264968
203	0x3d2c4ec8	0.04206732
204	0x3d338d83	0.043836128
205	0x3c6a3811	0.014295594
206	0xbccf723f	-0.025323031
207	0x3db6eb6a	0.089316204
208	0xbc78ff85	-0.015197639
209	0xbbd8f2fc	-0.006620763
210	0xbc588259	-0.013214671
211	0x3d8010c6	0.06253199
212	0xbd058317	-0.03259572
213	0xbb3ff9f6	-0.0029293275
214	0xbc656628	-0.014001407
215	0xbbc974b7	-0.0061479467
216	0xbd1d6fb5	-0.03843661
217	0xbc979d16	-0.018507522
218	0x3d0b96b5	0.034079272
219	0x3d087411	0.033313815
220	0xbd868626	-0.065685555
221	0x3c638e0c	0.013888847
222	0x3ba6a3e2	0.0050854543
223	0xbc8c4121	-0.0171209
224	0xbc8cbc6a	-0.017179687
225	0xbcfa4a8a	-0.030553121
226	0xbdb14184	-0.08655074
227	0xbcf6986a	-0.030101974
228	0xbcab6dbf	-0.020926354
229	0xbd69b223	-0.05705465
230	0xbce55254	-0.027993359
231	0xbd04c0fb	-0.032410603
232	0x3cd4800e	0.025939967
233	0xbd788970	-0.060677946
234	0x3b322822	0.0027184566
235	0xbd8eac03	-0.069664024
236	0xbcc017bf	-0.023448823
237	0x3b8bc420	0.0042653233
238	0x3cd0fa7c	0.025510065
239	0x3d135873	0.035973024
240	0xbd6b9c9a	-0.057522394
241	0xbcd459dd	-0.025921756
242	0x3d3af48b	0.04564337
243	0xbc246b15	-0.010035296
244	0x3c8bc238	0.017060384
245	0x3cef109d	0.029182727
246	0x3c24cd69	0.010058739
247	0xbd25e1a7	-0.040498402
248	0xb9eea81b	-0.00045520146
249	0xbcb550b2	-0.022133205
250	0xbc7b2f0d	-0.015331042
251	0x3d690146	0.05688598
252	0x3bd32157	0.0064431834
253	0xbc382cde	-0.011241166
254	0xbc0342c2	-0.008011522
255	0x3bcbbc6a	0.006217529

action_layer.4.bias f4 [4]
0	0xbd57abe9	-0.05265418
1	0xbad99995	-0.0016601557
2	0x3c0a07ce	0.008424712
3	0xbd4e7cfd	-0.050412167

value_layer.0.weight f4 [256, 8]
0	0xbec7f14f	-0.3905129
1	0xbe8d458c	-0.27592123
2	0xbe9f6584	-0.31132138
3	0xbe9121a6	-0.28345984
4	0x3e5a3539	0.21309365
5	0xbe825916	-0.25458592
6	0x3ebc60b1	0.3679252
7	0xbe8b590f	-0.27216384
8	0xbde60da4	-0.112330705
9	0xbda5bc44	-0.080925494
10	0x3e584bab	0.21122615
11	0x3e97ce05	0.29649368
12	0x3d98ff87	0.07470613
13	0xbe3f4feb	-0.1868283
14	0x3ddd5188	0.108065665
15	0xbe956e4e	-0.29185718
16	0x3e52ab58	0.20573175
17	0x3e679bfc	0.22618097
18	0x3dd94987	0.10609727
19	0x3e1c10f8	0.15240848
20	0xbdd3a01b	-0.10333272
21	0x3ec1a103	0.37818155
22	0xbde4d551	-0.111734994
23	0x3d8bbddf	0.068233244
24	0x3db331ef	0.087497585
25	0x3d907111	0.07052816
26	0xbe63c7c2	-0.2224417
27	0x3eb3c7de	0.35113424
28	0xbec9ae08	-0.39390588
29	0xbd92742a	-0.07151063
30	0xbdbc0963	-0.09181478
31	0x3d0ca75e	0.0343393
32	0xbe09a1b2	-0.13440588
33	0xbe417162	-0.18890908
34	0xbdf61968	-0.120165646
35	0xbec32bb8	-0.38119292
36	0xbe8d5046	-0.27600306
37	0x3a3e8924	0.00072683604
38	0x3d04fb30	0.032466114
39	0xbd6361c8	-0.055513173
40	0x3e4b9e6b	0.1988465
41	0x3e2794e9	0.16365398
42	0xbe43151e	-0.19051024
43	0xbe39413c	-0.18091291
44	0xbd06000e	-0.032714896
45	0x3d2cea45	0.042215604
46	0x3e7b222e	0.24524757
47	0xbe4a0838	-0.19729698
48	0x3de3cb95	0.111228146
49	0x3e2a5639	0.16634454
50	0xbe7af04c	-0.24505728
51	0xbed2487d	-0.4107093
52	0x3de0f3a5	0.109839715
53	0xbe5887e3	-0.21145587
54	0x3e910c24	0.28329575
55	0xbd0ae43a	-0.03390906
56	0xbe1a921a	-0.15094796
57	0x3e2e14c7	0.17000113
58	0xbdfc1a2a	-0.12309678
59	0x3e06d3ad	0.13166685
60	0xbe9466d3	-0.289847
61	0xbdcae58b	-0.09907063
62	0x3e0c115f	0.13678502
63	0x3e35447c	0.17701906
64	0xbe0befa0	-0.13665628
65	0xbdfdf487	-0.124001555
66	0x3e70b5fd	0.23506923
67	0x3eddf748	0.43352723
68	0x3d022964	0.031777754
69	0xbb74f7af	-0.0037379076
70	0xbe2dac4b	-0.16960256
71	0xbe5440d5	-0.20727856
72	0x3e21be9d	0.1579537
73	0xbe0cdea3	-0.13756804
74	0x3e385abe	0.18003365
75	0x3e95f476	0.2928807
76	0xbddb39d3	-0.107043885
77	0xbdce03f5	-0.100593485
78	0xbeb9ac61	-0.36264327
79	0xbc5ab424	-0.013348613
80	0xbe12f7dd	-0.14352365
81	0x3e8b0d89	0.27158764
82	0x3e161c94	0.14659339
83	0x3e88bbd1	0.26705793
84	0x3e86f901	0.2636185
85	0xbd28aad3	-0.041178536
86	0xbe3b8e3b	-0.18315975
87	0xbd97194e	-0.07377873
88	0xbe8bb2ae	-0.2728476
89	0xbe1349c7	-0.14383613
90	0xbe926d46	-0.28598994
91	0x3e69eb89	0.22843756
92	0xbe2cb777	-0.16866861
93	0x3d554cf6	0.05207535
94	0x3e5c7856	0.2153028
95	0xbd6769b3	-0.056497287
96	0x3e5bfe75	0.21483786
97	0xbbb34280	-0.005470574
98	0xbd67e599	-0.056615446
99	0x3e2c956a	0.16853872
100	0x3e759159	0.23981227
101	0x3e8b5507	0.27213308
102	0xbe5c780d	-0.2153017
103	0x3d08ce3b	0.0333998
104	0xbe4ed55d	-0.20198579
105	0xbe2f5a2e	-0.17124245
106	0xbd4d7f28	-0.050170094
107	0xbeb9c356	-0.36281842
108	0x3e81b49c	0.25333107
109	0xbeaaa1e1	-0.3332663
110	0x3e37d3dd	0.17951913
111	0x3d98a478	0.07453245
112	0x3d96604d	0.07342587
113	0xbe412f80	-0.18865776
114	0xbe429257	-0.19001137
115	0xbebc5dff	-0.36790463
116	0x3e3d5343	0.18488793
117	0x3ed286d6	0.41118497
118	0x3dc33028	0.095306695
119	0x3e16c341	0.14722921
120	0x3e291cc0	0.16514874
121	0x3e384ab1	0.17997243
122	0xbe22d69b	-0.15902178
123	0x3da44373	0.080206774
124	0xbda554cc	-0.08072814
125	0x3e8686c0	0.2627468
126	0x3e4424bd	0.1915464
127	0x3c77b3f6	0.01511859
128	0xbe0265db	-0.12734167
129	0x3e82ea24	0.2556926
130	0x3e64d09a	0.223452
131	0xbe39c36a	-0.18140951
132	0x3e890a59	0.26765707
133	0xbe9378bd	-0.28803053
134	0x3e3184bd	0.17335792
135	0xbd42e02c	-0.04757707
136	0xbc4ea898	-0.012613438
137	0xbdedca6e	-0.11610876
138	0x3e80efad	0.25182858
139	0xbcd304a4	-0.025759049
140	0xbe722a04	-0.2364884
141	0xbe91d660	-0.28483868
142	0xbe333c6a	-0.17503515
143	0x3e1704e5	0.14747961
144	0x3e53f0e0	0.20697355
145	0x3df59416	0.11991136
146	0xbd5762e1	-0.052584533
147	0xbd8e551d	-0.06949828
148	0xbe1c8cba	-0.15288058
149	0xbec8961b	-0.3917702
150	0xbe36d6a4	-0.17855316
151	0x3e7fe9c3	0.24991517
152	0x3b6850a2	0.0035448452
153	0xbe8409a7	-0.25788614
154	0xbe957d7b	-0.29197297
155	0x3d894ae6	0.06703739
156	0xbe3190c0	-0.17340374
157	0xbe48d373	-0.19611911
158	0xbe318bb9	-0.17338456
159	0x3e8004ad	0.25003567
160	0x3e329102	0.17438129
161	0xbd21769e	-0.039419763
162	0x3e7af11a	0.24506035
163	0x3eb0dbdb	0.34542736
164	0x3db85442	0.09000446
165	0x3e81efc1	0.2537823
166	0xbe8116d3	-0.25212726
167	0x3e3461da	0.17615452
168	0xbea2c846	-0.31793422
169	0xbeb8b271	-0.3607364
170	0xbe92a656	-0.2864253
171	0xbdceaeb5	-0.100919165
172	0xbba6d702	-0.005091549
173	0xbe208dec	-0.15679139
174	0xbe071840	-0.13192844
175	0x3e7c07dc	0.24612373
176	0xbd30a67c	-0.043127522
177	0x3d003df9	0.0313091
178	0xbc2c47b8	-0.010515146
179	0x3db97cdd	0.09057019
180	0xbd6744e5	-0.056462187
181	0xbe942d86	-0.28940982
182	0x3cf27c18	0.029600188
183	0xbdf16bb0	-0.11788118
184	0xbe893074	-0.2679478
185	0xbe1209df	-0.14261578
186	0x3d2020f9	0.039093945
187	0xbd4e907c	-0.05043076
188	0x3e456c64	0.19279629
189	0x3d9e63f1	0.07733906
190	0xbd0de1dd	-0.034639228
191	0xbe3fff99	-0.18749847
192	0x3e97a2dc	0.2961644
193	0x3e85d955	0.26142374
194	0xbdd25df6	-0.10271828
195	0xbe024f4f	-0.12725566
196	0xbd2d5df6	-0.042325936
197	0xbe076508	-0.13222134
198	0xbdac766e	-0.08421026
199	0xbe143d7d	-0.14476581
200	0x3ed9d287	0.42543432
201	0x3e6b0b86	0.22953615
202	0x3cdcf861	0.026973905
203	0x3e5ad83f	0.21371554
204	0xbe7b446a	-0.24537817
205	0x3e7f657d	0.24941058
206	0x3d1eea66	0.03879776
207	0xbd9ca138	-0.076479375
208	0x3e92db3a	0.28682882
209	0xbe196381	-0.14979364
210	0x3d8d54ec	0.06900963
211	0xbe8fb756	-0.28069562
212	0xbe84ebe0	-0.25961208
213	0x3dfbf3f4	0.1230239
214	0x3d3659b6	0.04451915
215	0x3e1b4860	0.15164328
216	0xbe9738ae	-0.2953543
217	0x3db1dbf0	0.08684528
218	0xbe073a97	-0.13205944
219	0x3e010439	0.12599267
220	0x3e9bf55c	0.30460632
221	0x3e40c70a	0.18825927
222	0xbe34c96e	-0.17654964
223	0x3e901938	0.2814424
224	0x3c93d9b6	0.018048149
225	0x3da6446e	0.08118521
226	0x3c8292e6	0.015939187
227	0xbcee809f	-0.029114066
228	0x3e98cdeb	0.29844603
229	0x3e8bbe0c	0.27293432
230	0x3e41a8d9	0.18912067
231	0xbdd90d7a	-0.105982736
232	0x3eee98a5	0.46600834
233	0x3e61bf5c	0.22045654
234	0xbd074cd7	-0.033032265
235	0xbe1599a4	-0.1460939
236	0xbeb7d18a	-0.35902053
237	0x3ebfcce1	0.37460998
238	0xbdcdf850	-0.100571275
239	0xbc849ad0	-0.016187102
240	0xbdce3f53	-0.10070672
241	0x3e7d1558	0.24715173
242	0xbc2b99ac	-0.01047365
243	0xbece9412	-0.40347344
244	0xbd87fe48	-0.06640297
245	0x3c7cb3f4	0.015423764
246	0xbe147ad3	-0.14499979
247	0x3e0e492f	0.13895105
248	0xbe81352e	-0.25235885
249	0xbd3229b8	-0.043496817
250	0xbe4508d7	-0.19241653
251	0x3e1989a2	0.14993909
252	0xbb5d599f	-0.0033775342
253	0x3e7503bd	0.23927207
254	0xbe97f98e	-0.29682583
255	0xbcd25ca1	-0.025678935

value_layer.0.bias f4 [256]
0	0xbde28bb0	-0.110617995
1	0x3e8fca75	0.2808415
2	0x3d28eaed	0.041239668
3	0x3e78dddc	0.24303383
4	0x3c8c4394	0.017122068
5	0xbe89ae62	-0.26890856
6	0xbe97f938	-0.29682326
7	0x3e48dd85	0.19615753
8	0x3e7e9d3a	0.24864665
9	0x3d9ee3c7	0.07758289
10	0x3d5b456f	0.053533014
11	0x3e5670bc	0.20941442
12	0x3d5ee600	0.054418564
13	0xbe05682c	-0.1302802
14	0xbe597dc3	-0.2123938
15	0xbe01a3be	-0.12660119
16	0xbe96b906	-0.29438037
17	0x3e671f52	0.22570542
18	0xbd8b0278	-0.0678758
19	0x3e8cc434	0.2749344
20	0x3db5fcb5	0.08886091
21	0x3e9348b5	0.2876641
22	0xbb0c7953	-0.002143462
23	0x3e0ce3a3	0.13758712
24	0xbe92b77e	-0.28655618
25	0x3e219499	0.15779342
26	0xbd2c07ec	-0.041999742
27	0xbdfc5078	-0.12320036
28	0xbe12bffb	-0.14331047
29	0xbdccc836	-0.09999125
30	0xbebe6a5e	-0.37190527
31	0x3e548177	0.20752512
32	0xbe34a293	-0.17640142
33	0x3def301a	0.116790965
34	0xbd110dcc	-0.03541355
35	0x3e1e49b7	0.15457807
36	0xbdeac33c	-0.11463019
37	0x3e1b0d12	0.15141705
38	0xbe567d64	-0.2094627
39	0x3ea6b3ac	0.32558954
40	0xbe030488	-0.12794697
41	0xbdf9512d	-0.12173686
42	0x3ea34e36	0.31895608
43	0x3d781dd3	0.060575318
44	0xbdec0f70	-0.11526382
45	0xbe703ded	-0.23461123
46	0xbcca90b9	-0.024727212
47	0xbd309382	-0.043109424
48	0x3e0d5132	0.13800505
49	0xbe028ea3	-0.12749724
50	0xbe13afd3	-0.1442254
51	0x3e8d0053	0.2753931
52	0x3e1cccd3	0.15312509
53	0x3ddb3a7a	0.10704513
54	0x3e91ee3b	0.28502068
55	0xbe41d87f	-0.18930243
56	0xbdc8af50	-0.09799063
57	0xbe34a5c0	-0.17641354
58	0xbd0b8f9a	-0.034072496
59	0xbe9ae8ec	-0.3025583
60	0x3e289e14	0.16466552
61	0xbdfac22d	-0.12244067
62	0xbddd1312	-0.10794653
63	0x3c865a78	0.01640056
64	0x3e441927	0.1915022
65	0xbe5041e0	-0.2033763
66	0xbccf9d87	-0.02534367
67	0x3d98e86e	0.074662074
68	0x3e3c2d49	0.1837665
69	0xbd7cf2be	-0.061754934
70	0x3d1337a8	0.03594175
71	0xbdb5bbd2	-0.088737145
72	0xbe4716c4	-0.19442278
73	0x3e6fc7f9	0.23416127
74	0x3e1f25de	0.15541789
75	0xbd537b27	-0.05163112
76	0xbe0c2d83	-0.13689236
77	0x3e5e6466	0.21717986
78	0xbe305c4b	-0.17222707
79	0x3e4d3695	0.20040353
80	0xbe1abf3f	-0.15112017
81	0xbe00fdf7	-0.1259688
82	0xbe29cabd	-0.16581245
83	0x3e5de47d	0.21669193
84	0xbe5462e1	-0.20740844
85	0xbcdc8640	-0.026919484
86	0x3bdde196	0.0067712767
87	0xbd5a9d40	-0.05337262
88	0xbe5b18f9	-0.21396245
89	0xbde03cba	-0.10949083
90	0x3d8cfbe5	0.068839826
91	0x3d3c0ee6	0.045912646
92	0xbcc1ce9e	-0.023658093
93	0x3e88b2a7	0.266988
94	0x3d336e3a	0.043806292
95	0x3ddd74bb	0.1081328
96	0xbc7932c4	-0.015209857
97	0x3cd4ee6c	0.025992595
98	0x3e7e3ec1	0.24828626
99	0xbda6eb50	-0.08150351
100	0x3cdc9f3c	0.026931398
101	0x3e6f74ae	0.23384354
102	0x3d814135	0.063112654
103	0xbe0ab203	-0.13544469
104	0xbe3811ca	-0.17975536
105	0xbdf3553e	-0.11881493
106	0x3e17927a	0.1480197
107	0xbe8e1264	-0.27748406
108	0xbbd92829	-0.006627102
109	0x3e8e32d3	0.2777315
110	0x3e491c32	0.19639662
111	0x3dc11eb2	0.09429683
112	0x3eb47390	0.35244417
113	0x3dd0147c	0.10160157
114	0xbe1d6aff	-0.15372847
115	0x3e719472	0.23591784
116	0x3d865495	0.065591015
117	0x3dac780e	0.08421336
118	0xbbada6d4	-0.0052994285
119	0xbdf33978	-0.11876196
120	0x3e030fe9	0.12799038
121	0xbe359260	-0.17731619
122	0x3e2360db	0.15954916
123	0x3e34a8dc	0.1764254
124	0x3e155a74	0.14585286
125	0xbcf40a2c	-0.029790007
126	0x3c8a2397	0.016862674
127	0x3e25be4e	0.16185877
128	0xbe6fb525	-0.23408945
129	0x3c8fccaf	0.017553655
130	0x3c08b37b	0.008343573
131	0x3da7e70e	0.08198367
132	0x3df061de	0.11737417
133	0x3e486240	0.1956873
134	0x3e339143	0.17535882
135	0xbe743314	-0.2384761
136	0xbe2acb0f	-0.16679023
137	0x3e74ce54	0.23906833
138	0xbbc17885	-0.0059042596
139	0x3e77fe82	0.24218181
140	0xbd85e181	-0.06537152
141	0x3e8ffc21	0.28122047
142	0x3e0f096f	0.13968442
143	0xbe52edc5	-0.20598514
144	0x3e2b843a	0.16749659
145	0x3e2e8f98	0.17046964
146	0xbce38970	-0.027775496
147	0x3e0ac9e4	0.13553578
148	0x3e87a280	0.26491165
149	0xbe160739	-0.14651193
150	0xbdc85dcd	-0.09783516
151	0xbe6b88a9	-0.2300135
152	0x3e9e1f4a	0.30883247
153	0x3e2c85b5	0.1684788
154	0xbe9d025d	-0.30665866
155	0x3e75bd03	0.23997883
156	0xbe39c44a	-0.18141285
157	0xbe0d2ba9	-0.13786186
158	0xbe8bbfc2	-0.27294737
159	0xbd387b3f	-0.04503941
160	0x3e0d2719	0.13784446
161	0x3eab2848	0.3342917
162	0xbe9f1e16	-0.3107764
163	0xbe5209cd	-0.20511551
164	0x3d8715f8	0.06595987
165	0x3cd76255	0.026292006
166	0xbdb61460	-0.08890605
167	0xbd556b6c	-0.0521044
168	0xbe6fc9ed	-0.23416872
169	0xbe93a813	-0.28839168
170	0x3e1c9b38	0.15293586
171	0x3e2bb9c8	0.16770089
172	0xbd3eeab1	-0.046610538
173	0xbe87225e	-0.26393408
174	0x3e865970	0.2624011
175	0xbe33b752	-0.175504
176	0x3dd342c6	0.103154704
177	0x3cc64337	0.024201972
178	0xbe9b0657	-0.30278274
179	0x3e85325b	0.2601498
180	0xbe928da3	-0.28623685
181	0xbe1ec986	-0.15506563
182	0xbeb59e98	-0.3547256
183	0x3e0c1914	0.13681442
184	0xbe7d35ef	-0.24727605
185	0x3e494a52	0.19657257
186	0x3be0bb1f	0.006858244
187	0xbe5df7f0	-0.21676612
188	0x3e60cb52	0.2195256
189	0x3ead0753	0.3379465
190	0x3e250f2f	0.16119073
191	0xbd602307	-0.054720905
192	0xbde61853	-0.11235108
193	0x3b46bdde	0.0030325572
194	0x3e1a6023	0.15075736
195	0x3d3d3fc8	0.046203405
196	0xbdf98150	-0.121828675
197	0x3de188df	0.11012434
198	0x3e408331	0.18800046
199	0x3e491f4b	0.19640844
200	0xbde22464	-0.11042097
201	0xbe926a03	-0.28596506
202	0xb9b80d9c	-0.00035105355
203	0x3c9b0143	0.0189215
204	0x3e8631ca	0.2620986
205	0xbe83a7c1	-0.25713924
206	0xbe0ba175	-0.1363581
207	0x3e28aa07	0.1647111
208	0x3e825568	0.25455785
209	0x3e895381	0.2682152
210	0xbe0e9bf0	-0.13926673
211	0x3e8c2f67	0.27379915
212	0x3e7320ae	0.23742935
213	0xbb7ef771	-0.003890481
214	0xbb882677	-0.004154976
215	0x3de35ab4	0.111012846
216	0xbe753896	-0.23947367
217	0xbea0d6dc	-0.31413925
218	0xbc9028fc	-0.017597668
219	0xbd2b05a0	-0.04175341
220	0x3e85ba85	0.26118866
221	0xbe75bc2e	-0.23997566
222	0xbabc8d7d	-0.0014385429
223	0xbe31926e	-0.17341015
224	0xbe12f25a	-0.14350262
225	0x3e38dc5d	0.18052812
226	0xbe85d3ef	-0.26138255
227	0xbe7177c9	-0.2358085
228	0x3d947a30	0.07249868
229	0x3eb1a2d5	0.34694543
230	0x3e9beaf6	0.30452698
231	0xbcd9dbfc	-0.026594155
232	0xbe4b904c	-0.19879264
233	0x3c190d3b	0.009341533
234	0x3b89a434	0.0042004827
235	0xbe35da4b	-0.17759053
236	0x3e32ccc2	0.17460921
237	0x3dd8fb0b	0.10594758
238	0x3e7c23ba	0.24623004
239	0x3cb28501	0.021791937
240	0x3b625c8e	0.003454003
241	0x3b4a53f8	0.0030872803
242	0xbd3c5de5	-0.045987982
243	0xbd2ab58a	-0.041677035
244	0xbe40a78c	-0.18813914
245	0x39c50714	0.00037580042
246	0xbe90cf77	-0.28283283
247	0xbd386123	-0.04501451
248	0xbe1a90d6	-0.15094313
249	0xbde34df6	-0.11098854
250	0xbe5b0831	-0.21389844
251	0xbe51da68	-0.20493472
252	0xbde5a318	-0.11212748
253	0x3e418849	0.18899645
254	0xbe5a226e	-0.21302196
255	0x3cdc4017	0.02688603
