bpa_2/tasks_bpa2/tasks/solution/a2d.pt (torch, 73189 bytes, 6 tensors)

weight f4 [128, 4]
-0.38514867 -0.051544324 0.7667849 0.5126034 -0.32603914 -0.15948115 -0.0856557 -0.2439658
-0.30718395 -0.18341726 0.38023522 -0.30381835 -0.22926913 -0.24459048 0.26345855 0.38413036
-0.014604004 -0.34727293 0.45849872 -0.11840261 -0.06866701 -0.14225696 0.34598234 -0.07020012
0.3387942 -0.35868248 -0.37524673 -0.53572005 -0.41307867 0.5628903 0.2885165 0.5381049
0.43259254 0.16037278 0.08174252 -0.016431363 0.31642446 0.12871005 0.24798194 -0.027006023
-0.35040128 0.20768304 0.61862504 0.50870335 0.058919966 -0.46947068 -0.45634347 -0.61875963
0.08631019 0.24841909 0.37220567 0.3278262 0.05439679 0.25884175 -0.032298997 0.5198738
0.08908862 -0.3159772 -0.037117586 -0.027600886 0.20302035 0.41147515 0.14944914 -0.4079767
-0.061885767 0.094512485 -0.20415813 -0.1406334 -0.20806852 -0.04497743 -0.2862937 0.034485642
0.030030636 0.06437281 -0.03071854 -0.5501434 -0.19914387 0.21668567 -0.071237125 0.36928734
-0.22428183 -0.05614135 0.09427271 0.19982049 -0.4804858 -0.050136324 0.06652121 -0.34958294
-0.3169368 -0.10003006 0.15928206 -0.17760965 0.14345045 -0.46519452 -0.5242005 0.03872556
0.37797812 -0.049984116 -0.44415128 -0.26370102 0.42896008 0.18853486 -0.1456543 0.35740972
-0.40027782 0.19901788 0.33429858 -0.4158327 0.004447343 -0.04305489 0.6871276 0.19813347
-0.113927536 -0.42119998 -0.16582271 0.39873412 -0.18300635 0.19475166 0.08466763 -0.057442352
0.23982494 0.40527022 0.5757312 0.065642096 -0.444519 -0.41639298 0.06436179 -0.13510546
-0.45810091 0.08511421 -0.314987 0.26190928 0.37949154 -0.2854794 0.053462878 -0.24513471
0.02111539 -0.20869818 -0.15768823 -0.3101246 -0.3788651 0.33459124 0.37426293 -0.27175084
-0.39731583 0.36491764 0.015694913 0.18638696 -0.022542572 0.34807888 -0.19749275 -0.47188485
0.4847874 0.20044616 -0.2782975 -0.03984088 0.3928674 -0.35340875 0.5312019 0.19512478
0.1476094 0.08035992 0.38242084 -0.06429561 0.14361005 -0.15135077 0.43020892 0.34244284
-0.2506523 0.22431079 -0.03522684 -0.25338653 0.13557196 -0.019626083 0.0076756864 0.08495962
0.37284902 0.28774798 0.15531929 0.0460993 -0.06446213 0.20245974 -0.47166535 -0.63032943
0.4201634 -0.27591616 0.22480355 -0.52033615 -0.287377 -0.13046525 0.26919782 -0.29514876
-0.37697914 -0.024632411 -0.46001965 -0.18874533 0.16630086 0.17182592 -0.7024936 -0.5370277
-0.13692607 0.07439893 0.3907513 -0.3261618 0.26134777 -0.47209388 -0.013851377 -0.110815115
0.028653596 -0.07781655 0.37309286 -0.3614376 -0.2680432 0.37132877 -0.3672617 -0.34330466
-0.030293984 -0.30993313 0.38144997 0.014634854 -0.43476424 -0.36269057 -0.091723755 -0.5451162
-0.18547949 0.08594204 -0.3245585 0.4105514 -0.02528548 -0.4051312 -0.117751285 0.054494783
0.4753797 -0.26034012 -0.43192816 0.4169462 -0.20941281 0.15945877 -0.37958762 0.36538684
-0.05077258 -0.26650092 0.369105 0.119893886 -0.1238943 0.26060402 0.2215171 -0.33112302
-0.07072456 -0.43797895 0.289374 -0.108337104 -0.28451502 -0.17351536 0.120167255 -0.44214213
00000000: 3532 c5be 2420 53bd 044c 443f fa39 033f
00000010: 9aee a6be 074f 23be 416c afbd 2cd2 79be
00000020: 3747 9dbe bcd1 3bbe 31ae c23e 148e 9bbe
00000030: 87c5 6abe ed75 7abe 0ae4 863e bcac c43e
00000040: a245 6fbc c2cd b1be 58c0 ea3e 117d f2bd
00000050: 4aa1 8cbd cfab 11be 9924 b13e 15c5 8fbd
00000060: 6f76 ad3e 3ba5 b7be 5720 c0be f324 09bf
00000070: 0c7f d3be 9419 103f 6fb8 933e 3ec1 093f
00000080: c57c dd3e c338 243e 9f68 a73d 119b 86bc
00000090: 6302 a23e 91cc 033e faee 7d3e bc3b ddbc
000000a0: cc67 b3be ddaa 543e 365e 1e3f 623a 023f
000000b0: 1056 713d 765e f0be daa5 e9be 0867 1ebf
000000c0: 66c3 b03d 9361 7e3e be91 be3e d6d8 a73e
000000d0: 2bcf 5e3d e886 843e f44b 04bd 7316 053f
000000e0: 1874 b63d c3c7 a1be 9c08 18bd 411b e2bc
000000f0: 91e4 4f3e dfac d23e 3209 193e 52e2 d0be
00000100: ee7b 7dbd c38f c13d d40e 51be 3402 10be
00000110: ea0f 55be 413a 38bd 1695 92be d140 0d3d
00000120: cf02 f63c e4d5 833d 73a5 fbbc 33d6 0cbf
00000130: 5fec 4bbe d9e2 5d3e c5e4 91bd 3b13 bd3e
00000140: 23aa 65be 79f4 65bd 0d12 c13d be9d 4c3e
00000150: 3c02 f6be bf5b 4dbd 463c 883d 89fc b2be
00000160: 8a45 a2be 8fdc ccbd d61a 233e 4edf 35be
00000170: ade4 123e fa2d eebe 0132 06bf b19e 1e3d
00000180: 5986 c13e 25bc 4cbd cc67 e3be d203 87be
00000190: a8a0 db3e 480f 413e 6726 15be 68fe b63e
000001a0: 37f1 ccbe 58cb 4b3e 2f29 ab3e 06e8 d4be
000001b0: 04bb 913b 535a 30bd 98e7 2f3f 80e3 4a3e
000001c0: d752 e9bd 86a7 d7be 6ecd 29be e126 cc3e
000001d0: 0466 3bbe fb6c 473e 3966 ad3d ac48 6bbd
000001e0: ab94 753e 947f cf3e 1f63 133f 5d6f 863d
000001f0: ff97 e3be 7631 d5be 1dd0 833d 1659 0abe
00000200: 348c eabe 5c50 ae3d fa45 a1be f918 863e
00000210: b74c c23e 5b2a 92be e4fb 5a3d 9804 7bbe
00000220: 2ffa ac3c fab4 55be 0679 21be a7c8 9ebe
00000230: 9bfa c1be 8b4f ab3e 649f bf3e ed22 8bbe
00000240: fb6c cbbe 7cd6 ba3e 9e92 803c 39dc 3e3e
00000250: 33ab b8bc 6537 b23e 8a3b 4abe e49a f1be
00000260: 0e36 f83e c241 4d3e 037d 8ebe 3130 23bd
00000270: ea25 c93e fef1 b4be d9fc 073f cace 473e
00000280: eb26 173e be93 a43d aacc c33e 6bad 83bd
00000290: 830e 133e b2fb 1abe 5844 dc3e ab54 af3e
000002a0: 8055 80be bab1 653e 054a 10bd e1bb 81be
000002b0: 60d3 0a3e e1c6 a0bc 5384 fb3b 4fff ad3d
000002c0: 11e6 be3e b453 933e 050c 1f3e 9fd2 3c3d
000002d0: b904 84bd 9b51 4f3e 1f7e f1be 455d 21bf
000002e0: a81f d73e e244 8dbe e732 663e c034 05bf
000002f0: 1423 93be af98 05be 4cd4 893e bd1d 97be
00000300: 6903 c1be e9c9 c9bc b287 ebbe 7546 41be
00000310: c64a 2a3e 22f3 2f3e 9fd6 33bf a67a 09bf
00000320: 5936 0cbe 775e 983d 8e10 c83e aefe a6be
00000330: 60cf 853e 4ab6 f1be e3f0 62bc 09f3 e2bd
00000340: f2ba ea3c 495e 9fbd 0706 bf3e 590e b9be
00000350: f53c 89be ce1e be3e ba09 bcbe a1c5 afbe
00000360: 172b f8bc 8eaf 9ebe 694d c33e 07c7 6f3c
00000370: 6b99 debe 94b2 b9be aad9 bbbd bc8c 0bbf
00000380: 56ee 3dbe 6102 b03d 882c a6be cb33 d23e
00000390: 7f23 cfbc 5b6d cfbe 9627 f1bd ec35 5f3d
000003a0: f864 f33e 4d4b 85be b025 ddbe f979 d53e
000003b0: 5070 56be 2949 233e 4f59 c2be fc13 bb3e
000003c0: e9f6 4fbd cf72 88be 55fb bc3e ed8a f53d
000003d0: 4bbc fdbd e46d 853e 61d5 623e f588 a9be
000003e0: 0ad8 90bd c73e e0be d428 943e d8df ddbd
000003f0: f4ab 91be 03ae 31be 401a f63d 7460 e2be

bias f4 [128]
0.27757937 -0.20873709 -0.35750246 0.4080787 -0.46495262 -0.07994091 0.19377625 0.30801517
-0.23924692 0.037460234 0.081069745 0.20006406 0.21393912 0.097506166 -0.292118 -0.4991612
-0.39576173 0.31917676 0.4566837 0.30586076 -0.301967 0.43656448 -0.038630996 -0.047151636
0.40936163 0.27115497 -0.37920535 0.48807868 -0.4628067 0.07331102 0.09323463 -0.22632256
0.36823785 -0.20584272 0.12917417 0.028528547 -0.2594015 0.04698285 -0.24649899 -0.16528074
0.09206472 -0.1507202 -0.39362812 -0.12616912 -0.2815741 0.38419142 6.948147e-05 -0.5046265
-0.45566517 0.2129672 -0.38167074 -0.25765088 -0.46352345 0.43612292 -0.22825696 0.12438672
-0.3900437 -0.28936017 -0.4330958 -0.21438774 0.044532068 0.018081566 -0.41036037 0.32121804
-0.42090678 0.42657524 0.28710923 0.48430702 0.12881683 -0.3344349 0.44253606 0.26232848
-0.3999164 -0.42038608 0.35643834 -0.17681316 0.40572393 -0.12302466 -0.40860835 -0.26702034
0.24208714 0.38133913 0.2235376 -0.21571586 0.07461223 0.0038572124 0.06495058 0.33091086
-0.1624453 0.27878925 -0.15259038 0.43605718 -0.30201438 -0.102971256 -0.16221316 -0.20003462
0.4060002 -0.11835491 0.276957 0.45889366 0.4714762 0.017910624 0.1336439 0.0110923685
0.32063076 -0.1522912 0.14169678 0.21413904 -0.12601455 0.33118144 0.26236486 -0.37118605
0.54295146 0.19638531 -0.24016784 -0.03881679 0.42326474 0.34212035 -0.022747712 0.4062116
0.24881434 0.14212716 -0.34850243 0.3048581 -0.115309425 0.08274436 0.24579465 0.33449286
00000000: e21e 8e3e 2dbf 55be 900a b7be b1ef d03e
00000010: 450e eebe 0fb8 a3bd 486d 463e 2ab4 9d3e
00000020: 25fd 74be e76f 193d e507 a63d 98dd 4c3e
00000030: db12 5b3e 50b1 c73d 7e90 95be 0f92 ffbe
00000040: 48a1 cabe 236b a33e 72d2 e93e c899 9c3e
00000050: 6b9b 9abe 6185 df3e 893b 1ebd 1322 41bd
00000060: d997 d13e d3d4 8a3e 3427 c2be 73e5 f93e
00000070: 00f5 ecbe 1724 963d ccf1 be3d 1ac1 67be
00000080: ac89 bc3e 6fc8 52be 3c46 043e b3b4 e93c
00000090: 46d0 84be 1771 403d 3b6a 7cbe 5b3f 29be
000000a0: 6e8c bc3d 6556 1abe a089 c9be 7a32 01be
000000b0: 7b2a 90be bdb4 c43e 95b6 9138 342f 01bf
000000c0: f24c e9be 1314 5a3e 596a c3be d1ea 83be
000000d0: f252 edbe 814b df3e 31bc 69be 77be fe3d
000000e0: cfb3 c7be 0427 94be bcbe ddbe 7688 5bbe
000000f0: 4267 363d cb1f 943c c11a d2be b176 a43e
00000100: 1881 d7be 1268 da3e fbff 923e 17f7 f73e
00000110: 8fe8 033e 0d3b abbe 1694 e23e eb4f 863e
00000120: d8c1 ccbe d83c d7be 167f b63e 820e 35be
00000130: 0cbb cf3e 5af4 fbbd 1d35 d1be e4b6 88be
00000140: b1e5 773e e23e c33e 0ae7 643e 9ee4 5cbe
00000150: 4cce 983d 49c9 7c3b cf04 853d 266d a93e
00000160: 1058 26be 77bd 8e3e a740 1cbe e342 df3e
00000170: a1a1 9abe 98e2 d2bd 351b 26be e0d5 4cbe
00000180: 42df cf3e 0f64 f2bd 4fcd 8d3e 1cf4 ea3e
00000190: 5465 f13e 4db9 923c f2d9 083e c4bc 353c
000001a0: b729 a43e 39f2 1bbe f618 113e 4447 5b3e
000001b0: f509 01be 9d90 a93e b054 863e 190c bebe
000001c0: defe 0a3f 3b19 493e 8fee 75be 5bfe 1ebd
000001d0: 28b6 d83e 662a af3e 6959 babc f8fa cf3e
000001e0: 30c9 7e3e c889 113e e96e b2be 5c16 9c3e
000001f0: 5927 ecbd e075 a93d 98b1 7b3e a642 ab3e

weight f4 [128, 128]
-0.069399215 -0.07176636 0.022941068 0.023430616 -0.04654972 0.063154414 0.0677504 0.09917963
-0.032397233 0.028371628 -0.062422995 -0.08295398 0.05945527 0.020560864 0.020364305 0.06070662
-0.010268278 0.051083166 -0.004149 0.10640097 -0.08226662 -0.010175929 0.03649776 0.036169272
0.08584838 0.06609316 0.056325167 0.12171217 -0.040176194 0.08686963 0.085972235 0.0029393018
-0.010477393 -0.018493298 -0.030186571 -0.0016321387 -0.085654125 0.11528803 0.120084785 0.17315914
0.012523999 -0.010933157 -0.091431275 -0.007932667 0.086469844 -0.023709439 0.0601402 -0.057842165
-0.061610695 -0.006011645 -0.063053995 0.09561019 -0.03897103 0.104649685 0.021400318 -0.09561423
-0.044188235 0.014544882 0.10567765 -0.05194067 0.041359868 -0.024629084 -0.14078744 -0.054998316
0.050840646 0.011550523 0.14484082 -0.03948311 -0.08985463 -0.005373176 0.050611507 0.06656436
0.13790245 -0.00756017 0.019670285 -0.09065538 -0.009173317 -0.065671705 -0.07300421 0.04947855
0.061170913 0.075736195 0.15128945 -0.07061492 0.086842015 -0.12651536 -0.07096 0.047533527
0.010552395 -0.085494004 0.14681011 0.07624024 -0.011273865 0.1554332 0.0041374112 0.013986868
0.06449143 0.09358597 -0.09653168 0.039934374 0.02327986 -0.029524645 0.003741338 0.11688037
0.08331155 0.0912571 -0.008422222 0.04629532 -0.030444691 0.033219572 -0.019128613 -0.04463591
-0.08678144 0.11959481 0.103951275 -0.054689392 -0.06641185 -0.009666433 -0.10984132 -0.07184656
0.15467599 -0.046193935 -0.027321262 0.03742354 -0.030888498 0.05940529 0.03744877 0.1484012
0.040072627 0.035253696 0.047300093 -0.0008068221 -0.08098822 -0.036369245 -0.018351588 -0.036147375
0.080376096 0.04485173 0.053607546 -0.016690157 0.10516356 0.09416072 0.005258 0.04288244
0.0618283 0.015911845 -0.04057498 0.023533933 -0.004133209 0.0037770786 -0.049593754 -0.06720772
0.027911995 -0.03654518 0.02743087 -0.024678571 -0.051072646 0.056623165 -0.017092748 -0.07617882
-0.014103487 0.0838514 -0.0521469 -0.000977007 0.075562805 0.055172544 0.058733936 0.12319149
0.09860471 0.041003883 -0.07071462 0.10357999 0.032603838 -0.120438956 -0.043646667 0.04868669
0.0039136945 0.008608711 0.016550299 0.036730103 0.08006037 -0.029700201 -0.05086118 0.03783243
0.061888967 -0.06511311 0.13712944 0.07099562 0.0022804434 -0.05987669 -0.10033364 0.015487973
0.04017089 0.034448083 0.034174975 -0.07719085 -0.042741954 -0.073520094 -0.053875186 0.1390206
0.05265161 0.108670205 0.0002590245 0.016926518 0.09031074 -0.0073971646 0.1229627 -0.036876395
0.07004399 -0.0384533 0.028189244 0.086358085 0.12605576 -0.12957339 0.037390724 -0.032300867
-0.07857787 -0.066796616 0.13473353 -0.006495702 0.023014583 0.037460066 0.063927956 0.0868138
0.03269553 0.10423606 -0.10924904 -0.049304727 -0.032561418 -0.050288346 0.026746476 0.10203915
0.032257043 -0.019143526 0.020842321 0.023906993 0.059175707 0.018558033 0.028650912 0.008556166
-0.009207041 -0.0007339904 0.07932199 0.03452901 0.03871604 0.058011137 -0.042474303 -0.05308017
0.06406105 -0.015736861 0.028194375 0.10828295 0.006369138 0.029297577 0.09341337 0.034925114
00000000: 2d21 8ebd 3efa 92bd e8ee bb3c 90f1 bf3c
00000010: ebaa 3ebd 1a57 813d b9c0 8a3d b11e cb3d
00000020: f6b2 04bd 9e6b e83c 41af 7fbd c7e3 a9bd
00000030: 5f87 733d 426f a83c 0bd3 a63c 81a7 783d
00000040: 483c 28bc 953c 513d 56f4 87bb c0e8 d93d
00000050: 677b a8bd f1b8 26bc ad7e 153d 3b26 143d
00000060: 47d1 af3d da5b 873d 38b5 663d 3b44 f93d
00000070: cb8f 24bd b4e8 b13d 3612 b03d 4da1 403b
00000080: 5fa9 2bbc 427f 97bc d449 f7bc 7ded d5ba
00000090: 6e6b afbd 211c ec3d 03ef f53d a150 313e
000000a0: 7631 4d3c fc20 33bc 5240 bbbd 04f8 01bc
000000b0: 1a17 b13d 4c3a c2bc 9255 763d e8eb 6cbd
000000c0: 7f5b 7cbd 55fd c4bb 7422 81bd 46cf c33d
000000d0: 16a0 1fbd 9352 d63d b84f af3c 65d1 c3bd
000000e0: b9fe 34bd a84d 6e3c 866d d83d bdbf 54bd
000000f0: f768 293d efc2 c9bc 952a 10be ea45 61bd
00000100: 483e 503d 683e 3d3c 2751 143e 0bb9 21bd
00000110: b405 b8bd 7811 b0bb 034e 4f3d e552 883d
00000120: 4d36 0d3e 4dbb f7bb 9423 a13c 87a9 b9bd
00000130: ae4b 16bc e37e 86bd 3b83 95bd 05aa 4a3d
00000140: 5a8e 7a3d 941b 9b3d 9feb 1a3e 8e9e 90bd
00000150: 3ada b13d 3e8d 01be 7a53 91bd 84b2 423d
00000160: f4e3 2c3c 7b17 afbd 6455 163e d823 9c3d
00000170: 04b6 38bc e129 1f3e 1f93 873b 2d29 653c
00000180: 1514 843d 00aa bf3d 67b2 c5bd 3a92 233d
00000190: 68b5 be3c abdd f1bc 3c31 753b fa5e ef3d
000001a0: 3f9f aa3d 01e5 ba3d 5cfd 09bc 29a0 3d3d
000001b0: 2567 f9bc 3f11 083d 9cb3 9cbc 25d4 36bd
000001c0: 78ba b1bd 20ee f43d 68e4 d43d fc01 60bd
000001d0: f002 88bd f55f 1ebc 7cf4 e0bd 4a24 93bd
000001e0: 6263 1e3e da35 3dbd d7d0 dfbc 6d49 193d
000001f0: e009 fdbc f652 733d e263 193d 7cf6 173e
00000200: 3223 243d 2e66 103d bebd 413d ea80 53ba
00000210: 27dd a5bd ebf7 14bd 1256 96bc 450f 14bd
00000220: 399c a43d 73b6 373d 9693 5b3d ccb9 88bc
00000230: fe5f d73d 56d7 c03d 4d4b ac3b 7fa5 2f3d
00000240: ac3f 7d3d 8f59 823c f331 26bd 3cca c03c
00000250: df6f 87bb dd88 773b d222 4bbd 33a4 89bd
00000260: b2a7 e43c 66b0 15bd b4b6 e03c b72a cabc
00000270: 8d31 51bd b1ed 673d 1706 8cbc a403 9cbd
00000280: 5012 67bc 48ba ab3d fd97 55bd ea0e 80ba
00000290: acc0 9a3d 9bfc 613d ff92 703d d24b fc3d
000002a0: 44f1 c93d b0f3 273d d4d2 90bd bf21 d43d
000002b0: 9a8b 053d b3a8 f6bd d9c6 32bd b26b 473d
000002c0: 733e 803b 8d0b 0d3c 7e94 873c 4e72 163d
000002d0: b1f6 a33d d64d f3bc d053 50bd 2ef6 1a3d
000002e0: 497f 7d3d 065a 85bd a96b 0c3e 2766 913d
000002f0: 7e73 153b 4341 75bd b97b cdbd 44c1 7d3c
00000300: 3b8a 243d 6f19 0d3d 0ffb 0b3d 3d16 9ebd
00000310: 3012 2fbd b491 96bd 3aac 5cbd 6b5b 0e3e
00000320: 37a9 573d 7c8e de3d aecd 8739 7ba9 8a3c
00000330: d6f4 b83d ea63 f2bb ded3 fb3d b40b 17bd
00000340: 3973 8f3d 3581 1dbd 21ed e63c 82dc b03d
00000350: c314 013e e3ae 04be 0427 193d ea4d 04bd
00000360: 6fed a0bd aacc 88bd 96f7 093e e6d9 d4bb
00000370: 1489 bc3c ba6f 193d a9ec 823d 6fcb b13d
00000380: c0eb 053d b779 d53d f6bd dfbd c1f3 49bd
00000390: 1f5f 05bd 27fb 4dbd 6d1b db3c e7f9 d03d
000003a0: f61f 043d e2d2 9cbc 84bd aa3c 99d8 c33c
000003b0: 3a62 723d 0407 983c 51b5 ea3c 292f 0c3c
000003c0: 21d9 16bc 4369 40ba 9173 a23d 4b6e 0d3d
000003d0: b694 1e3d 169d 6d3d 89f9 2dbd 986a 59bd
000003e0: 7132 833d 97ea 80bc e4f7 e63c 74c3 dd3d
000003f0: 34b4 d03b 7901 f03c 824f bf3d a30d 0f3d

bias f4 [128]
-0.020756437 -0.0634546 -0.10098989 -0.066119 -0.073417865 0.05132604 -0.043716684 0.0413095
-0.09106537 -0.026035167 0.09468631 -0.023901192 0.0030362336 0.04549049 0.045751482 0.0069279787
-0.026748298 -0.037850816 0.104675464 -0.038946066 0.041488633 0.06067253 -0.015193749 -0.095020905
0.07882894 0.065744855 0.019646209 0.051746733 -0.06498235 -0.08468048 0.07656858 0.034150552
-0.101845875 0.03148791 -0.08517173 0.0206366 -0.022902392 0.039926138 0.014814897 0.061684098
-0.023482664 -0.07899363 0.010991591 0.054958187 -0.07420619 -0.038092148 0.029986644 -0.059825704
0.11550578 0.015615409 -0.07013038 -0.08758788 -0.015008359 -0.062169954 -0.067467906 0.010482521
0.05624844 -0.055188015 0.05972433 0.005090897 -0.0346176 0.015180327 -0.02362864 0.09579159
-0.028063115 -0.06458749 0.060461953 -0.015599917 0.06438718 -0.07172033 -0.01213306 0.0032121367
0.05384871 -0.030654402 -0.08602956 0.10590453 -0.05527064 0.018612111 0.04089403 -0.10850386
-0.083761096 -0.005638983 -0.059696667 0.041457847 -0.043523096 -0.012495565 0.05648996 0.025536012
0.045013756 -0.018689526 -0.044292983 -0.045648597 0.03941982 -0.0033535203 0.06705282 0.0833721
-0.09990834 0.07081841 -0.070674635 -0.061989088 -0.047555182 -0.09079417 0.04527927 -0.006606757
0.031649027 -0.045694143 -0.07677272 0.063252784 -0.071059674 0.062047914 -0.10374869 0.022857418
-0.09017284 -0.052388184 -0.055855185 0.10416132 -0.01814706 0.019742753 0.062572405 0.04093747
0.054595847 -0.07644381 -0.051491123 -0.02658096 0.098257095 -0.037500326 -0.0752634 -0.017625565
00000000: 6709 aabc 7cf4 81bd cad3 cebd 6669 87bd
00000010: 1b5c 96bd 413b 523d 4410 33bd 2634 293d
00000020: 7b80 babd b447 d5bc e5ea c13d 6fcc c3bc
00000030: 8cfb 463b 3c54 3a3d e865 3b3d 1904 e33b
00000040: 3f1f dbbc 7509 1bbd 1760 d63d e985 1fbd
00000050: fcef 293d c283 783d 34ef 78bc 529a c2bd
00000060: 1171 a13d 3da5 863d 16f1 a03c 62f4 533d
00000070: 7715 85bd f66c adbd fdcf 9c3d 73e1 0b3d
00000080: 9294 d0bd 77f9 003d 846e aebd 160e a93c
00000090: cc9d bbbc 9789 233d 2fba 723c 77a8 7c3d
000000a0: b75e c0bc 6ac7 a1bd 1316 343c d61b 613d
000000b0: 6af9 97bd 8306 1cbd 8da6 f53c cc0b 75bd
000000c0: 4b8e ec3d c6d7 7f3c 84a0 8fbd 4661 b3bd
000000d0: 9fe5 75bc eca5 7ebd 9d2c 8abd e1be 2b3c
000000e0: c464 663d d40c 62bd 80a1 743d 8ad1 a63b
000000f0: 2fcb 0dbd e8b6 783c da90 c1bc 622e c43d
00000100: 9ee4 e5bc 7246 84bd f4a6 773d cb96 7fbc
00000110: 6ddd 833d 1ce2 92bd bec9 46bc b682 523b
00000120: 7790 5c3d f11e fbbc 4430 b0bd 79e4 d83d
00000130: 7763 62bd 6d78 983c 8080 273d 4637 debd
00000140: f08a abbd 38c7 b8bb 7e84 74bd b4cf 293d
00000150: 4645 32bd 33ba 4cbc 0462 673d e630 d13c
00000160: 5860 383d c71a 99bc 8f6c 35bd 06fa 3abd
00000170: ad76 213d bcc6 5bbb fd52 893d febe aa3d
00000180: be9c ccbd 3e09 913d ddbd 90bd 45e8 7dbd
00000190: 39c9 42bd 4bf2 b9bd c176 393d 7f7d d8bb
000001a0: 69a2 013d c829 3bbd 043b 9dbd ad8a 813d
000001b0: bc87 91bd f425 7e3d 317a d4bd 7b3f bb3c
000001c0: 8aac b8bd fe94 56bd 68c8 64bd 8852 d53d
000001d0: 25a9 94bc 8ebb a13c f625 803d 0cae 273d
000001e0: e59f 5f3d 928e 9cbd 5be8 52bd 50c0 d9bc
000001f0: 043b c93d f199 19bd b323 9abd 7d63 90bc

weight f4 [2, 128]
-0.09451943 -0.07766842 0.03725718 0.023716927 0.047965936 -0.052308854 0.057462845 -0.0757916
-0.02666716 -0.0720585 0.17936772 0.060095668 -0.021368984 0.026847841 -0.11881694 -0.0028992097
0.040868137 -0.08622787 -0.08579786 -0.017325846 -0.056900587 -0.11060228 -0.024711354 0.02098431
-0.08533932 -0.08228019 -0.06681589 -0.14181758 0.06750139 0.032133956 0.054112837 -0.1545878
0.080749825 -0.06267049 0.06697178 -0.0031182927 -0.016690552 -0.04758015 0.1238882 -0.13026698
-0.14610969 0.029949987 -0.019778293 0.012354701 0.049278438 -0.10155579 0.028013624 0.04802498
0.14521211 0.048624244 0.045663066 0.04773198 -0.00041922787 -0.121023506 -0.07987078 -0.056305837
-0.06526142 -0.1321689 0.049875118 0.06997377 0.052559398 -0.07711292 0.065454446 -0.098018005
0.06279994 0.022416767 0.08232423 0.12103491 -0.078208804 -0.06341514 0.024776757 0.1196184
0.031136446 -0.05386075 0.0061060293 0.124416545 -0.04847643 -0.043791216 0.09546576 -0.0049696327
0.036958177 -0.05289525 0.06275299 0.0030790702 0.039026115 -0.10939435 0.069818966 0.17633706
-0.05646056 0.027217891 0.017935583 -0.061420478 0.017108154 0.03949284 0.05389051 -0.14394028
0.07437269 -0.037205625 -0.0064315796 -0.099438 0.086891726 0.049525555 -0.0812914 0.04648185
-0.062998086 -0.06477511 -0.082548805 0.037546813 -0.09459643 -0.07078931 -0.0658284 0.17850159
0.06300361 -0.045024235 -0.043959796 0.11696961 0.081783235 -0.064208254 -0.1062065 0.017968595
-0.15039703 -0.028339492 0.08373455 0.128561 -0.16081218 0.03764927 0.075166926 -0.0315174
0.033580914 -0.008355537 0.027911343 -0.019429628 -0.061484538 0.12460123 -0.050661728 -0.08066955
0.059619647 -0.0043518995 -0.11518323 0.0058033788 0.11149843 -0.11172662 0.08273806 0.0012111992
0.0529239 0.12719116 0.14436999 -0.07469587 0.03367364 0.095110565 -0.0392391 0.018753186
0.13653621 0.04824685 -0.06111913 0.0818112 0.05804325 0.029956017 -0.13723469 0.029764837
0.065901965 0.08391505 -0.06687937 0.14472806 -0.020245709 0.14594597 -0.1121591 0.019558366
0.12845705 -0.030206881 -0.0014908772 -0.0006091892 0.017967224 0.1233861 -0.038453486 0.007164718
-0.17925425 0.042702306 -0.05486051 -0.01001887 0.0034957428 0.039429642 0.067258984 0.0063866097
0.13214529 0.079498254 0.05680922 0.04001727 0.024285067 0.12084792 0.051416762 0.15755524
-0.06698961 0.0053315205 -0.12980783 -0.15638137 0.034176532 0.06885829 -0.027191916 -0.13438144
-0.04380651 -0.044782013 0.008574654 -0.08187454 0.058645897 0.05937608 -0.10260729 0.069588006
0.050667744 0.113013916 0.072641365 0.13443531 -0.057994045 0.07392715 -0.15928638 -0.17614412
-0.07392564 -0.037482157 -0.026103582 -0.0512107 -0.0104136765 -0.056201667 -0.045774143 0.040986888
0.08441311 0.06472005 0.049497046 0.06166493 -0.008407854 -0.01938562 0.15773088 0.0002391508
-0.046655748 0.120762676 -0.0094609875 0.011813461 0.010095723 0.10565152 0.0025034763 -0.09914312
0.022306332 0.047469247 0.075989276 0.00971274 0.009171085 -0.0031331093 0.16222702 -0.052928533
0.0035432563 0.052183315 -0.1345652 -0.15798253 0.15528521 -0.0072330576 -0.074188516 -0.037112705
00000000: 6793 c1bd 9f10 9fbd fc9a 183d 004a c23c
00000010: ee77 443d cf41 56bd 295e 6b3d a038 9bbd
00000020: 1775 dabc 6893 93bd 2cac 373e e026 763d
00000030: 020e afbc 01f0 db3c 4c56 f3bd ab00 3ebb
00000040: 5965 273d 3d98 b0bd cab6 afbd efee 8dbc
00000050: 9710 69bd 7383 e2bd 776f cabc 4ae7 ab3c
00000060: 62c6 aebd 8482 a8bd c5d6 88bd a138 11be
00000070: 2b3e 8a3d e59e 033d 6ca5 5d3d 444c 1ebe
00000080: 2a60 a53d 6359 80bd 8028 893d 455c 4cbb
00000090: a0ba 88bc 67e3 42bd 19b9 fd3d b564 05be
000000a0: c79d 15be ad59 f53c 1606 a2bc 5f6b 4a3c
000000b0: 30d8 493d 7bfc cfbd d47c e53c d7b5 443d
000000c0: 7cb2 143e 372a 473d 3209 3b3d 9c82 433d
000000d0: d0cb dbb9 2cdb f7bd 4b93 a3bd f3a0 66bd
000000e0: c8a7 85bd 4957 07be da49 4c3d 684e 8f3d
000000f0: 8648 573d 61ed 9dbd fb0c 863d aabd c8bd
00000100: 419d 803d 5ea3 b73c 9b99 a83d 27e1 f73d
00000110: f02b a0bd ccdf 81bd a0f8 ca3c 7efa f43d
00000120: dc11 ff3c 179d 5cbd 1615 c83b 1ace fe3d
00000130: 398f 46bd 6b5e 33bd 8d83 c33d 4dd8 a2bb
00000140: 7561 173d b1a8 58bd a484 803d 3aca 493b
00000150: d9d9 1f3d 250a e0bd 3ffd 8e3d b491 343e
00000160: 3043 67bd 0ef8 de3c a5ed 923c 0a94 7bbd
00000170: 6626 8c3c 3fc3 213d 4cbc 5c3d 1565 13be
00000180: b550 983d ed64 18bd 00c0 d2bb 26a6 cbbd
00000190: 4af4 b13d 4fdb 4a3d 1b7c a6bd c163 3e3d
000001a0: 2405 81bd d0a8 84bd 590f a9bd b0ca 193d
000001b0: c6bb c1bd fcf9 90bd 0ad1 86bd 1fc9 363e
000001c0: 0908 813d 556b 38bd 300f 34bd c38d ef3d
000001d0: f87d a73d 9e7f 83bd cb82 d9bd e032 933c
000001e0: ae01 1abe 3928 e8bc 057d ab3d 7fa5 033e
000001f0: f3ab 24be 1f36 1a3d 1ef1 993d 6418 01bd
00000200: 248c 093d aae5 08bc 54a6 e43c e22a 9fbc
00000210: 36d7 7bbd ee2e ff3d ac82 4fbd 1436 a5bd
00000220: bb33 743d 619a 8ebb 2fe5 ebbd 452a be3b
00000230: 4a59 e43d edd0 e4bd 9272 a93d 1ac1 9e3a
00000240: bbc6 583d 663e 023e bad5 133e 26fa 98bd
00000250: 5fed 093d 54c9 c23d 2eb9 20bd 48a0 993c
00000260: 26d0 0b3e 7d9e 453d 0e58 7abd a18c a73d
00000270: c2be 6d3d 5266 f53c 4087 0cbe 63d5 f33c
00000280: 9cf7 863d a7db ab3d 0df8 88bd 9833 143e
00000290: 54da a5bc dc72 153e acb3 e5bd de38 a03c
000002a0: 3f8a 033e 6c74 f7bc 8a69 c3ba ffb1 1fba
000002b0: 0030 933c dab1 fc3d 6781 1dbd 03c6 ea3b
000002c0: 6d8e 37be 9de8 2e3d 6ab5 60bd 3026 24bc
000002d0: d518 653b fa80 213d 14bf 893d c446 d13b
000002e0: 1851 073e fbcf a23d c9b0 683d 26e9 233d
000002f0: 7af1 c63c 1d7f f73d 629a 523d 2956 213e
00000300: d931 89bd 09b4 ae3b 58ec 04be 7022 20be
00000310: b1fc 0b3d 9305 8d3d 95c1 debc 4a9b 09be
00000320: 746e 33bd 586d 37bd b57c 0c3c d7ad a7bd
00000330: ae36 703d 5534 733d c523 d2bd 2884 8e3d
00000340: fb88 4f3d d773 e73d ffc4 943d 69a9 093e
00000350: 2a8b 6dbd 1e67 973d f81b 23be 205f 34be
00000360: 5366 97bd e486 19bd 2ed7 d5bc 50c2 51bd
00000370: 209e 2abc b833 66bd ab7d 3bbd dee1 273d
00000380: c8e0 ac3d f28b 843d 6abd 4a3d 5e94 7c3d
00000390: 18c1 09bc 97ce 9ebc 3484 213e 8ec4 7a39
000003a0: 191a 3fbd 6c52 f73d 4202 1bbc 3f8d 413c
000003b0: 8868 253c d35f d83d 5d11 243b 8c0b cbbd
000003c0: c5bb b63c 1d6f 423d 44a0 9b3d 2f22 1f3c
000003d0: 5242 163c da54 4dbb d71e 263e 97cb 58bd
000003e0: fa35 683b 2cbe 553d 76cb 09be 2cc6 21be
000003f0: 1603 1f3e 4903 edbb 26f0 97bd 7e03 18bd

bias f4 [2]
-0.03773967 -0.09131088
00000000: ea94 1abd 3301 bbbd
