bpa_2/tasks_bpa2/tasks/solution/a2d.pt (torch, 73189 bytes, 6 tensors)

weight f4 [128, 4]
0.20405273 0.5099389 0.3525434 0.38594788 -0.068688884 0.15075839 0.4108477 0.45520398
-0.25420657 0.2734817 -0.47868308 -0.31515393 -0.17629404 -0.40361497 0.22361773 -0.37790826
-0.24711086 0.0011504357 -0.33985052 0.13217331 -0.06431149 0.34309584 -0.6751079 -0.09456447
0.23823102 -0.19420277 -0.1284117 -0.31069335 -0.1376854 0.12716398 0.79880625 0.3233206
-0.0919514 -0.297513 0.068876304 0.45537063 0.4537012 -0.1413153 0.636541 0.1612726
0.25642878 0.12429332 0.7479536 0.54851604 -0.3659048 -0.48450622 -0.2468335 -0.5349095
0.28877938 0.07001504 -0.73867726 -0.18198943 0.09278224 0.20944822 0.44472787 0.4782375
0.3682589 0.010070711 0.13805492 -0.44659665 -0.19388798 -0.035710685 0.4589796 -0.14823097
-0.21488604 -0.38679743 -0.4626803 -0.4763978 0.18160707 -0.06917703 0.1939761 -0.06442994
0.28915805 0.42309132 0.068213254 0.07430082 0.12724268 -0.08515805 -0.22267646 -0.13267744
0.5356985 0.2837297 0.65599066 -0.19059318 -0.40670618 0.046603505 0.62860554 -0.08085065
-0.34311986 0.30511 -0.17109485 -0.32143927 -0.016001426 0.38593772 0.049812984 -0.47914836
-0.078924745 -0.4415013 0.6659703 -0.06862948 -0.32463074 0.5610742 0.015720299 0.10369396
-0.06634966 0.3095338 -0.43519807 0.45709476 0.24999428 -0.30222043 0.5969421 0.10451383
-0.27124423 -0.4366467 0.6731143 0.19615413 0.07663861 0.44576976 0.34460455 0.23331581
0.22011429 -0.15428235 0.75299704 0.044131406 0.22311665 -0.3410595 0.4269052 -0.092574246
0.11423837 0.27247363 0.2258155 0.10048001 -0.40641347 0.032241736 -0.3355006 -0.29396585
0.09093201 0.31663486 0.19011809 0.49009454 -0.4040081 0.16445234 -0.41198912 0.40088654
0.34834102 0.052628815 0.75402105 0.14085144 0.021107642 0.24939087 -0.2723678 0.24701048
-0.19322467 -0.46377224 -0.42413893 -0.5452606 -0.3558017 0.23286745 -0.37595272 -0.08754014
0.08660031 -0.3042478 0.5055587 0.5216289 0.3752305 -0.09991198 0.1889643 -0.21082893
0.23768803 0.46793264 -0.80774313 0.14711511 -0.21644694 -0.2888534 0.35780904 0.10138145
-0.2611688 0.088289686 0.08210322 -0.38870254 0.32038 -0.37792405 0.37425748 -0.189593
0.116116345 -0.116868556 -0.2792365 -0.2539664 -0.38428572 0.3569017 0.18404281 0.024228156
-0.25449473 0.26851863 0.20476896 0.16364244 -0.025831698 0.49211416 0.50343347 -0.11383968
-0.15591058 -0.21923044 0.52909184 0.48077646 -0.22680755 -0.0031375436 0.21367419 -0.30862263
-0.05689397 -0.10443666 -0.24040075 0.31186423 -0.09592126 -0.29251468 0.053841442 0.2804752
-0.19836521 -0.19083498 -0.039547708 0.44740915 -0.42922038 0.10206203 0.059444845 -0.3551515
0.48243007 -0.31266525 0.09569476 -0.12641203 -0.33391908 -0.03974163 0.40190718 -0.3158928
-0.25724417 -0.39450473 0.6102859 -0.009850923 0.27208737 0.32042354 0.5079257 -0.3722693
0.090714894 0.3845169 -0.6574023 0.3042116 -0.29205248 0.3167788 0.2395097 0.43238458
-0.41907513 0.20226504 -0.35761005 0.39893973 0.25895995 0.152279 0.5709176 0.22277822
00000000: 33f3 503e 5b8b 023f 9280 b43e f69a c53e
00000010: c2ac 8cbd 6860 1a3e a15a d23e 7f10 e93e
00000020: 5d27 82be cb05 8c3e f315 f5be db5b a1be
00000030: 6d86 34be 9fa6 cebe 0cfc 643e 317d c1be
00000040: a10a 7dbe 37ca 963a e300 aebe 7158 073e
00000050: beb5 83bd 42aa af3e dfd3 2cbf 04ab c1bd
00000060: d5f2 733e 17dd 46be 5b7e 03be 3313 9fbe
00000070: 67fd 0cbe 4637 023e 917e 4c3f 478a a53e
00000080: 0451 bcbd a053 98be 050f 8d3d 5726 e93e
00000090: 864b e83e f5b4 10be 5af4 223f a524 253e
000000a0: a24a 833e 7f8d fe3d e379 3f3f 8c6b 0c3f
000000b0: e057 bbbe 3311 f8be ecc1 7cbe d4ef 08bf
000000c0: e4da 933e 0c64 8f3d f419 3dbf 705b 3abe
000000d0: 9d04 be3d 9879 563e 5fb3 e33e 8cdb f43e
000000e0: 6e8c bc3e a0ff 243c 455e 0d3e 51a8 e4be
000000f0: 928a 46be 5e45 12bd 60ff ea3e dcc9 17be
00000100: 160b 5cbe 500a c6be 6fe4 ecbe 6aea f3be
00000110: 34f7 393e b0ac 8dbd aca1 463e d8f3 83bd
00000120: 860c 943e 6d9f d83e 64b3 8b3d 072b 983d
00000130: e84b 023e 5867 aebd 4c05 64be 98dc 07be
00000140: 8923 093f 0545 913e 01ef 273f dc2a 43be
00000150: cb3b d0be 51e3 3e3d 4bec 203f 0795 a5bd
00000160: 68ad afbe 6137 9c3e 7d33 2fbe b093 a4be
00000170: 6c15 83bc a199 c53e b308 4c3d ef52 f5be
00000180: 4ca3 a1bd 750c e2be 087d 2a3f 9d8d 8cbd
00000190: 0036 a6be 8fa2 0f3f dbc7 803c 805d d43d
000001a0: 55e2 87bd 377b 9e3e 48d2 debe 5308 ea3e
000001b0: 80fe 7f3e a3bc 9abe 33d1 183f 590b d63d
000001c0: 86e0 8abe 2890 dfbe 3851 2c3f a1dc 483e
000001d0: b4f4 9c3d ef3b e43e 0270 b03e 57ea 6e3e
000001e0: a465 613e 31fc 1dbe 6ac4 403f 22c3 343d
000001f0: b178 643e 5a9f aebe 5293 da3e 9197 bdbd
00000200: cef5 e93d aa81 8b3e 2e3c 673e 77c8 cd3d
00000210: 6d15 d0be e90f 043d bcc6 abbe b182 96be
00000220: 903a ba3d f71d a23e 51ae 423e aced fa3e
00000230: 26da cebe 3266 283e 3df0 d2be 0041 cd3e
00000240: c159 b23e 5091 573d 8607 413f 5c3b 103e
00000250: efe9 ac3c 5260 7f3e cb73 8bbe 51f0 7c3e
00000260: b0dc 45be 8e73 edbe bd28 d9be 3396 0bbf
00000270: a42b b6be ce74 6e3e e07c c0be 3f48 b3bd
00000280: 815b b13d 5ec6 9bbe 4c6c 013f 7989 053f
00000290: 361e c03e a79e ccbd dc7f 413e 8ae3 57be
000002a0: 7e64 733e de94 ef3e 41c8 4ebf 58a5 163e
000002b0: 44a4 5dbe 98e4 93be bf32 b73e 14a1 cf3d
000002c0: ebb7 85be 39d1 b43d bc25 a83d 0504 c7be
000002d0: d908 a43e 437f c1be ad9e bf3e ab24 42be
000002e0: 68ce ed3d c858 efbd 16f8 8ebe e207 82be
000002f0: 19c1 c4be d2bb b63e b875 3c3e 207a c63c
00000300: 224d 82be 467b 893e f4ae 513e e291 273e
00000310: ff9c d3bc 63f6 fb3e 04e1 003f c724 e9bd
00000320: 06a7 1fbe f27d 60be 9072 073f 5528 f63e
00000330: 3d40 68be 3f9f 4dbb 68cd 5a3e c903 9ebe
00000340: a709 69bd e3e2 d5bd 9d2b 76be abac 9f3e
00000350: 5e72 c4bd 7cc4 95be d888 5c3d 729a 8f3e
00000360: 4020 4bbe 3f6a 43be c7fc 21bd d012 e53e
00000370: c6c2 dbbe e605 d13d 707c 733d 6bd6 b5be
00000380: 1301 f73e a915 a0be 9dfb c33d 2872 01be
00000390: 71f7 aabe 1fc8 22bd c7c6 cd3e b3bc a1be
000003a0: 82b5 83be 86fc c9be b23b 1c3f c465 21bc
000003b0: 094f 8b3e 8e0e a43e 6b07 023f 159a bebe
000003c0: bbc8 b93d 66df c43e 844b 28bf 9fc1 9b3e
000003d0: e787 95be d530 a23e 0842 753e 8361 dd3e
000003e0: 0491 d6be 911e 4f3e aa18 b7be d441 cc3e
000003f0: 6696 843e 07ef 1b3e a827 123f f91f 643e

bias f4 [128]
0.10134864 0.023760034 -0.019360509 0.32519206 0.21105711 0.09188962 -0.222951 0.42894965
-0.2501631 0.36199877 0.36659434 0.12006057 0.31574205 0.325716 0.33346903 -0.41629377
0.43167353 -0.49182874 -0.1712266 -0.4037611 -0.41344196 0.28559634 -0.2556725 -0.19557293
-0.11025651 -0.2832588 -0.22187805 0.27386677 -0.0191398 0.41738063 0.3186246 -0.3167034
-0.16441464 -0.2882654 0.26205343 -0.36016965 0.13315439 -0.27919137 0.094697714 0.040092405
0.33954552 -0.1681339 0.39054134 0.26858345 0.37893608 -0.34239852 0.08329285 0.09510132
-0.24218124 0.34940273 0.09972263 -0.43027863 0.08966409 -0.2775701 -0.48751336 0.075941525
0.057859115 -0.47631454 0.37768978 -0.43174717 -0.06518472 0.2192581 -0.27667817 0.0649203
-0.35908806 -0.21379265 0.035644773 -0.4954055 0.3733049 0.30565307 0.15922418 0.08079051
-0.12779178 -0.22163658 -0.307773 0.3985006 -0.45140234 0.1328694 -0.32980433 0.030480618
-0.12646608 -0.27345616 -0.15334675 0.08341759 -0.16964766 0.10557422 0.2062594 -0.11752608
0.06638027 -0.20575416 -0.4654745 0.19726487 0.3895607 -0.19502012 0.11641731 -0.29310954
0.13337816 -0.18852365 -0.361841 0.22691278 0.006544745 0.36748496 -0.15643504 0.4708643
-0.4705374 0.16641955 0.19712076 0.25503233 0.42031544 0.007384369 0.22920707 0.13371305
0.023275277 0.31530005 -0.27775934 0.16749792 -0.3665903 0.38654152 -0.2847069 0.4234744
0.53217745 0.28446448 0.3248414 -0.38205242 0.40871507 0.35866338 0.36034292 0.4728107
00000000: e08f cf3d 67a4 c23c ee99 9ebc 937f a63e
00000010: 5b1f 583e a030 bc3d 444d 64be 4a9f db3e
00000020: 6115 80be e757 b93e 41b2 bb3e 51e2 f53d
00000030: f1a8 a13e 3fc4 a63e 74bc aa3e 7524 d5be
00000040: 5004 dd3e fad0 fbbe 0756 2fbe c6b9 cebe
00000050: aaae d3be af39 923e 82e7 82be 4544 48be
00000060: 2ace e1bd 4c07 91be 0034 63be 4438 8c3e
00000070: 12cb 9cbc eab2 d53e c322 a33e f326 a2be
00000080: 505c 28be 8697 93be de2b 863e 2868 b8be
00000090: a059 083e 2cf2 8ebe e0f0 c13d ef37 243d
000000a0: e9d8 ad3e 4b2b 2cbe 09f5 c73e c583 893e
000000b0: e903 c23e dc4e afbe 7195 aa3d 7bc4 c23d
000000c0: 5cfe 77be eae4 b23e 613b cc3d 7b4d dcbe
000000d0: cea1 b73d ab1d 8ebe 5a9b f9be 3b87 9b3d
000000e0: aefd 6c3d 80df f3be 8e60 c13e f70d ddbe
000000f0: 917f 85bd 3285 603e c3a8 8dbe eff4 843d
00000100: 64da b7be 76ec 5abe 4100 123d caa5 fdbe
00000110: d221 bf3e 8f7e 9c3e aa0b 233e 7f75 a53d
00000120: d9db 02be b3f4 62be 6c94 9dbe 4508 cc3e
00000130: 351e e7be ea0e 083e 1ddc a8be 7db2 f93c
00000140: 5380 01be 7202 8cbe ee06 1dbe d7d6 aa3d
00000150: 1eb8 2dbe 4c37 d83d aa35 533e 83b1 f0bd
00000160: 61f2 873d 38b1 52be ac52 eebe cdff 493e
00000170: 8074 c73e 5bb3 47be 336c ee3d 7412 96be
00000180: 4994 083e 580c 41be 3943 b9be d35b 683e
00000190: 4d75 d63b fd26 bc3e 8230 20be 2015 f13e
000001a0: 47ea f0be e369 2a3e 06da 493e 9993 823e
000001b0: 9633 d73e 94f8 f13b 42b5 6a3e 13ec 083e
000001c0: cbab be3c 026f a13e 7936 8ebe 9384 2b3e
000001d0: b9b1 bbbe c5e8 c53e 1ac5 91be a3d1 d83e
000001e0: c83c 083f 54a5 913e 9d51 a63e 609c c3be
000001f0: 1a43 d13e baa2 b73e de7e b83e 3e14 f23e

weight f4 [128, 128]
0.047746062 0.013074368 0.07814697 0.073344916 -0.09392796 -0.069356814 -0.038934648 -0.04062834
0.021939646 0.0090998355 0.054742057 0.036494482 0.07172273 0.038632512 -0.023265654 -0.057841342
-0.013094907 -0.054632556 -0.013213562 0.0619296 -0.034859657 -0.06555116 -0.084007606 0.0669131
-0.03293565 0.05507711 0.0041094 -0.09467849 0.05689521 -0.06283235 0.036950193 0.00019685739
-0.03816115 -0.041619316 -0.03931831 -0.043193962 0.033053275 0.079979874 -0.01889183 0.08625793
0.051286988 0.056137938 0.03341837 0.05493088 -0.051875114 -0.03446565 0.054037664 0.013016089
0.056193836 0.02968953 -0.09229931 -0.052052114 -0.035914462 -0.038027406 -0.06665768 0.037908647
-0.048804823 -0.051381506 -0.08269031 -0.03333342 0.0020198666 -0.058331266 0.07309593 -0.04458635
-0.011925397 0.015801206 0.067360826 0.045270298 0.07011709 -0.041773215 -0.021597855 0.07250215
-0.035648674 -0.09906959 -0.063879624 -0.055973064 -0.08561915 0.00947617 -0.07489321 -0.07158092
-0.06838105 0.087705195 0.050147507 0.067996405 -0.014859026 -0.025329659 -0.062348727 -0.028049324
0.07898401 0.0728713 0.08545661 -0.0306978 0.05000438 0.068675034 -0.054651383 -0.09022809
-0.016647954 -0.06267689 -0.07295389 0.03856706 -0.042769354 0.011474536 -0.031090697 -0.05002321
-0.049811106 0.0669791 0.005269996 0.015261207 0.053840987 -0.054647915 -0.033263095 -0.08171775
-0.08150363 0.0667001 0.00015891624 0.067293175 0.047680803 -0.09477265 -0.030914756 0.0024900313
0.010039822 -0.049838215 -0.09034807 0.008088981 -0.015289152 -0.04267535 -0.01511315 0.044961713
-0.03656622 0.035734847 0.050386842 -0.02608993 0.042694576 0.057630345 0.040140048 -0.063876234
-0.032368716 -0.007782199 0.037586443 -0.04150103 -0.025707448 -0.08381805 0.049886595 0.023183443
-0.05430378 -0.0012877758 0.01005922 -0.032217294 0.039310694 -0.015525824 0.08806714 -0.0956119
0.06082156 -0.06269505 0.059277337 -0.084381975 0.0127914315 -0.09612533 -0.014353892 0.08125215
0.0059309723 0.04303853 0.052793756 -0.04993256 -0.032568585 -0.024144221 -0.06759731 0.047339994
0.017204218 -0.043755956 -0.081823625 -0.022866456 -0.063439615 -0.0019499344 -0.034262713 0.060772236
-0.079901196 0.053455763 -0.04453922 -0.009429493 -0.04535555 0.010936148 -0.0016589947 -0.07199512
0.0090547195 -0.041842286 -0.07470776 -0.056989975 0.008281932 -0.09093996 -0.047696345 -0.04472127
-0.042857558 -0.006045938 0.07724078 -0.07213511 0.02628026 0.032698505 -0.07306317 -0.064297885
-0.024633242 0.06944112 -0.024301166 -0.09434779 -0.03147008 0.057519738 -0.051564127 -0.095852174
-0.020928081 0.06765022 -0.034866452 0.041710712 -0.039965823 0.051293157 -0.00083218643 0.026255516
-0.048780825 0.019128315 0.008343833 -0.031404555 0.051966336 -0.06580206 -0.029283129 0.011769655
0.039601304 0.051309794 0.046465468 -0.08680747 0.04323396 -0.0055981674 -0.024123212 -0.07477939
-0.050781336 0.05295883 0.010733591 -0.04589947 0.06136328 0.06607886 0.012049963 0.04110268
-0.014736783 -0.009779472 0.041266747 -0.087409206 -0.053529456 0.04728689 -0.04768309 -0.041969307
0.049300954 -0.084456354 0.077616036 -0.017839704 -0.07670134 -0.03811839 0.024440493 0.05882517
00000000: 6091 433d e035 563c 850b a03d dc35 963d
00000010: 4d5d c0bd f20a 8ebd f079 1fbd e769 26bd
00000020: c6ba b33c 7a17 153c 3539 603d 3d7b 153d
00000030: 5ee3 923d 203d 1e3d 9d97 bebc 0beb 6cbd
00000040: 058c 56bc 63c6 5fbd b27d 58bc e4a9 7d3d
00000050: 00c9 0ebd b03f 86bd 2e0c acbd bc09 893d
00000060: 88e7 06bd 8998 613d 25a8 863b cce6 c1bd
00000070: f40a 693d 3fae 80bd 1659 173d 816b 4e39
00000080: de4e 1cbd 0479 2abd 3c0c 21bd 27ec 30bd
00000090: df62 073d 7dcc a33d 0ac3 9abc ffa7 b03d
000000a0: 4e12 523d e5f0 653d b3e1 083d 34ff 603d
000000b0: 007b 54bd da2b 0dbd 9956 5d3d 6f41 553c
000000c0: 822b 663d 7537 f33c 6c07 bdbd 9934 55bd
000000d0: 0b1b 13bd a0c2 1bbd d283 88bd 1946 1b3d
000000e0: 91e7 47bd 6a75 52bd 8a59 a9bd a088 08bd
000000f0: bd5f 043b c4ec 6ebd 52b3 953d 2da0 36bd
00000100: be62 43bc 8871 813c 79f4 893d 596d 393d
00000110: 8d99 8f3d 641a 2bbd fced b0bc 027c 943d
00000120: 5804 12bd ffe4 cabd 52d3 82bd 0344 65bd
00000130: 1859 afbd f041 1b3c 9c61 99bd 0499 92bd
00000140: 5d0b 8cbd c89e b33d 7967 4d3d b341 8b3d
00000150: 4673 73bc 2580 cfbc 6161 7fbd b2c7 e5bc
00000160: 5ec2 a13d 8c3d 953d e003 af3d f479 fbbc
00000170: 65d1 4c3d 7fa5 8c3d 21da 5fbd 81c9 b8bd
00000180: 4a61 88bc be5c 80bd d968 95bd 7ef8 1d3d
00000190: eb2e 2fbd b1ff 3b3c ebb1 febc 23e5 4cbd
000001a0: bb06 4cbd 572c 893d eeaf ac3b 240a 7a3c
000001b0: 5e88 5c3d 7ed6 5fbd e23e 08bd a35b a7bd
000001c0: 60eb a6bd 109a 883d c1a2 2639 01d1 893d
000001d0: f24c 433d 2a18 c2bd f140 fdbc cb2f 233b
000001e0: 117e 243c 2823 4cbd 6908 b9bd a587 043c
000001f0: 5a7f 7abc 59cc 2ebd 259d 77bc c629 383d
00000200: 76c6 15bd b45e 123d 6f62 4e3d 8dba d5bc
00000210: 82e0 2e3d cc0d 6c3d e469 243d 8bd1 82bd
00000220: 0f95 04bd d101 ffbb 3ef4 193d fcfc 29bd
00000230: 6d98 d2bc cca8 abbd e355 4c3d 34eb bd3c
00000240: a46d 5ebd 96ca a8ba 6dcf 243c 48f6 03bd
00000250: 4004 213d 0760 7ebc 8b5c b43d 2cd0 c3bd
00000260: 0720 793d 4366 80bd cbcc 723d 75d0 acbd
00000270: 2793 513c 5bdd c4bd 962c 6bbc 8767 a63d
00000280: 9a58 c23b 2b49 303d 443e 583d 1686 4cbd
00000290: a366 05bd 1aca c5bc 7570 8abd 95e7 413d
000002a0: dcef 8c3c 7239 33bd 2593 a7bd 6f52 bbbc
000002b0: a1ec 81bd f194 ffba 0f57 0cbd 4fec 783d
000002c0: 3da3 a3bd 6ef4 5a3d c26e 36bd 297e 1abc
000002d0: bec6 39bd 882d 333c a072 d9ba 2d72 93bd
000002e0: 3f5a 143c d162 2bbd 6200 99bd 526e 69bd
000002f0: f1b0 073c bb3e babd 3e5d 43bd a72d 37bd
00000300: 688b 2fbd 011d c6bb 6a30 9e3d 93bb 93bd
00000310: b349 d73c deee 053d 25a2 95bd 9cae 83bd
00000320: a7cb c9bc 2537 8e3d 3d13 c7bc 6a39 c1bd
00000330: c5e6 00bd d199 6b3d e834 53bd 254e c4bd
00000340: 5e71 abbc 338c 8a3d 20d0 0ebd dad8 2a3d
00000350: 34b3 23bd c618 523d 1627 5aba cf15 d73c
00000360: 67ce 47bd fcb2 9c3c 92b4 083c 10a2 00bd
00000370: a7da 543d 3bc3 86bd 2ce3 efbc 83d5 403c
00000380: fa34 223d 382a 523d 9352 3e3d 1dc8 b1bd
00000390: 1816 313d d570 b7bb 0b9e c5bc f025 99bd
000003a0: 1700 50bd 5ceb 583d f2db 2f3c 1501 3cbd
000003b0: 1058 7b3d 5a54 873d 356d 453c 495b 283d
000003c0: 8c72 71bc 143a 20bc 5207 293d 9903 b3bd
000003d0: b441 5bbd e6af 413d 584f 43bd 02e8 2bbd
000003e0: ccef 493d 74f7 acbd 28f5 9e3d 9224 92bc
000003f0: 9815 9dbd 0722 1cbd 6e37 c83c a9f2 703d

bias f4 [128]
-0.07563859 -0.042978004 -0.012853567 0.067093946 -0.093778394 -0.0012113651 0.09450391 0.088474475
0.009309518 0.046751626 0.10743299 0.061491065 0.036975674 -0.08131255 0.07698733 -0.042741954
0.064821355 -0.039443836 0.0022836567 0.052208506 0.011141024 -0.016824627 0.041653216 -0.007896635
0.10350738 -0.05053941 0.023341686 0.08648833 -0.004435714 -0.043912627 0.02949832 0.03910342
-0.028106635 0.019000761 0.04729773 -0.1109544 -0.059401885 0.058997534 -0.07725986 -0.051046137
-0.015127421 0.05447129 0.02728148 0.046599187 -0.08002786 0.0075151785 0.09169993 0.046854522
0.054116774 0.049381558 0.007176972 0.011786375 0.021652767 -0.05840357 -0.040355407 -0.033037283
-0.015918251 -0.024920098 0.05841748 0.015758982 -0.046583287 -0.06255822 -0.061160345 0.033787783
-0.053325105 0.041317727 -0.09913877 -0.04409245 -0.08293802 -0.07981671 0.03978359 -0.037551578
-0.104393646 -0.044428203 -0.01743094 0.007714806 0.043142878 0.07749666 0.009049816 -0.025341243
0.051118996 -0.021107182 -0.08540868 0.095155574 -0.034401175 0.018187005 0.08583567 -0.009835992
0.057304937 0.011859106 0.10181771 0.04202773 0.028329603 -0.013731158 0.02527 0.071424775
0.08606227 -0.071595415 -0.040991332 0.05308634 0.07328995 0.036719367 0.07065674 -0.084778555
-0.0010490227 0.0270675 0.09598282 -0.031229619 0.079864286 -0.06836893 0.012427432 0.021650355
-0.037490185 0.047858607 -0.08304646 -0.07409688 -0.080170475 -0.017527044 -0.062150344 -0.027023898
-0.018546319 -0.07164166 0.06722514 0.014510926 -0.027142318 0.031774566 0.06983167 -0.023338025
00000000: 68e8 9abd b409 30bd c497 52bc 8d68 893d
00000010: e30e c0bd abc6 9eba 448b c13d 1b32 b53d
00000020: f386 183c a27e 3f3d d405 dc3d 0ede 7b3d
00000030: ce73 173d 3287 a6bd 89ab 9d3d 3012 2fbd
00000040: 0fc1 843d dc8f 21bd 67a9 153b 96d8 553d
00000050: d788 363c cdd3 89bc 909c 2a3d e360 01bc
00000060: adfb d33d 6a02 4fbd 1037 bf3c cb20 b13d
00000070: 7759 91bb badd 33bd 76a6 f13c e82a 203d
00000080: e33f e6bc 7ca7 9b3c 44bb 413d 0f3c e3bd
00000090: 644f 73bd 66a7 713d 6b3a 9ebd c115 51bd
000000a0: 01d9 77bc 4a1d 5f3d 697d df3c cade 3e3d
000000b0: a6e5 a3bd e341 f63b 2ccd bb3d 87ea 3f3d
000000c0: 8da9 5d3d 5144 4a3d ce2c eb3b a41b 413c
000000d0: 2561 b13c 9538 6fbd b64b 25bd 1a52 07bd
000000e0: fe66 82bc 3c25 ccbc 2b47 6f3d fb18 813c
000000f0: 1ece 3ebd 861e 80bd 4583 7abd 0f65 0a3d
00000100: 6d6b 5abd c73c 293d 4409 cbbd 499a 34bd
00000110: 69db a9bd f176 a3bd 1ef4 223d afcf 19bd
00000120: 56cc d5bd 59fa 35bd 55cb 8ebc 7ccc fc3b
00000130: 96b6 303d 92b6 9e3d ae45 143c 7098 cfbc
00000140: 2762 513d f8e8 acbc bfea aebd ede0 c23d
00000150: 3fe8 0cbd eafc 943c 9dca af3d 2427 21bc
00000160: 95b8 6a3d b24c 423c ce85 d03d 4525 2c3d
00000170: 7c13 e83c a7f8 60bc 0803 cf3c 2747 923d
00000180: 6a41 b03d 9ea0 92bd 87e6 27bd 1071 593d
00000190: 0b19 963d 0c67 163d 7bb4 903d 61a0 adbd
000001a0: 5c7f 89ba a9bc dd3c a492 c43d 42d5 ffbc
000001b0: e38f a33d 0205 8cbd 6e9c 4b3c 165c b13c
000001c0: 4f8f 19bd 6307 443d 4314 aabd 1bc0 97bd
000001d0: 6b30 a4bd e094 8fbc 5c91 7ebd 3961 ddbc
000001e0: 73ee 97bc ddb8 92bd 56ad 893d 3cbf 6d3c
000001f0: 9159 debc 0c26 023d e803 8f3d 632f bfbc

weight f4 [2, 128]
0.032236647 -0.019361043 -0.070590585 0.043585163 -0.06090091 -0.020978883 -0.15783502 -0.12861161
0.038042217 -0.047930013 0.107727826 -0.03320497 -0.045248054 -0.09381982 0.09350084 -0.043468803
-0.020990243 0.090072654 -0.024028784 -0.040100355 0.10283523 -0.061406504 0.01130951 0.013767155
-0.07985278 -0.011424525 -0.033804394 0.0677626 0.077836625 0.041880324 0.1289936 -0.03715333
-0.013725415 0.05981505 0.0054111998 0.036563966 0.16041113 -0.105889186 0.058106355 0.14701043
0.07481094 0.010467898 0.08562225 0.0063369162 -0.0618026 -0.16391042 -0.15134998 -0.06960892
-0.02597532 -0.07356452 0.095017314 -0.14928815 0.12654787 -0.04988754 0.040436625 0.034523644
-0.04812373 0.10344674 -0.021322852 -0.12910727 0.063168965 0.069408566 -0.007255327 -0.12053931
-0.053359747 -0.070303336 0.0006553637 -0.02888031 0.005110107 -0.020523092 -0.05528309 0.026376907
-0.029840117 0.026702376 0.049265865 0.16103272 -0.035984628 0.0668626 -0.07822263 0.024817366
-0.0858356 0.07064272 0.023105673 -0.11788829 0.16107857 -0.07601455 0.01829274 -0.0326758
-0.049837694 0.12724313 0.070159584 -0.16147396 0.0036346328 0.14946042 0.064351164 -0.11424402
-0.09172898 -0.051217683 0.13646811 -0.17997646 -0.08083581 -0.033277355 0.037379976 0.015369401
0.031147024 -0.10494236 0.1350031 -0.05757328 0.11572904 -0.09894202 -0.093627006 -0.014391051
-0.02981664 0.1238299 -0.08456051 -0.13354677 -0.06415462 -0.07837602 0.16925493 -0.021137124
0.11235153 -0.039051585 -0.10402891 0.033675972 -0.05773141 0.089887 -0.13214083 0.06835503
0.07549152 -0.04602994 0.073436745 -0.12584877 -0.038648568 -0.017103443 0.041492607 0.08390613
-0.12627481 0.17260826 -0.037705682 0.060032934 0.10826844 0.051929083 -0.067120336 0.12547721
-0.02007835 -0.080532 0.009202044 0.07269156 -0.16675751 -0.026892118 -0.13000132 -0.06489531
0.1524304 0.06306505 -0.11727488 -0.10857989 -0.115704715 0.04896441 0.03466297 -0.0038253232
0.048500035 -0.058279637 0.07105117 -0.02554799 -0.0181974 0.07848197 0.065161236 -0.15387507
0.06877763 -0.057179604 -0.11873557 0.11342413 0.02699193 0.12745123 0.15321296 0.002647251
0.022305865 0.043440975 -0.12386528 0.053445127 -0.06747401 0.058531765 0.03276903 0.035184298
0.020706221 -0.13950095 0.08304954 0.01484524 -0.048132543 0.058184914 0.011172202 0.06941973
0.03458529 0.13300806 0.0072868555 0.034683164 -0.014892359 0.021728903 0.15131581 -0.10924554
0.004234164 -0.04924226 0.06848063 -0.035969082 -0.04366259 -0.12796289 0.12931703 -0.02997397
0.15503553 -0.09166561 -0.0028792557 0.05600164 -0.119421065 -0.09134703 -0.12626491 0.092711836
-0.049468704 -0.001153552 -0.11881319 0.14013363 -0.109195 -0.102713645 0.05972155 0.054054156
0.096524455 0.12083485 -0.03528291 0.07744025 0.0812229 0.007515034 0.032573793 -0.024257869
0.02325368 0.0107446425 -0.01659445 0.060907792 -0.0316721 0.11470036 0.03583633 0.031808108
-0.12249438 0.0056326105 -0.08146349 0.097168565 0.025397917 0.08386921 -0.07504054 0.013988286
-0.15280288 -0.06255447 0.13995202 -0.14548889 -0.071258284 -0.032293078 0.14074805 0.016301997
00000000: 930a 043d 0d9b 9ebc cc91 90bd 5b86 323d
00000010: 3c73 79bd e8db abbc 819f 21be c3b2 03be
00000020: 28d2 1b3d 4352 44bd 68a0 dc3d ef01 08bd
00000030: 0656 39bd 9b24 c0bd 5e7d bf3d 580c 32bd
00000040: bbf3 abbc 0378 b83d 03d8 c4bc 4540 24bd
00000050: 479b d23d 6385 7bbd 864b 393c a28f 613c
00000060: db89 a3bd ee2d 3bbc 7a76 0abd 1ec7 8a3d
00000070: cf68 9f3d b48a 2b3d e616 043e 172e 18bd
00000080: 90e0 60bc a000 753d 6f50 b13b 19c4 153d
00000090: d142 243e 6edc d8bd ee00 6e3d e789 163e
000000a0: 7a36 993d 8c81 2b3c b85a af3d e8a5 cf3b
000000b0: b924 7dbd 22d8 27be 7dfb 1abe 1f8f 8ebd
000000c0: 32ca d4bc ffa8 96bd 7098 c23d fede 18be
000000d0: c495 013e e156 4cbd e0a0 253d aa68 0d3d
000000e0: 631d 45bd e2db d33d 43ad aebc b234 04be
000000f0: bb5e 813d 1426 8e3d 18be edbb 50dd f6bd
00000100: c08f 5abd 32fb 8fbd b7cc 2b3a 6696 ecbc
00000110: af72 a73b 0b20 a8bc 8570 62bd 6214 d83c
00000120: 4373 f4bc f1be da3c 01cb 493d c3e5 243e
00000130: 9e64 13bd 42ef 883d 3033 a0bd ca4d cb3c
00000140: 93ca afbd 21ad 903d 1c48 bd3c 6a6f f1bd
00000150: c8f1 243e 84ad 9bbd a8da 953c 0fd7 05bd
00000160: 9c22 4cbd 064c 023e d4af 8f3d 6e59 25be
00000170: 0533 6e3b 270c 193e 8bca 833d c5f8 e9bd
00000180: 67dc bbbd a2c9 51bd 4cbe 0b3e c04b 38be
00000190: 3f8d a5bd d64d 08bd bf1b 193d f1cf 7b3c
000001a0: 0b28 ff3c 05ec d6bd 413e 0a3e f6d1 6bbd
000001b0: 5903 ed3d 1da2 cabd 84bf bfbd 71c8 6bbc
000001c0: 0742 f4bc 889a fd3d 102e adbd 7cc0 08be
000001d0: 7f63 83bd 9b83 a0bd 2a51 2d3e c327 adbc
000001e0: 8f18 e63d 8ef4 1fbd 1c0d d5bd d1ef 093d
000001f0: c577 6cbd ad16 b83d ed4f 07be b9fd 8b3d
00000200: 4c9b 9a3d e489 3cbd 0166 963d 80de 00be
00000210: f64d 1ebd 851c 8cbc 27f4 293d fad6 ab3d
00000220: 2f4e 01be 38c0 303e 4671 1abd 18e5 753d
00000230: d8bb dd3d 97b3 543d 6376 89bd 197d 003e
00000240: 5a7b a4bc f6ed a4bd 2cc4 163c 50df 943d
00000250: 7bc2 2abe dc4c dcbc 111f 05be d5e7 84bd
00000260: b716 1c3e 4028 813d d02d f0bd 225f debd
00000270: 98f6 ecbd e88e 483d c2fa 0d3d 46b2 7abb
00000280: f9a7 463d a1b6 6ebd 4783 913d 054a d1bc
00000290: b712 95bc 28bb a03d 4173 853d 6d91 1dbe
000002a0: 49db 8c3d 2935 6abd a22b f3bd e94a e83d
000002b0: 2e1e dd3c 9382 023e dce3 1c3e 807d 2d3b
000002c0: caba b63c 2aef 313d 14ad fdbd 47e9 5a3d
000002d0: d02f 8abd 01bf 6f3d d238 063d 691d 103d
000002e0: 18a0 a93c 56d9 0ebe e115 aa3d 7339 733c
000002f0: a126 45bd 4e53 6e3d 9d0b 373c ee2b 8e3d
00000300: 4ea9 0d3d 4433 083e 93c6 ee3b ef0f 0e3d
00000310: 15ff 73bc d000 b23c 88f2 1a3e 20bc dfbd
00000320: bebe 8a3b 41b2 49bd 933f 8c3d 5154 13bd
00000330: 8bd7 32bd b408 03be af6b 043e f98b f5bc
00000340: a2c1 1e3e 2ebb bbbd e5b1 3cbb fa61 653d
00000350: 0893 f4bd 2714 bbbd 974b 01be b4df bd3d
00000360: b29f 4abd c832 97ba 5454 f3bd 317f 0f3e
00000370: a1a1 dfbd 885b d2bd 969e 743d e467 5d3d
00000380: 9dae c53d 4378 f73d d084 10bd fe98 9e3d
00000390: 3158 a63d ad40 f63b 196c 053d 70b8 c6bc
000003a0: 807e be3c 4c0a 303c 16f1 87bc 737a 793d
000003b0: 9bba 01bd 06e8 ea3d 1ec9 123d 3849 023d
000003c0: 55de fabd c391 b83b 55d6 a6bd 5000 c73d
000003d0: 4b0f d03c 9fc3 ab3d dbae 99bd 202f 653c
000003e0: 5c78 1cbe 8f1c 80bd 954f 0f3e 0afb 14be
000003f0: ddef 91bd bf45 04bd 4220 103e c48b 853c

bias f4 [2]
-0.045640476 -0.0051482474
00000000: 82f1 3abd a1b2 a8bb
