bpa_2/tasks_bpa2/tasks/solution/b2d.pt (torch, 73061 bytes, 6 tensors)

weight f4 [128, 4]
000000 3a 72 b7 3e 0b 7a bd 3e be c1 ff 3e 21 98 7f 3e
       0.35829335 0.37007174 0.499525 0.24960376
000010 a1 4c 06 be f7 36 d6 3d 50 3f dd be 9c 7a bb bd
       -0.13115169 0.104597025 -0.43212366 -0.09154245
000020 7e 06 79 be d7 d0 a5 bc 30 a6 04 c0 e0 0c 72 bd
       -0.24318883 -0.020241184 -2.0726433 -0.05909431
000030 9e 75 4e 3c 0c 38 df 3e e5 c5 9c 3f 54 bb de 3e
       0.012601284 0.43597448 1.2247893 0.43502295
000040 cb 93 8b 3d fd 25 c1 be 1a 9f a0 be dc 76 99 be
       0.06815299 -0.37724295 -0.31371385 -0.29973495
000050 2e 71 e9 3c 3e c4 28 bd df cb c4 3f a0 48 0e be
       0.028496351 -0.041202776 1.5374717 -0.13894892
000060 8b 3d b2 bc 61 f7 a6 ba 91 72 f2 bf ae 8a 19 be
       -0.021757862 -0.001273852 -1.8941213 -0.14994308
000070 5f 26 f5 bd de e0 a3 3e 15 b0 67 3e 64 ba 71 3e
       -0.11970209 0.32007498 0.22625764 0.23606259
000080 36 4e 77 be f2 07 07 3e 27 ca 83 3f 1d b9 4a 3e
       -0.24150929 0.13186625 1.0296067 0.19797178
000090 48 d4 20 be 1e 18 00 3c a1 6d ef 3f 82 f3 61 3e
       -0.15705979 0.00781825 1.8705331 0.22065547
0000a0 32 5c ad be 74 aa aa be 65 31 97 3e 44 16 60 be
       -0.33859402 -0.3333317 0.29529873 -0.21883494
0000b0 5b 42 61 3e 17 38 70 be 98 9c 3f bf d3 f4 56 be
       0.21997969 -0.23458897 -0.7484832 -0.2099183
0000c0 d2 73 b7 bd b5 a4 b2 3d 15 2d b0 3e 40 8e a6 3c
       -0.08957638 0.087228216 0.34409395 0.020331502
0000d0 ef cd 5f bc 04 72 b7 3b 7f f7 b7 bf 8e 6e 0c bd
       -0.013659938 0.0055983085 -1.4372405 -0.03428512
0000e0 bb 9a c6 be ff 91 b9 be 54 72 86 be a9 fc 65 be
       -0.38789925 -0.362442 -0.262591 -0.22459663
0000f0 e8 92 e3 be 95 7d ca be 95 4d a7 bf 30 74 a6 be
       -0.44448018 -0.39548936 -1.3070551 -0.3251052
000100 6b e4 8c 3e e6 f9 98 be c5 8d 01 3e bd 9c d3 3e
       0.2751802 -0.29878157 0.12651737 0.4133052
000110 fb e5 c6 3e c1 22 5f 3e 40 9d b9 3f 37 11 2f 3e
       0.38847336 0.21790601 1.4501114 0.1709641
000120 af 8c 9c bd 1f e8 02 3e dc c0 1b bd 22 c7 80 3d
       -0.07644021 0.1278386 -0.038025722 0.062879816
000130 8f f9 85 bd 34 86 92 be 31 56 d3 3e 47 a8 a3 be
       -0.0654174 -0.28618014 0.41276696 -0.31964323
000140 5a ba 1a 3f a6 3e e1 3e cc 05 84 3e 2b fe 74 3e
       0.604406 0.4399311 0.25785673 0.23925082
000150 ec 26 65 3d 84 ad 96 3e 0f 03 45 3f ae 1b aa 3e
       0.055945322 0.29429257 0.7695779 0.33224243
000160 30 f7 fb bd 32 3c bf bd 66 8b 05 40 a3 62 1c 3d
       -0.12303007 -0.09337653 2.0866332 0.038180005
000170 3b 0b 6d bd 00 b3 b4 3c a3 34 d6 3f d8 d0 f2 3d
       -0.05787204 0.02205801 1.6734813 0.1185624
000180 50 f9 89 bc 3d 9c 4b be 77 e2 df be ad 2a 1d 3c
       -0.016842514 -0.19883819 -0.43727466 0.009592694
000190 a2 f8 75 3d 36 dc a4 3e 39 80 ca 3f 28 87 f6 3e
       0.060051568 0.32199258 1.582038 0.4814999
0001a0 8a 0d 69 3d b8 dd 03 be 54 31 1e 3e 3f d1 00 bd
       0.056897677 -0.12877548 0.15448505 -0.031449553
0001b0 e0 42 28 3d 97 22 0a be 4a d3 fa bf 77 47 be be
       0.041079402 -0.13489757 -1.959573 -0.37163898
0001c0 7f 55 93 be b2 5a 84 3e 0c eb c0 3d 07 9d 6e 3e
       -0.28776166 0.25850445 0.09419832 0.23302089
0001d0 e1 b2 03 be a2 5f 85 be e7 73 82 be d8 a6 41 be
       -0.12861206 -0.26049525 -0.2547905 -0.18911302
0001e0 07 9f 38 bf 23 70 fb 3c 9e d0 25 3f ea 84 21 be
       -0.72117656 0.03069312 0.6477145 -0.15773359
0001f0 3e cc bf bc ed 84 a1 bd 34 70 68 bf 4e aa 16 be
       -0.02341282 -0.07886682 -0.9079621 -0.14713404
000200 f8 4e 7a be 96 52 b5 3e 1c 9d da 3e e4 44 8f 3e
       -0.24444187 0.3541457 0.4269799 0.27982247
000210 02 fa 32 3d f7 fe 0a bf 42 45 e1 bf 91 aa f6 be
       0.043695457 -0.54295295 -1.7599261 -0.48177007
000220 56 d8 1a be 41 69 8d 3e 90 7c 85 be 26 26 17 3e
       -0.15121588 0.27619365 -0.26071596 0.14760646
000230 93 32 6c 3e ce 3b 0f 3f 83 cb ba 3f 6b 15 d5 3e
       0.23066168 0.5595063 1.4593357 0.41617903
000240 b1 e1 2c be e1 a8 b8 be 7f 4e af bf 43 10 e7 be
       -0.1688297 -0.36066344 -1.369583 -0.45129594
000250 48 a7 82 bd 1b 67 cc be b9 df 55 be e7 54 5e be
       -0.063795626 -0.39922413 -0.20886125 -0.21712075
000260 25 39 d2 3d 41 02 c7 be c6 40 9f 3e c5 07 a1 be
       0.10264806 -0.38868907 0.31104106 -0.3145124
000270 71 af 3b 3e e2 97 79 be ba 0e 80 bf 10 bc bc be
       0.18328644 -0.24374345 -1.0004494 -0.3686223
000280 74 8a ac be 3f fc 13 bf 62 23 d9 be e8 4d be be
       -0.3369938 -0.5780677 -0.42409807 -0.37168813
000290 ec f3 48 bd 84 d0 e4 be 2c 9b 52 bf 74 61 d8 be
       -0.049060747 -0.44690335 -0.82268023 -0.4226185
0002a0 41 06 5f be 1b 06 92 3c b0 4e 11 bf 10 52 b2 3d
       -0.2177973 0.017825177 -0.5676069 0.087070584
0002b0 55 63 03 3e 2b c4 93 3e 0f 08 9c bf 15 48 48 3e
       0.12830861 0.28860602 -1.2189959 0.19558747
0002c0 9b 37 d6 bd a8 d1 7d be 13 ca 10 bf 74 58 5b be
       -0.10459825 -0.24787009 -0.5655834 -0.21420461
0002d0 cd fe 17 3f f9 07 a1 3e eb 2a 7c 3e 4e 46 1e 3e
       0.5937317 0.31451395 0.24625747 0.15456507
0002e0 a3 e5 01 be 2a 34 4f be e9 b9 b5 3e 74 15 74 be
       -0.12685256 -0.20234743 0.354934 -0.23836309
0002f0 09 8e e8 3e ce a2 2d be a5 f8 8f 3f 87 3e 25 3e
       0.45420864 -0.16956636 1.1247755 0.16137134
000300 f0 a8 d0 bd 27 49 29 3d 06 df 75 bc 7a b4 b1 bd
       -0.10188472 0.04132953 -0.015006786 -0.08677001
000310 06 81 9f be 10 1a 5c 3e 3a 0a 92 3e cc 92 e9 3c
       -0.31153125 0.21494317 0.28523427 0.028512381
000320 19 22 45 bd dc 24 b1 bd 83 dc ba 3f 5e 27 12 3e
       -0.04812822 -0.086496085 1.4598545 0.1427283
000330 4c 78 cb 3e 66 18 e2 3d a9 3f 86 bd b1 a8 08 3d
       0.39740217 0.1103981 -0.06555111 0.033364
000340 28 30 22 be 76 1e 57 3e 6d 93 df 3e e0 2d 22 3e
       -0.15838683 0.21007714 0.43667164 0.15837812
000350 22 0e a4 be a7 f1 86 3e 26 e5 be be 24 3c 31 be
       -0.32042032 0.2635624 -0.372842 -0.17308098
000360 61 13 9f 3d 2c e4 6a be d2 1e 06 3f bd 72 bb be
       0.07767368 -0.22938603 0.5239078 -0.36610976
000370 14 f5 84 bd 05 95 fb 3c 72 1b 1c c0 fc ca 06 be
       -0.064920574 0.030710706 -2.4391751 -0.1316337
000380 25 72 e8 be 3f 7b a9 3e 8e 15 92 3e 0f 2e 72 3e
       -0.45399585 0.33101842 0.2853207 0.23650382
000390 78 b6 7a be 3a 0d 19 3e 60 d8 cb bd 36 1c 86 3d
       -0.24483669 0.14946452 -0.0995338 0.065483496
0003a0 2c 44 12 3e ce 5b 8f 3e 5b 6e 25 3f 13 5f d5 3e
       0.14283818 0.2799973 0.64621514 0.41674098
0003b0 e2 24 c1 3c 3b 9f 67 3d a9 0a fd 3f a5 c5 09 3e
       0.023577157 0.05654834 1.9768878 0.13454302
0003c0 71 60 aa 3c 4e ad 46 3d 38 f2 e4 3d 3c e3 0f bf
       0.02079794 0.04850512 0.11179012 -0.5620611
0003d0 5c 3a ab be ee c0 b5 be 9b 40 be be ec f1 93 be
       -0.33442962 -0.35498756 -0.37158665 -0.2889551
0003e0 55 e0 90 3e 78 4e ce be f3 f3 c2 be 05 df a2 be
       0.28296152 -0.40294242 -0.38076743 -0.31810775
0003f0 a1 36 b8 3d 3d 06 94 be be 48 22 bc 36 57 04 be
       0.08994795 -0.2891101 -0.009905038 -0.12923893

bias f4 [128]
000000 d5 22 59 bf 14 73 02 bf 5b 5e f1 be 51 94 e3 3d
       -0.84818774 -0.50956845 -0.471423 0.111122735
000010 b0 9f fc be 5a d5 d0 be d7 31 f8 be a3 b4 04 bf
       -0.49340582 -0.40787774 -0.48475525 -0.5183813
000020 c8 3a a7 3e e6 27 c8 be ee 63 36 bd 8d 4d 8f be
       0.32662034 -0.3909294 -0.044528894 -0.27988854
000030 70 5c cf 3e 54 57 b1 be 06 40 3a bf a2 45 b0 be
       0.40500212 -0.3463694 -0.7275394 -0.34428126
000040 6a 6f 04 bf a9 25 43 bf d6 2a fc 3e f7 fa 36 3f
       -0.51732504 -0.7622934 0.4925143 0.7147669
000050 27 5a 01 bc 0d a6 0b bf 8e 24 2f 3e 5d 93 e7 be
       -0.007895029 -0.5455025 0.17103788 -0.45229617
000060 92 e3 01 3f 6e b0 2f bf a3 21 a9 be 00 68 22 bf
       0.5073787 -0.68628585 -0.33033475 -0.6343994
000070 37 88 20 3f 6c 29 ef bd 83 d6 fa be f7 1c 5c 3e
       0.6270785 -0.116778225 -0.48991784 0.21495424
000080 2e fc dd 3e 6d de 5d bd d0 d4 2a 3f 35 e0 1b bf
       0.4335646 -0.0541672 0.66730976 -0.6088899
000090 0d c5 07 bf 4a bf 8e 3e cb 26 12 3f 00 af 4a bf
       -0.5303505 0.27880317 0.57090443 -0.7917328
0000a0 a9 31 19 3e 2d 2d 81 bd 62 ac 17 3f c2 f1 f2 be
       0.1496035 -0.06307445 0.5924741 -0.47450072
0000b0 b2 41 aa bd 16 35 c9 bd 39 bf 3c 3f 2c cc 40 bf
       -0.08313312 -0.098245785 0.7372928 -0.7531154
0000c0 f5 59 bd be 9c 1e 2e 3f f5 f0 af bd 13 d8 6d bf
       -0.36982694 0.68015456 -0.08590881 -0.9290783
0000d0 d0 9b d7 be 53 47 42 bf d0 06 86 3e 83 28 06 bf
       -0.42111063 -0.7589008 0.26177073 -0.52405566
0000e0 74 12 2a bf 24 d8 0f 3f 48 20 f0 be b5 ef e2 be
       -0.6643441 0.5618918 -0.4689963 -0.44323507
0000f0 7b aa cd be 08 39 19 bf 63 79 d4 3e bc fa be 3e
       -0.4016913 -0.5985265 0.4149886 0.3730067
000100 63 d2 35 bf 87 08 14 3f 3d 84 d1 be 25 fe 08 bf
       -0.7102415 0.5782551 -0.40921202 -0.53512794
000110 1b cb b2 be 55 f5 5c bf 9d be 87 be 35 ae 04 bf
       -0.34920582 -0.86311847 -0.26512614 -0.5182832
000120 c3 5d 14 bf 0f 45 b5 bd ab 2f 5d bf a2 12 fa bd
       -0.5795557 -0.088510625 -0.8640086 -0.12210585
000130 3e e7 d1 be 35 67 f2 3e 18 86 fb 3e 75 67 86 bb
       -0.40996736 0.47344366 0.49125743 -0.0041016885
000140 30 15 bf be 7f 92 20 3f 57 38 dc be 1b 22 67 be
       -0.37320852 0.62723535 -0.43011734 -0.22571604
000150 ca ec 97 be f2 29 3c bf 59 f0 71 3e 5f f7 21 3f
       -0.29672843 -0.73501503 0.23626842 0.63268083
000160 f6 a8 84 bf 2a 32 36 3f 18 c1 93 be 4e 2c 99 3e
       -1.0364063 0.71170294 -0.28858256 0.29916614
000170 a5 9f e9 3d 2a f9 12 bf 58 ef ab be 8c 78 1a bf
       0.11407403 -0.57411444 -0.33581042 -0.6034019
000180 c2 1a 56 bf a1 a3 05 bf 92 b4 cf be f1 7a 1d 3f
       -0.8363458 -0.522028 -0.40567452 0.6151572
000190 79 9d 4e 3e 99 ec 1e bf 24 be 76 bf 95 57 bc be
       0.20177259 -0.6207977 -0.9638388 -0.3678557
0001a0 0d 31 2c bf a0 0f fe 3e a4 4e 8b bf 3b cf b6 3e
       -0.67262346 0.49621296 -1.0883374 0.3570498
0001b0 a9 d8 65 bf f0 a7 28 3f ae f8 42 bd d7 e3 24 3e
       -0.8978372 0.6588125 -0.04760044 0.16102539
0001c0 25 51 29 bf c7 75 5b bd a3 0d e4 be f1 11 1e 3f
       -0.6613944 -0.053579118 -0.44541654 0.61746126
0001d0 94 f3 69 be 8b c1 ce bc 78 1a 83 be 79 74 c8 be
       -0.22846824 -0.025238773 -0.25606132 -0.39151362
0001e0 20 5a e6 be a9 40 12 be 46 14 fb be 14 e2 c0 be
       -0.44990635 -0.14282478 -0.49038905 -0.37672484
0001f0 32 c6 44 bf 6a 12 81 3e 49 25 06 3f d7 df 25 be
       -0.7686492 0.2520936 0.5240064 -0.1619867

weight f4 [128, 128]
000000 d5 0b 8e bd 23 cb a9 3d 4c 94 93 bc 9a 3f 49 3d
       -0.069358505 0.082906984 -0.01801505 0.04913292
000010 3b 2e da bc 08 0f 67 bd b1 0d 5c 3d 29 c8 8f bd
       -0.026633373 -0.05641082 0.053723995 -0.070205994
000020 52 db ae bc 3e 50 80 bc cd 84 17 3d ba 0b 19 bc
       -0.021344814 -0.015663262 0.036991883 -0.009341175
000030 66 6b c0 bd 18 44 5c 3d 39 66 86 3d 88 5c e5 bc
       -0.093954846 0.053775877 0.06562466 -0.027998224
000040 39 ea 93 3d af 08 6d bd ae 32 ed 3c 67 2d 0b bc
       0.07222409 -0.05786961 0.02895483 -0.0084947115
000050 45 9d 6d bc 39 89 b8 bd 2b f3 08 bd 61 63 ce bc
       -0.014502828 -0.09010548 -0.033435028 -0.025193872
000060 a9 ba 22 bd 0d c1 91 bd 7f 71 f6 3b f2 bf 8d bd
       -0.039728794 -0.071169 0.007520854 -0.06921376
000070 0b ae 0e bd 66 15 97 3d 94 ab 9a 3d 39 16 cf bc
       -0.03483395 0.07377128 0.07552257 -0.025279151
000080 59 16 9f bd f9 b2 28 bd 2b f0 90 3d 66 b0 4f bd
       -0.07767934 -0.041186307 0.070770584 -0.050705336
000090 93 0f 4d 3c f4 d7 94 3d 54 6c dd bc 2e 3b fc 3c
       0.01251592 0.07267752 -0.027029194 0.030789938
0000a0 b9 82 34 bd 06 2c 8c 3b 91 7e 31 3c 76 a3 66 bd
       -0.04406998 0.004277709 0.010833398 -0.056308232
0000b0 da fa 96 3d 8a dd 1d 3d aa f9 c4 bd 8d 24 cc bd
       0.07372065 0.038541354 -0.09617932 -0.09967909
0000c0 43 0b 9c 3d 5e d3 0e 3d e4 8b b3 b9 87 d1 1f bd
       0.076193355 0.034869544 -0.00034245767 -0.03901818
0000d0 c4 f5 fe 3c 07 93 b5 bd a1 ff 07 3d ba dc 0f 3b
       0.03112305 -0.08865934 0.03320277 0.0021951632
0000e0 73 38 89 3c 1a 34 a5 3c a5 f8 7b bb f0 1c 32 3d
       0.01675055 0.020166446 -0.0038447764 0.04348463
0000f0 a9 f7 e4 bd 50 f9 88 bc 02 e1 63 3d 44 7e 9b 3c
       -0.1118005 -0.016720444 0.055634506 0.018981107
000100 21 77 3c bd f4 89 1a 3b d4 41 69 3d 4b b2 92 bd
       -0.046012048 0.0023580762 0.056947544 -0.07162913
000110 99 dd 28 3d 7f 4b f4 3a b8 a8 23 3b cf 90 6e 3d
       0.041226957 0.0018638222 0.002497239 0.05824357
000120 8a 96 11 bb 53 e0 4d 3d db 11 7c 3a 47 4a 98 bd
       -0.0022214972 0.05026276 0.0009615698 -0.07436042
000130 7a fe 4d 3c b0 33 7e bd 73 65 89 bd fc 97 99 bd
       0.012572879 -0.06206101 -0.06708803 -0.07499692
000140 bf a1 96 bd 9a e2 bd bd 63 96 c0 3b 22 8a 9b bd
       -0.07355069 -0.092717364 0.0058773025 -0.07594706
000150 a8 37 9d 3d f9 f2 2b bc c1 6a 1c bd 7e ba 8b bd
       0.07676631 -0.010494941 -0.038187746 -0.0682268
000160 8e 33 e7 bc c9 48 11 3d f6 76 bf bb 02 86 51 bd
       -0.028222825 0.035469804 -0.0058430387 -0.05115319
000170 b1 6e 3a bd 55 26 58 3c 3f 57 6c bd 90 30 c9 bd
       -0.04551572 0.013192733 -0.05770039 -0.09823716
000180 5e 11 ca bc 7f c1 7b 3c 29 00 28 3d 44 da f3 3c
       -0.024666484 0.015365957 0.041015778 0.029767163
000190 d7 8a 2d bc 2a 90 b7 bd e9 4c 8c 3d 74 aa 0c 3d
       -0.010592184 -0.08963044 0.06850607 0.034342244
0001a0 f0 12 16 3c b8 79 7b 3d 1f 00 2e 3c da 08 1d bd
       0.0091597885 0.061395377 0.010620146 -0.03833852
0001b0 3c ed a3 3d 79 87 92 3d 5d af 87 3d 0a 5b 97 3c
       0.08004233 0.071547456 0.06625245 0.018476028
0001c0 aa 73 6e 3d 26 20 bf bd f8 a9 ac bd fd 3a 8c bd
       0.058215775 -0.09332304 -0.084308565 -0.068471886
0001d0 e4 7b 3d 3d 38 09 bb bd be fe 86 bd 80 cc b1 3c
       0.04626073 -0.09132618 -0.06591557 0.021703959
0001e0 a2 18 ca bc 5e b3 c1 bd b1 d3 0d 3d 8f 4a 81 bc
       -0.024669949 -0.0945804 0.034625713 -0.015782623
0001f0 97 42 d6 3b 45 eb 86 3d d2 63 9b bd d1 17 4d bd
       0.0065387 0.06587843 -0.075873986 -0.05007154
000200 7d fc eb bc 8d 7a 5a bb df 2d 11 3c a2 83 8d bd
       -0.02880692 -0.0033337206 0.008861034 -0.069098726
000210 ac 7a 87 bc 40 60 21 bc 50 d8 6b bd 34 d3 37 3d
       -0.016537987 -0.009849608 -0.05757934 0.044879153
000220 50 6c b8 ba 9f dc 96 bd 44 86 e2 3c d0 d0 b0 bd
       -0.0014070366 -0.07366299 0.027651913 -0.08633578
000230 c8 de f0 bd 12 ef f4 3c 3d fa c5 3c 95 0d 95 3c
       -0.11761242 0.029899154 0.024167174 0.018194953
000240 1a 5a db 39 92 61 13 3d 78 e0 d0 bd 38 46 c8 bd
       0.00041838066 0.035981722 -0.10199064 -0.09779018
000250 80 0a c2 3c 5e 75 1d 3d 08 8a 8c 3c 94 35 ae bb
       0.023686647 0.03844201 0.017155662 -0.0053164456
000260 f1 13 83 bd bf 45 5e 3d e5 41 59 3c d6 bb 97 bd
       -0.06400288 0.054265734 0.013260339 -0.07408874
000270 eb 57 c7 3b 1d b2 b7 bd 9c 91 8b bd c2 34 83 bd
       0.0060834787 -0.08969519 -0.06814882 -0.06406547
000280 11 bd 02 be d0 c6 af bc b8 ae 05 be 5b 3b a8 bd
       -0.12767436 -0.021457106 -0.13054931 -0.08214446
000290 d9 77 bd 3c 07 c1 0e 3d 2b f0 cc 3c 73 68 1d 3c
       0.023128437 0.034852054 0.025016865 0.009607422
0002a0 cc 92 f3 bb 9e e8 f2 bd 59 87 f4 bd f0 5c 80 bd
       -0.007433271 -0.118607745 -0.11939878 -0.062677264
0002b0 45 d5 bc 3c 51 da a1 3c 9d 9b be bc 6f a9 86 3d
       0.023050914 0.019757422 -0.023267562 0.06575286
0002c0 bf 16 12 3d 6d 65 56 bd 69 70 6e bd 7b 1b 26 bd
       0.035666224 -0.05234282 -0.05821267 -0.04055355
0002d0 25 f5 12 bc 55 bd 01 bd 4f a2 6e bd 88 24 05 3d
       -0.00896958 -0.0316747 -0.05826026 0.032505542
0002e0 59 96 01 bd 58 e6 bf bd 5e 3e f8 3c df 20 5b bd
       -0.031637523 -0.093701065 0.030303176 -0.053498145
0002f0 22 c0 7d bc 09 b9 fb bd 7c 02 de bb 2f 11 32 bd
       -0.015487703 -0.12291152 -0.0067751985 -0.04347342
000300 b2 f9 ba bd e0 d5 f3 bd ed 8a 52 3d bc c9 e0 3c
       -0.09129657 -0.11906028 0.05140202 0.027439944
000310 04 20 b0 3c 89 b4 3f 3d 31 5b 81 bd 66 72 a4 bd
       0.021499641 0.04680303 -0.063162215 -0.08029632
000320 d5 3f b6 3c f8 5b 40 3c 16 bf ad bd 93 ec 72 bd
       0.022247234 0.011740677 -0.084837124 -0.059307646
000330 d5 30 9d 3c 09 b7 1b bd f5 b5 6c bd a6 45 27 3d
       0.019188324 -0.038016353 -0.057790715 0.040837906
000340 10 97 9b 3c 4d 60 c8 bd 8b e4 4f bc d9 1b 8f bd
       0.01899293 -0.09783993 -0.012688766 -0.069877334
000350 dd f3 e3 3c af a0 cb bc 4b 7d 0d be ed 2a eb 3c
       0.027826244 -0.024856893 -0.13817327 0.028706992
000360 fb d5 04 bd 84 99 f5 3c 03 f0 08 bd 28 03 f6 3c
       -0.03243063 0.029980429 -0.033432018 0.030030802
000370 94 50 6a bd c2 87 36 3d 97 2b 20 3d 95 53 fd 3c
       -0.05720575 0.044563062 0.03910407 0.030923644
000380 b8 6b 99 bc 75 29 b3 bd 5a 51 01 bd 5b 80 b0 bc
       -0.018728122 -0.08748142 -0.031571724 -0.02154558
000390 22 a3 85 bd 9f 43 ed 3c 4b 85 76 bc 85 ac 86 bd
       -0.06525256 0.028962908 -0.015046428 -0.06575874
0003a0 36 b0 67 3d 37 9b 04 be d3 17 7c 3d 3b 88 fb bc
       0.056564532 -0.12949835 0.061546158 -0.030704608
0003b0 d6 66 6b 3c b9 71 ad bd ce af 62 3d a0 ac 70 bc
       0.01436778 -0.084689565 0.05534344 -0.0146895945
0003c0 92 2a 55 3b fd a6 a4 3c b6 17 7d bd f8 b8 35 bd
       0.0032526595 0.020099157 -0.06179019 -0.044365853
0003d0 4d 1d 5a bc aa 00 bb bc fd 52 37 bd 3c 1d 5b bd
       -0.01331265 -0.022827465 -0.04475688 -0.053494677
0003e0 e9 57 72 3c cb 6b 91 bc 51 4b 11 3c d9 74 33 3d
       0.014791467 -0.017751595 0.0088680545 0.043812606
0003f0 2b 7f 91 3d c8 48 11 3d 38 ff f2 bc b9 bb 47 3d
       0.071043335 0.0354698 -0.029662713 0.04876301

bias f4 [128]
000000 80 3c 45 bd d5 10 24 bc 64 6b fb 3e 70 47 c4 3e
       -0.0481534 -0.010013779 0.4910537 0.38335752
000010 5b eb b2 3e 5a 1d 0f bd 01 23 94 bd e6 f4 34 bd
       0.34945187 -0.0349401 -0.07233239 -0.044178866
000020 a6 df f4 3e d3 e6 b5 bc b4 a8 d2 3e 87 bd 73 bd
       0.4782688 -0.022204792 0.41144335 -0.05950692
000030 0d b2 06 be 39 43 bf 3e 49 54 fd bc 3d 7b e9 3e
       -0.13153858 0.37355974 -0.03092398 0.45601836
000040 1d 41 da 3e 66 09 d7 3e 6e 73 9b bc 20 96 cd bd
       0.42627802 0.41999358 -0.01897594 -0.100384
000050 ea 4e a1 bd a3 5c cd bd 41 22 d1 3e f6 0c 12 bd
       -0.0787638 -0.10027435 0.40846446 -0.03565689
000060 85 26 d3 3e fa 0d 5f bd 47 02 d5 bd b6 67 cf 3e
       0.41240326 -0.05445669 -0.10400825 0.40508813
000070 40 5f e4 bd 04 44 07 3f 03 60 ff 3b 78 2f 9d bd
       -0.1115098 0.5283816 0.007793428 -0.076750696
000080 3c 19 ff 3e f9 60 ee bc ed 92 ec 3a b9 81 03 bd
       0.4982394 -0.029098975 0.0018049158 -0.032106135
000090 94 d3 d7 bd 00 57 cb 3c b7 a9 65 be 61 e3 be 3e
       -0.10538402 0.024821758 -0.22428022 0.3728285
0000a0 95 a1 cb bc 76 a0 74 3c 27 3f 9d bc df cf c1 3e
       -0.024857322 0.014930835 -0.019195152 0.37853906
0000b0 22 cf 21 be fd 63 fa 3c 5e 16 bd 3e 99 4e b0 bd
       -0.15801671 0.030565256 0.36931127 -0.08608741
0000c0 bc 96 52 3d 50 33 df bd ec 4b a4 3e 46 78 dc 3e
       0.051413283 -0.10898459 0.32089174 0.4306051
0000d0 0c 42 be bc 33 93 b1 bd 7f 04 db 3e 95 5a d6 3e
       -0.023224853 -0.08670654 0.42776868 0.41865984
0000e0 74 0b d6 3e 1c 17 a8 3e a9 fd 89 bc e9 dc df bd
       0.41805613 0.3283013 -0.016844587 -0.10930807
0000f0 cb 86 e5 bb a0 bb 6e bd d2 97 5e bc e6 69 62 be
       -0.007004594 -0.058284402 -0.0135860015 -0.2211071
000100 0b 1d c7 3c 2e 82 b2 3e 32 bf c9 3e 84 d5 bc 3e
       0.024305841 0.34864944 0.39403683 0.3688165
000110 81 cf b9 3e c3 68 a8 3e 5d 46 e9 bd 8c f0 d5 3e
       0.36291125 0.32892427 -0.11390374 0.41785085
000120 1e 19 59 3a d6 af b9 3e bf 5a d3 3e e2 4a f9 3c
       0.0008281636 0.36266965 0.4128017 0.030431215
000130 4a 30 6c bd 9c 1a 08 3d f0 af a3 bd 26 34 c9 3e
       -0.05766324 0.0332285 -0.07992542 0.392976
000140 5f cb 69 bd 0b e6 90 3e c3 1d d6 3e 35 4f d0 bd
       -0.057078715 0.2830051 0.4181958 -0.101713575
000150 85 00 b4 bd 5f 5e af 3e ea 0c 96 bd 63 94 5c 3d
       -0.087891616 0.34251687 -0.07326682 0.05385245
000160 fb 63 bc 3c 42 46 c9 bb 6b 08 6f bc 74 9c c5 3e
       0.022996893 -0.0061424086 -0.014589409 0.38595927
000170 3b c5 c7 3e 85 38 cd 3e 99 15 58 be ba 53 e4 39
       0.39017662 0.40082183 -0.21101989 0.0004354993
000180 cd 87 62 bd f8 9a df 3e 12 7e e0 3e cf 46 fa bc
       -0.05530529 0.4367292 0.43846184 -0.030551342
000190 c2 9a ea bd 11 83 ef 3e a0 2c dc bd c1 07 b6 3e
       -0.11455299 0.46779683 -0.10750699 0.3555279
0001a0 f5 6d f4 3e c1 6c b2 3e 95 c0 01 be 4f bb b5 bb
       0.4774014 0.34848598 -0.1267112 -0.0055460106
0001b0 0b 62 d3 3e de 2e 33 bd f7 88 00 3f b0 a6 c6 38
       0.41285738 -0.043745868 0.5020899 9.472424e-05
0001c0 73 27 d1 3e fc 91 08 bc 90 29 88 3e b7 9d 0a be
       0.4085041 -0.008335587 0.2659421 -0.13536726
0001d0 f9 30 99 bd 05 08 c1 3e 1d 1c 0c 3c e8 50 b3 bc
       -0.07480044 0.3770143 0.008551625 -0.021889165
0001e0 00 c4 a5 bd ce 8c c2 3e b7 a4 f0 bd 02 41 a2 bd
       -0.08094025 0.3799805 -0.11750167 -0.079225555
0001f0 96 bd 0a 3d 94 d4 e3 bd 32 e3 bf 3e 37 a6 54 bd
       0.03387221 -0.111245304 0.37478024 -0.051916327

weight f4 [2, 128]
000000 13 04 80 bd 47 5c 87 b9 c4 bc 24 3f d4 fe 50 3f
       -0.06250777 -0.00025817959 0.64350533 0.81638837
000010 6e b5 35 3f de 31 49 bd 7f ca 8c bd 65 d6 18 bd
       0.70979965 -0.049119823 -0.068745606 -0.037313838
000020 ea 52 2b 3f 34 0f bb bc 67 9f 38 3f ac a7 9c bd
       0.6692339 -0.022834398 0.7211823 -0.07649168
000030 65 12 63 3d 5f f0 54 3f 53 be 79 bd 56 e6 2f 3f
       0.055437464 0.8317928 -0.060972523 0.6871084
000040 10 56 1d 3f 2d 52 1c 3f 86 39 a7 bc 30 44 3b bd
       0.61459446 0.6106289 -0.020413171 -0.045719326
000050 d8 cb aa 3c 71 c1 99 3d 23 23 25 3f 96 80 cb 3c
       0.020849153 0.07507599 0.6450674 0.024841588
000060 37 03 ce bd 60 03 14 3d b7 f5 eb bc 21 77 49 3f
       -0.10059207 0.03613603 -0.02880369 0.786974
000070 f6 b9 1f 3d ba 34 4b 3f ef df 4e bc 8c 70 87 3c
       0.038995706 0.7937733 -0.012626632 0.016533159
000080 30 99 cc 3e 6f f6 6a 3d 44 25 6a bc ea 47 bb bc
       0.39960623 0.057363924 -0.014291111 -0.02286144
000090 c6 8c f7 be 1c 60 6c bd 47 33 ba bd be a8 1d 3f
       -0.4834959 -0.057708845 -0.090918116 0.61585605
0000a0 55 b0 1f bc df 2a 73 3d f1 b0 34 3d 0a 8c 42 3f
       -0.009746631 0.059367057 0.044114057 0.7599493
0000b0 b9 d5 45 bd 14 22 0a bd 40 39 40 3f 08 5d 49 3d
       -0.048299525 -0.033723906 0.75087357 0.049160987
0000c0 7e 2b fb bc 69 64 05 3d 6e 91 36 3f 4b 19 37 3f
       -0.030660387 0.03256646 0.7131566 0.7152297
0000d0 bf 17 93 3c 1b d7 07 bd 06 db 42 3f 56 0f 2a 3f
       0.017955659 -0.033164125 0.76115453 0.6642965
0000e0 1e d2 43 3f 4a 00 4a 3f 62 3b d6 bc 89 60 10 bd
       0.7649249 0.7890669 -0.026151363 -0.035248313
0000f0 df 81 6a bd 08 96 c9 bc af 31 ac 3a b5 58 43 bf
       -0.05725276 -0.024607673 0.0013137365 -0.7630723
000100 27 d9 93 bd 6a 90 2f 3f dc 58 5c 3f 2a b9 0a be
       -0.07219153 0.68579733 0.8607309 -0.13547197
000110 ce 5a 45 3f 45 67 2c 3f 60 95 a0 3d 38 88 4e 3f
       0.7709168 0.67345077 0.07840991 0.80676603
000120 4f e5 0a 3d 7c 28 50 3f 71 c6 1e 3f a0 d5 26 bd
       0.033910092 0.81311774 0.6202155 -0.040731072
000130 8a 33 00 bd e1 f4 70 bd dd 11 b4 bc 72 ab 37 3f
       -0.03129915 -0.058827285 -0.021981174 0.7174598
000140 b8 09 77 bd ae 19 42 3f ec 0e 39 3f 1f 6c 89 3d
       -0.060312003 0.75820434 0.72288394 0.067100756
000150 cd 28 2f bc 66 63 3b 3f 6b fd 9e 3d d1 d5 54 bd
       -0.01069088 0.73198545 0.077631794 -0.051961724
000160 65 a8 0a 3c 62 a2 43 bd 23 93 09 bc b8 a5 0f 3f
       0.008463 -0.047762282 -0.0083968965 0.5611224
000170 69 07 1a 3f 41 01 43 3f 76 20 0c c0 b2 0b ed ba
       0.60167557 0.7617379 -2.1894813 -0.001808515
000180 f9 93 41 bd e1 51 12 3f 57 87 4c 3f bf be 99 3d
       -0.04726026 0.5715619 0.7989401 0.07507085
000190 a9 71 da be df 3a 34 3f de e4 fa be 75 94 45 3f
       -0.4266484 0.7040233 -0.49002737 0.7717965
0001a0 94 cd 20 3f a2 14 29 3f c6 46 8e bd cf 8e 20 bd
       0.6281369 0.6604711 -0.06947093 -0.039198693
0001b0 81 3b 59 3f 90 79 c2 3c 37 56 3d 3f e7 80 4a 3d
       0.8485642 0.023739606 0.7395968 0.049439337
0001c0 2a 45 4e 3f d7 35 40 3d 2e 42 21 3f dc 14 36 bf
       0.80574286 0.046926346 0.6299161 -0.7112558
0001d0 84 3d 55 3d 03 01 32 3f 56 6d 50 3b bc a6 0c bd
       0.05206062 0.69532794 0.003180345 -0.034338698
0001e0 70 59 e6 bc 62 ab 46 3f a1 2b 00 bd 5c 4d 1c bd
       -0.028118819 0.7760526 -0.031291608 -0.038159713
0001f0 22 68 53 bd a0 e5 24 3c 5f 31 3a 3f d1 9e 1c bd
       -0.05161298 0.0100645125 0.72731584 -0.038237397
000200 39 f2 7a 3d 6e db 0c bd 0d bb 26 3f c9 6f 19 3f
       0.061266158 -0.034388952 0.65129167 0.59936196
000210 e8 1d 2e 3f 15 57 07 bd 85 2a 12 bd 19 5b 8d bc
       0.68014383 -0.033042032 -0.03568508 -0.017255353
000220 41 28 30 3f 91 60 8d 3d 88 50 5a 3f a2 35 29 bd
       0.6881142 0.06903184 0.8527913 -0.041310914
000230 02 59 82 3d 1d b6 51 3f 6b 1f 84 bd b3 83 50 3f
       0.06364633 0.8191851 -0.06451305 0.8145096
000240 4b 8e 38 3f fe 9c 66 3f a5 f5 57 bd 44 7d 10 bd
       0.7209212 0.900833 -0.0527245 -0.035275713
000250 9c d0 e9 bc b8 ba 89 3d 63 ac 4f 3f 52 d4 33 bc
       -0.028541856 0.06725067 0.81122416 -0.010975914
000260 39 f2 3e 3f 99 db 83 3c 1a 21 a6 3c 48 b6 32 3f
       0.7458835 0.016095923 0.020279456 0.6980939
000270 0a 36 d9 3c ac cc 3a 3f 6c e3 b4 bc 81 70 e6 b9
       0.026515026 0.72968554 -0.0220811 -0.0004395284
000280 03 a8 2b 3f 8f 1c 56 bd 68 f0 c4 3c ab 81 06 3d
       0.6705324 -0.05227333 0.024040416 0.032838505
000290 2a 21 04 bf 9f 54 73 3c 12 4a 94 bf 68 ff 40 3f
       -0.51613104 0.014851718 -1.1585104 0.7538972
0002a0 c2 74 6c 3c d4 cf 88 bd e0 7a 51 bd a9 d6 3c 3f
       0.014432134 -0.06680265 -0.051142573 0.73765045
0002b0 25 12 f7 bc 3b 05 30 bd 02 e2 d2 bd 47 07 d0 3c
       -0.03016002 -0.04297374 -0.10297014 0.025394095
0002c0 f4 0f 8e b9 be 0d a1 bd d0 1f 48 bf fe 06 27 3f
       -0.00027096237 -0.07863949 -0.7817354 0.65245044
0002d0 2b 1c bc bd ba 7c bc 3b 3c fb 6a 3f a0 62 5c 3f
       -0.0918506 0.0057521733 0.91789603 0.8608799
0002e0 b1 bf 4e 3f 0b 44 44 3f 78 28 87 bd c2 02 67 bc
       0.8076125 0.76666325 -0.06599516 -0.014099779
0002f0 3d df ca 3c 8d e3 61 3c 71 d1 bd bc 10 cd 8f bf
       0.024764651 0.0137871625 -0.023171159 -1.1234455
000300 d1 df 76 3c e2 38 51 3f ef ac 47 3f 70 e5 12 3f
       0.01506801 0.8172742 0.7799825 0.57381344
000310 73 bc 23 3f b8 83 5f 3f 6f fb 48 bd cc cb 05 3f
       0.63959426 0.8731036 -0.04906791 0.52264094
000320 0c 30 50 bd 41 c5 46 3f d1 87 36 3f a6 a0 9d 3d
       -0.05082707 0.77644736 0.7130099 0.07696657
000330 2f 40 08 3d e6 4c b4 3c 80 23 c5 3c 93 00 2b 3f
       0.033264335 0.022009324 0.02406478 0.6679775
000340 9e 44 43 bc 88 c1 70 3f d1 18 27 3f bb a9 33 bd
       -0.011918215 0.94045305 0.6527224 -0.04386304
000350 06 d2 fa bb 51 cc fb 3e 4d 00 24 3d 5e 67 d7 3a
       -0.0076544313 0.4917932 0.04003935 0.0016434004
000360 f4 c7 7b bd d5 4c 67 bc e7 53 84 3d fb e4 47 3f
       -0.061469987 -0.014117439 0.064613156 0.7808377
000370 cd d6 58 3f ac c9 24 3f c5 8b 01 c0 07 56 ea 3b
       0.8470276 0.64370227 -2.0241559 0.0071513685
000380 ce 35 a1 bb ff 5e 58 3f 9e 4e 4c 3f 55 87 02 be
       -0.004919744 0.8451995 0.7980746 -0.12746938
000390 ef b1 0f be f6 9d 2c 3f e0 08 37 3f 6f 50 ce 3e
       -0.1403272 0.6742853 0.7149792 0.4029574
0003a0 e2 c3 42 3f da 57 41 3f b5 c6 0a bd 74 c8 1a 3d
       0.76080143 0.75524676 -0.033880908 0.037788823
0003b0 6f 5f 33 3f 56 e5 9a bc 1b 98 38 3f b0 6c dd 3c
       0.70067495 -0.018908184 0.72107095 0.027029365
0003c0 42 bf 44 3f 4d f6 8d bd 18 21 75 3f 64 47 cb 3e
       0.76854336 -0.06931744 0.9575362 0.39702904
0003d0 4b 1c 7e bd 1a ca 54 3f c9 31 4f 3d 1d f8 20 bd
       -0.0620387 0.8312088 0.05058459 -0.03929912
0003e0 90 db 5d bd 0b cc 47 3f ed 57 d5 bc 9a 78 15 3d
       -0.05416447 0.7804572 -0.026042903 0.036491968
0003f0 f4 e2 76 bd b1 c3 95 bc b0 3f 49 3f 64 2a a0 bc
       -0.060275033 -0.01828179 0.78612804 -0.019551463

bias f4 [2]
000000 bd cb de 3e fc 31 d0 3e
       0.43514815 0.40663135
