bpa_2/tasks_bpa2/tasks/solution/b2d.pt (torch, 73061 bytes, 6 tensors)

weight f4 [128, 4]
-0.04171383 0.119228266 0.6961975 0.4387838 -0.1551641 0.58940387 -0.9987276 0.23317608
-0.19252753 0.026529018 -1.7251953 -0.18759498 0.12580806 0.14219664 0.55329424 -0.19280228
0.067855425 -0.08494053 0.5420181 -0.032621093 0.41730177 -0.020353567 0.37665117 0.0028874376
0.08199057 -0.09196434 -0.3693474 0.033115745 -0.08235721 0.05512311 -2.409644 -0.19864233
0.0623987 0.21474418 0.5905928 0.09593226 -0.110119775 0.29151273 0.5941748 0.26389512
-0.41221783 -0.36866486 -0.3476062 -0.23811178 -0.038508445 -0.046747822 1.8046008 0.08899507
-0.0019660005 0.028895855 -0.4166882 0.033687387 0.17523445 -0.018412612 0.65745676 -0.11721266
-0.20396523 -0.15323019 1.0455568 -0.12113136 0.0010859387 -0.14508803 1.9052273 0.17137551
-0.03213674 -0.10090822 0.48428446 -0.10895312 0.055686716 -0.11767899 -0.89379406 -0.057942774
-0.416542 -0.24487871 -0.13355607 -0.14832875 -0.09099194 0.1713729 -0.78370947 -0.20967998
-0.18667357 0.35971743 0.8339161 -0.006207047 -0.005458528 -0.07045676 2.1108825 0.058877848
0.042359397 -0.014391074 -0.1671571 0.025906743 -0.20557821 0.59875 1.5267228 0.49738038
0.0029839885 0.04541169 -0.19171622 0.20591648 -0.22119014 0.30878308 -0.17985274 0.0007774477
0.027938822 -0.053650677 2.1396656 0.10828292 -0.10281177 0.22936845 -0.55125546 0.079357974
-0.01437225 0.015253126 2.1944697 0.28660056 -0.32693443 -0.12248327 0.9761425 -0.05057261
-0.10003158 0.117680326 0.46177492 0.32096988 -0.03353822 0.040300492 -1.382301 -0.1137095
0.13920745 -0.19375208 0.36516708 0.39600366 0.37132648 0.17237283 1.0293692 0.2136233
0.004092117 -0.14259443 -1.2705846 -0.2701056 0.267086 0.1713869 1.2353134 0.15474771
-0.035692763 0.0902585 0.17346147 0.2810049 -0.20526993 0.2575074 -0.09656769 0.29577035
-0.2404564 0.69582516 1.148687 0.51022893 -0.36611676 -0.2173237 -0.38071093 -0.119778804
-0.39367518 0.3117427 0.9479299 0.28925785 0.12625895 -0.12032663 -0.4668718 0.007634335
0.44432837 0.088598356 0.5264341 0.047386736 -0.08995073 0.3850296 0.67302155 0.20947699
0.05517728 -0.23000534 0.29393342 -0.18187459 0.102131434 -0.11010905 0.30677384 -0.17390783
-0.18921517 0.4887913 -1.1031367 0.29235512 -0.074197836 0.052173506 -2.019838 -0.27554986
-0.2934036 0.45413703 0.5064381 0.3490783 -0.014767888 0.037253685 0.5589285 -0.18558092
0.12878695 -0.26782316 0.66816354 -0.2888724 -0.07153667 0.036856566 0.85647017 -0.019464778
0.148364 -0.07287219 -1.5404075 -0.21434857 0.3238726 -0.58333194 -0.77888966 -0.416079
0.14009026 -0.10434119 -1.0703102 -0.3217027 -0.35149813 0.11963736 -0.7011114 0.06245822
-0.059091184 0.11055576 -1.9538127 -0.19413033 0.38868046 0.023802102 -0.83358395 -0.04349235
-0.008466137 0.27352223 -0.21432044 -0.026359206 -0.15510687 0.3063007 0.37960517 0.15780367
-0.2756392 -0.4590981 -0.7141492 -0.3808889 0.32974103 -0.29274237 -0.5155317 -0.25747675
0.105272174 0.12500314 0.09492787 -0.014386129 -0.0083299065 0.034694266 1.3743602 0.1499826
00000000: 1fdc 2abd f32d f43d 003a 323f 45a8 e03e
00000010: 56e3 1ebe 2ce3 163f 9dac 7fbf b6c5 6e3e
00000020: f025 45be 6253 d93c 33d3 dcbf e618 40be
00000030: d4d3 003e ff9b 113e b1a4 0d3f f66d 45be
00000040: c9f7 8a3d 4df5 adbd b3c1 0a3f b29d 05bd
00000050: 94a8 d53e 86bc a6bc 6cd8 c03e 2a3b 3d3b
00000060: acea a73d cd57 bcbd 1a1b bdbe 60a4 073d
00000070: e6aa a8bd c5c8 613d 9b37 1ac0 e568 4bbe
00000080: c795 7f3d e6e5 5b3e 1731 173f 2278 c43d
00000090: 7a86 e1bd 2841 953e d71b 183f 431d 873e
000000a0: 370e d3be a4c1 bcbe 71f9 b1be 93d3 73be
000000b0: 08bb 1dbd a57a 3fbd 29fd e63f 0c43 b63d
000000c0: 04d8 00bb 00b7 ec3c 2858 d5be c9fb 093d
000000d0: a970 333e 0cd6 96bc 164f 283f 310d f0bd
000000e0: 43dc 50be 60e8 1cbe ced4 853f b813 f8bd
000000f0: 0e56 8e3a f591 14be 7dde f33f 107d 2f3e
00000100: d0a1 03bd f8a8 cebd 22f4 f73e d022 dfbd
00000110: c117 643d af01 f1bd b0cf 64bf 6755 6dbd
00000120: fe44 d5be 7cc1 7abe ecc2 08be 7ee3 17be
00000130: fb59 babd 617c 2f3e 2fa1 48bf 59b6 56be
00000140: 5b27 3fbe e22c b83e 877b 553f 7c64 cbbb
00000150: 74dd b2bb a24b 90bd b318 0740 e629 713d
00000160: 0c81 2d3d 8ac8 6bbc 3b2b 2bbe 613a d43c
00000170: 1883 52be ae47 193f a76b c33f a4a8 fe3e
00000180: 058f 433b 9c01 3a3d 4251 44be c5db 523e
00000190: ab7f 62be d118 9e3e 512b 38be a2cd 4b3a
000001a0: f5df e43c d0c0 5bbd 48f0 0840 70c3 dd3d
000001b0: fa8e d2bd 90df 6a3e 141f 0dbf 6f86 a23d
000001c0: 9679 6bbc 3fe8 793c 3172 0c40 4fbd 923e
000001d0: f363 a7be 82d8 fabd 7ae4 793f 3a25 4fbd
000001e0: 5bdd ccbd 6202 f13d c36d ec3e 2a56 a43e
000001f0: 5f5f 09bd 2112 253d 3def b0bf 87e0 e8bd
00000200: 668c 0e3e f266 46be 2ef7 ba3e fec0 ca3e
00000210: 811e be3e 8182 303e 5fc2 833f 11c0 5a3e
00000220: 2a17 863b 4604 12be 84a2 a2bf 484b 8abe
00000230: 7fbf 883e 0c80 2f3e c01e 9e3f 2f76 1e3e
00000240: 9332 12bd 73d9 b83d e29f 313e e0df 8f3e
00000250: 4832 52be 03d8 833e 48c5 c5bd 366f 973e
00000260: 343a 76be 9921 323f 2d08 933f 5d9e 023f
00000270: a873 bbbe 1b8a 5ebe 8bec c2be 974e f5bd
00000280: cb8f c9be bd9c 9f3e 89ab 723f 9b19 943e
00000290: 074a 013e cf6d f6bd d209 efbe 7229 fa3b
000002a0: 027f e33e 0e73 b53d 63c4 063f 9818 423d
000002b0: 1738 b8bd 9a22 c53e 244b 2c3f 2381 563e
000002c0: 9201 623d 8586 6bbe 717e 963e 553d 3abe
000002d0: 492a d13d db80 e1bd 7611 9d3e e514 32be
000002e0: 9fc1 41be da42 fa3e 9533 8dbf 92af 953e
000002f0: 09f5 97bd e3b3 553d 0745 01c0 df14 8dbe
00000300: ff38 96be a684 e83e eda5 013f 64ba b23e
00000310: 03f5 71bc 5297 183d f015 0f3f ed08 3ebe
00000320: bae0 033e 1e20 89be c40c 2b3f 15e7 93be
00000330: d181 92bd e9f6 163d a141 5b3f 9974 9fbc
00000340: bbec 173e 043e 95bd 132c c5bf 317e 5bbe
00000350: a1d2 a53e 3e55 15bf 5065 47bf 4f08 d5be
00000360: d273 0f3e d5b0 d5bd edff 88bf 37b6 a4be
00000370: 90f7 b3be 6f04 f53d 097c 33bf 31d4 7f3d
00000380: 9909 72bd 0f6b e23d 8916 fabf 1aca 46be
00000390: 2001 c73e a0fc c23c c265 55bf 0925 32bd
000003a0: 8db5 0abc 1b0b 8c3e d176 5bbe 43ef d7bc
000003b0: 56d4 1ebe 72d3 9c3e 9c5b c23e 4997 213e
000003c0: 9520 8dbe e80e ebbe 7bd2 36bf df03 c3be
000003d0: d1d3 a83e 54e2 95be e3f9 03bf fed3 83be
000003e0: f098 d73d d300 003e 8b69 c23d ccb3 6bbc
000003f0: 297a 08bc 931b 0e3d 09eb af3f 0a95 193e

bias f4 [128]
-0.66159874 -0.17241831 -0.50123334 0.54548126 -0.195815 -0.7894271 0.35006678 -0.3985056
-0.096578196 0.043775637 -0.86453485 -0.37024882 -0.12345911 -0.082573235 -0.6692686 -0.2667275
-0.499586 -0.39663187 -0.87168175 -0.7093408 0.5503025 -0.39478263 -0.23302776 -0.3395058
0.7109338 0.64991426 -0.41406736 -0.012423515 -0.56016177 -0.7991616 -0.6590578 -0.5041695
-0.44102827 -0.8333515 -0.4242482 -0.41963926 0.14497863 -0.80875415 -0.19714025 0.07644393
-0.5550373 0.37989515 0.055295497 -0.821075 0.33334062 -0.36867762 -0.32525104 -0.27927443
-0.76929724 0.31599525 -0.5320692 -0.4169787 -0.6109242 0.25849572 -0.5972938 -0.84845763
-0.39983904 -0.7819708 0.53243923 0.6356112 -0.6745187 -0.26031613 -0.4330911 -0.39857158
0.29505944 0.024830243 -0.5868979 -0.7991413 0.096305974 -0.08836274 -0.6928832 -0.7528509
0.67615986 0.69717807 -0.3857018 0.62315005 -0.09616168 0.21962835 0.6815248 0.17551775
-0.20031416 0.26043296 -0.09807505 -0.5558662 -0.37860787 0.05170949 -0.0004869475 -0.49947858
-0.5454734 0.39691764 -0.39082897 0.6224056 0.33858365 0.16711617 -0.15443386 0.50293285
0.5903267 -0.31682634 0.11020262 -0.41384056 -0.3466704 -0.8052072 -0.64464504 0.01824371
-0.4627845 -0.86069095 -0.08633669 -0.3425127 0.596617 -0.37801653 -0.18089508 0.690647
-0.80983734 0.20825383 -0.37716854 0.42887047 -0.73891985 -0.4753705 -0.6275446 -0.91344947
-0.5282616 0.20200482 -0.14976296 -0.25789952 0.69343877 -0.5046012 0.64567715 -0.44807306
00000000: 895e 29bf 6d8e 30be d450 00bf a9a4 0b3f
00000010: ba83 48be e517 4abf f43b b33e ed08 ccbe
00000020: caca c5bd 154e 333d 2852 5dbf 4191 bdbe
00000030: 21d8 fcbd 281c a9bd 3055 2bbf 8290 88be
00000040: bcc9 ffbe 5513 cbbe 8926 5fbf 5c97 35bf
00000050: a0e0 0c3f f320 cabe d49e 6ebe b4d3 adbe
00000060: c2ff 353f c860 263f a300 d4be 008c 4bbc
00000070: c366 0fbf db95 4cbf 03b8 28bf 4111 01bf
00000080: 75ce e1be 8656 55bf 0f37 d9be f5da d6be
00000090: 4775 143e 830a 4fbf 22df 49be a38e 9c3d
000000a0: ed16 0ebf 9e81 c23e 887d 623d f931 52bf
000000b0: 9fab aa3e 50c3 bcbe 4e87 a6be 0ffd 8ebe
000000c0: aaf0 44bf 21ca a13e b035 08bf 3b7e d5be
000000d0: 8765 1cbf 8d59 843e 3fe8 18bf 8534 59bf
000000e0: b4b7 ccbe 3d2f 48bf f04d 083f 6ab7 223f
000000f0: 42ad 2cbf 2848 85be 1ebe ddbe 9311 ccbe
00000100: 0812 973e cb68 cb3c f13e 16bf 8694 4cbf
00000110: 113c c53d 86f7 b4bd cb60 31bf d6ba 40bf
00000120: d018 2d3f 437a 323f b57a c5be c386 1f3f
00000130: 6af0 c4bd 41e6 603e 6978 2e3f edba 333e
00000140: 281f 4dbe 7857 853e 92db c8bd 3f4d 0ebf
00000150: e4d8 c1be 55cd 533d fd4c ffb9 a8bb ffbe
00000160: 25a4 0bbf ca38 cb3e bc1a c8be f955 1f3f
00000170: d65a ad3e 8020 2b3e e923 1ebe 35c0 003f
00000180: a71f 173f 1037 a2be e9b1 e13d e9e2 d3be
00000190: c87e b1be 0f22 4ebf 7507 25bf d573 953c
000001a0: 17f2 ecbe 3e56 5cbf 4ad1 b0bd d35d afbe
000001b0: e4bb 183f 628b c1be 8f3c 39be 3ece 303f
000001c0: 8051 4fbf 7e40 553e 3c1c c1be e994 db3e
000001d0: da29 3dbf c363 f3be c3a6 20bf d3d7 69bf
000001e0: 273c 07bf 5ada 4e3e 765b 19be 680b 84be
000001f0: 3485 313f 8b2d 01bf 194b 253f d569 e5be

weight f4 [128, 128]
-0.055644028 -0.07264561 -0.08811369 -0.03467611 0.013849192 -0.10788543 -0.10510632 -0.016220741
-0.06861493 0.06207866 0.06572892 -0.026460964 -0.044634685 -0.098644756 0.029628696 -0.07424955
-0.03159333 -0.070239596 -0.013258566 -0.015625449 -0.029280521 -0.061173696 -0.025668494 -0.006678624
-0.019050373 0.0005951432 0.0029387649 -0.025970066 0.08657226 -0.05400968 -0.022924397 -0.05401224
-0.05957972 0.04515435 0.047139343 0.08012562 -0.005463746 0.047780648 0.061918493 -0.07144071
0.038670998 -0.041647986 -0.0063779694 -0.0247372 0.051409677 0.035046104 -0.08848297 -0.04701412
0.084430784 -0.121906035 0.005307816 -0.049786687 0.002189584 0.019212447 -0.035623718 0.03943032
0.07620984 -0.057033293 -0.07872468 -0.02478156 0.009313052 -0.034213103 -0.09341955 -0.0078159645
-0.032694098 0.012541323 -0.0755145 0.06463899 -0.014761126 -0.06489445 0.053315844 0.01680396
-0.0062531126 -0.076900996 0.07283987 -0.10694027 0.013609053 -0.0005591889 -0.044396237 0.055252448
-0.07156854 -0.116945885 0.043705076 -0.07794063 0.060833793 -0.058764882 0.06702332 0.057985216
-0.017691512 -0.032779276 -0.047346283 -0.05672712 -0.014719877 -0.086524054 -0.025628215 0.009617478
-0.0788617 -0.05375337 -0.11474443 0.03445744 -0.00650982 0.057992186 0.01593527 0.03651729
-0.026252028 -0.021446455 -0.090594016 0.057313338 -0.035425212 -0.010701581 -0.07197741 0.020190742
-0.09475003 -0.10755249 0.0075768935 -0.03689493 -0.082552336 0.042323116 -0.017469905 0.06444567
-0.05408803 0.042989146 0.046171647 -0.06553599 0.049941443 0.05888491 0.049879316 0.07638559
-0.43808585 -0.1863477 0.2258403 0.13897265 -0.059549876 -0.46722916 0.08733547 -2.0003314
0.02098264 0.0033085367 -1.2044003 -0.6926027 -0.05424204 0.048525743 -0.7745052 -0.47727376
-0.06977517 -0.061222486 -1.3224473 -0.21757005 0.20452106 -0.8622809 0.0039060875 -0.86333627
0.18536271 0.11532706 -1.76912 -0.09660819 -1.7031995 -1.3353246 -0.104679264 -0.41015762
-0.0063443845 -0.714458 -0.29754752 -1.661033 0.15299056 -0.073522985 -0.12714134 0.16403939
-0.36584878 0.15226161 0.03100066 0.13655397 0.103170276 0.00041610491 -0.4970421 0.19848701
0.09532576 0.0067824596 0.015912473 -0.12930846 -0.5907848 0.29594603 0.0919437 -0.61352366
-0.59622234 0.10674726 0.05905243 0.09807513 -0.55524516 -0.19692953 -0.18239747 -0.9436378
0.027279845 -0.017323688 0.48016545 -1.4798948 0.11788804 0.065325946 0.029416792 -0.45545754
0.30507764 0.2056719 -1.4801588 0.18655357 -0.16399 0.24045233 0.23302501 -0.09136682
0.09810365 0.0046911314 -0.12046566 0.149616 -0.46165535 0.020776397 0.008859318 0.26317725
0.095957756 0.2718588 -0.08190196 0.3398856 0.0489081 0.12008518 -0.59475243 0.17094103
0.19109169 0.28730646 0.15756713 -1.4640625 -0.5931644 -0.87918526 -0.4892712 0.032376684
-0.5718806 -1.1824688 -0.07249763 -0.7110774 0.1900207 0.07227278 0.11135889 0.21953565
-0.0629219 0.26488462 0.10525789 0.13694362 -0.7408812 -0.689376 -0.56912744 -1.366735
-0.11350219 0.2122683 -0.095947616 -0.3010691 0.12685709 -0.5041419 0.20159175 0.19643657
00000000: feea 63bd 39c7 94bd f374 b4bd 8908 0ebd
00000010: b9e7 623c 09f3 dcbd fb41 d7bd 5ce1 84bc
00000020: fc85 8cbd 3146 7e3d e29c 863d aac4 d8bc
00000030: dcd2 36bd 4306 cabd e1b7 f23c 2610 98bd
00000040: 0268 01bd c7d9 8fbd 753a 59bc f100 80bc
00000050: b4dd efbc 4591 7abd bc46 d2bc 5cd8 dabb
00000060: 870f 9cbc 6203 1c3a 4b98 403b 2dbf d4bc
00000070: cc4c b13d 4139 5dbd f2cb bbbc f03b 5dbd
00000080: dd09 74bd c5f3 383d 2f15 413d e718 a43d
00000090: 3909 b3bb a4b5 433d 3f9e 7d3d 824f 92bd
000000a0: 7b65 1e3d 1497 2abd 49fe d0bb aba5 cabc
000000b0: f492 523d 818c 0f3d 8f36 b5bd e191 40bd
000000c0: 0cea ac3d dfa9 f9bd 30ed ad3b 20ed 4bbd
000000d0: 207f 0f3b 6c63 9d3c 2dea 11bd b081 213d
000000e0: e813 9c3d be9b 69bd 683a a1bd b302 cbbc
000000f0: c595 183c 0a23 0cbd c052 bfbd 880e 00bc
00000100: 3fea 05bd 1f7a 4d3c 59a7 9abd 7261 843d
00000110: a6d8 71bc 62e7 84bd b761 5a3d 75a8 893c
00000120: e9e6 ccbb 457e 9dbd 122d 953d 8003 dbbd
00000130: 81f8 5e3c 8896 12ba d4d8 35bd 6450 623d
00000140: 8792 92bd 5381 efbd 1804 333d 569f 9fbd
00000150: db2c 793d 72b3 70bd 8643 893d e881 6d3d
00000160: caed 90bc 9043 06bd 2dee 41bd b25a 68bd
00000170: a42b 71bc 8633 b1bd 43f2 d1bc a092 1d3c
00000180: 3e82 a1bd 7e2c 5cbd 21ff eabd 3f23 0d3d
00000190: 5450 d5bb 3789 6d3d af8a 823c 2793 153d
000001a0: 7e0e d7bc 7ab0 afbc 5b89 b9bd 64c1 6a3d
000001b0: 071a 11bd af55 2fbc e468 93bd 0e67 a53c
000001c0: 4e0c c2bd 7b44 dcbd 9747 f83b 231f 17bd
000001d0: 3311 a9bd 015b 2d3d 0c1d 8fbc 17fc 833d
000001e0: 698b 5dbd 6315 303d 7b1e 3d3d bc37 86bd
000001f0: 668f 4c3d 4e31 713d 414e 4c3d 0c70 9c3d
00000200: ca4c e0be eed1 3ebe ae42 673e d94e 0e3e
00000210: 92ea 73bd a938 efbe f0dc b23d 6e05 00c0
00000220: c9e3 ab3c 09d4 583b ca29 9abf 694e 31bf
00000230: e72c 5ebd eec2 463d f945 46bf 3a5d f4be
00000240: 49e6 8ebd 6ec4 7abd f445 a9bf afca 5ebe
00000250: f86d 513e 71be 5cbf 46fd 7f3b 9b03 5dbf
00000260: b9cf 3d3e 9830 ec3d 8672 e2bf 84da c5bd
00000270: 7102 dabf ebeb aabf 1562 d6bd 2e00 d2be
00000280: 8ee4 cfbb b8e6 36bf 2658 98be bb9c d4bf
00000290: 8fa9 1c3e 3893 96bd 5731 02be f1f9 273e
000002a0: 8850 bbbe 78ea 1b3e 19f5 fd3c ced4 0b3e
000002b0: f04a d33d a828 da39 4d7c febe 2e40 4b3e
000002c0: 273a c33d 653f de3b e05a 823c 7069 04be
000002d0: ac3d 17bf 3d86 973e fb4c bc3d e30f 1dbf
000002e0: 07a2 18bf 4f9e da3d f6e0 713d 9ddb c83d
000002f0: 8c24 0ebf e5a7 49be 67c6 3abe 3f92 71bf
00000300: fb79 df3c 68ea 8dbc 3fd8 f53e 316d bdbf
00000310: 496f f13d 9cc9 853d 7cfb f03c bb31 e9be
00000320: 2333 9c3e a89b 523e d875 bdbf e607 3f3e
00000330: ffec 27be 2339 763e 1c9e 6e3e 871e bbbd
00000340: 91ea c83d 10b8 993b b3b6 f6bd f034 193e
00000350: 175e ecbe 4333 aa3c ac26 113c 2bbf 863e
00000360: 8085 c43d 1431 8b3e 37bc a7bd 7c05 ae3e
00000370: dc53 483d 38ef f53d b241 18bf 2a0b 2f3e
00000380: 8aad 433e d519 933e 4759 213e 6666 bbbf
00000390: 9fd9 17bf 4912 61bf c181 fabe 6a9d 043d
000003a0: c466 12bf 235b 97bf a379 94bd 2b09 36bf
000003b0: c994 423e c003 943d 2110 e43d f4cd 603e
000003c0: 32dd 80bd f59e 873e 7391 d73d f33a 0c3e
000003d0: 64aa 3dbf f27a 30bf 56b2 11bf 2cf1 aebf
000003e0: d673 e8bd dc5c 593e 2f80 c4bd bb25 9abe
000003f0: d3e6 013e 720f 01bf 116e 4e3e ab26 493e

bias f4 [128]
-0.026772898 0.42413598 0.3476524 -0.11620115 0.26455787 0.05738145 0.0025481633 0.07438964
0.32319623 0.33414376 -0.053207986 -0.021163007 0.36484277 0.040167917 0.35166988 0.072663166
0.19895025 0.38010505 -0.014423521 -0.027764397 0.34100503 -0.10186249 0.306742 0.37342456
0.003774695 -0.09459318 -0.01382805 0.03571669 -0.008822345 -0.06553375 0.29154724 0.37427446
-0.040109087 -0.05510869 0.35067856 0.41958886 -0.029553657 0.19889274 -0.06933273 -0.026128367
0.006581913 0.017524036 0.35284466 0.039037835 -0.101226725 0.40623412 -0.06399657 0.39011127
0.3938009 0.2451703 0.26512024 0.3848255 0.40052497 -0.1485586 -0.0015158487 0.4108595
-0.05010792 0.3706512 -0.048909534 0.24473582 0.0010678811 0.3599039 0.038988777 0.038282923
0.014238077 0.3463405 0.39324147 -0.0016035484 -0.09208254 -0.07455379 -0.04737366 0.06652573
-0.015556425 0.0019328804 0.33813667 -0.06180436 -0.056523465 0.054904144 -0.1006662 -0.067862295
0.2880455 0.046322957 0.2946539 0.299542 0.42148292 0.38848543 -0.051114906 0.39657626
0.28074968 -0.035114314 0.38670686 0.30686477 0.38059944 -0.11059347 -0.08912377 0.37574983
-0.062216718 -0.0049334066 -0.049544048 0.0041729347 0.40026152 0.40545958 0.40301928 0.028534947
0.28116104 0.33940536 -0.07076131 -0.04831551 0.36965021 -0.09053724 0.25523433 -0.085965045
-0.028011953 0.2994548 -0.09408483 0.3631877 0.39666572 0.27980155 0.38443547 0.044181716
-0.12840205 -0.0022389644 -0.006257799 0.011597963 -0.089326166 0.024867522 0.07844287 0.32930353
00000000: d652 dbbc 5a28 d93e 7fff b13e defa edbd
00000010: 2174 873e d008 6b3d 16ff 263b 9859 983d
00000020: fa79 a53e e414 ab3e 9ef0 59bd 0b5e adbc
00000030: accc ba3e 1d87 243d 130e b43e 6dd0 943d
00000040: 9db9 4b3e 219d c23e a250 6cbc 2972 e3bc
00000050: 3698 ae3e 489d d0bd 4a0d 9d3e 8131 bf3e
00000060: e060 773b 12ba c1bd 0c8f 62bc aa4b 123d
00000070: 998b 10bc 8f36 86bd ae45 953e e7a0 bf3e
00000080: 6d49 24bd a6b9 61bd 248c b33e 5ad4 d63e
00000090: 831a f2bc 8aaa 4b3e 51fe 8dbd 280b d6bc
000000a0: 17ad d73b 918e 8f3c 0ea8 b43e 23e6 1f3d
000000b0: f54f cfbd ebfd cf3e a210 83bd aabc c73e
000000c0: 46a0 c93e ec0d 7b3e d7bd 873e d907 c53e
000000d0: 9c11 cd3e bf1f 18be 71af c6ba 2d5c d23e
000000e0: f63d 4dbd fec5 bd3e 5d55 48bd 079c 7a3e
000000f0: 25f8 8b3a 5345 b83e b2b2 1f3d 8ece 1c3d
00000100: d346 693c 8b53 b13e f256 c93e 282e d2ba
00000110: c595 bcbd a8af 98bd e20a 42bd a43e 883d
00000120: 60e0 7ebc b458 fd3a 4020 ad3e 9226 7dbd
00000130: 2685 67bd 2be3 603d 152a cebd 63fb 8abd
00000140: b37a 933e 24bd 3d3d e0dc 963e 925d 993e
00000150: 9ccc d73e 90e7 c63e dd5d 51bd 0b0c cb3e
00000160: 6cbe 8f3e 07d4 0fbd 71fe c53e 611d 9d3e
00000170: eedd c23e d47e e2bd 8686 b6bd 4862 c03e
00000180: f5d6 7ebd 6aa8 a1bb b3ee 4abd 1dbd 883b
00000190: 14ef cc3e 6698 cf3e 8b58 ce3e 1fc2 e93c
000001a0: 57f4 8f3e 8ac6 ad3e 4eeb 90bd 7ce6 45bd
000001b0: cb42 bd3e 976b b9bd 13ae 823e 710e b0bd
000001c0: 5379 e5bc 2452 993e 8caf c0bd bdf3 b93e
000001d0: c517 cb3e 2642 8f3e bad4 c43e e3f7 343d
000001e0: d47b 03be 97bb 12bb 390e cdbb 6205 3e3c
000001f0: a3f0 b6bd f9b6 cb3c a8a6 a03d 799a a83e

weight f4 [2, 128]
0.025577517 0.6951843 0.74310464 -0.022370148 0.73171014 0.03618942 -0.012752284 -1.8011751
0.73833865 0.55967504 -0.009524838 -0.02659516 0.73175323 -0.06650267 0.8326194 -0.05993206
0.81533074 0.7759768 0.0037832707 -0.86991185 0.6401107 -1.4307258 -0.4105394 0.76691025
-0.026194058 0.043106284 0.009244551 -0.016692445 -0.00020089901 -0.007069998 0.7158675 0.7145746
-0.03881537 0.0049069007 0.5100219 0.6400508 -0.01815846 0.7121495 -0.042887677 -0.029352276
-0.015562391 -0.0068924446 0.5660536 -0.050174985 0.025466446 0.67086595 -0.06851277 0.69558513
0.46075377 0.64537936 0.6099848 0.6594635 0.67367494 -1.0407757 -0.003173256 0.68226826
-0.0002132449 0.6189225 -0.06876469 0.5701247 -0.09144059 0.6886517 0.031807397 0.00020379078
-0.038801014 0.51138115 0.60035723 -0.016569618 0.0032759828 -0.03833637 -0.042121984 0.034633245
-0.055144046 -0.05498386 0.6665291 0.03184371 -0.07342079 0.30881074 0.01239033 -0.012001972
0.67429227 -0.0060233604 0.71857613 0.71771836 0.775054 0.6357465 -0.017437063 0.61575615
0.80695295 0.0117796995 0.6904895 0.55751705 0.619023 0.036779847 0.024632936 0.60030055
0.054236945 0.021881824 -0.0027860675 -0.09498867 -0.082986034 0.63988775 0.5815386 0.06452238
0.55696654 -0.65877604 0.0012030194 -0.0017024989 0.6896891 -0.009801025 0.7427916 0.016855877
-0.038211837 0.48001954 -0.073796645 0.687049 0.5246728 -0.08160727 0.2883208 -0.014432337
-0.032990806 -0.014757774 -0.019355735 -0.0025469873 0.019987294 -0.025623197 0.5977962 0.32578492
0.0032987255 0.4311459 0.6864778 -0.0135017 0.6174134 -0.044975735 -0.0327098 -1.9227697
0.6068068 0.6334442 0.021153165 -0.013407043 0.6288523 -0.00943823 0.17977448 -0.038319927
0.22380798 0.67879087 -0.055335063 -1.1939249 0.5188181 -1.7476568 0.6833729 0.5640589
0.013651817 -0.00053056603 -0.03868138 0.017809227 -0.045525886 -0.019494556 0.663184 0.38695836
-0.023669455 -0.014288278 0.60737413 0.533776 0.052214075 0.5708514 -0.016662741 -0.020784512
-0.017193323 -0.07195364 0.6035365 -0.031317048 -0.026204782 0.72961086 -0.010761942 0.41848448
0.7321083 0.5728977 0.56206024 0.5823204 0.5128635 -0.4804593 -0.029765489 0.7112618
-0.063549645 0.5944138 0.06809569 0.6573114 0.026612693 0.42134896 -0.055394433 -0.056190915
0.04379824 0.7551745 0.5952983 0.04061765 -0.049055412 0.043336023 0.026729325 -0.030588571
-0.023089556 -0.03186789 0.5700311 -0.015771816 0.0220853 1.0900198 -0.040359013 -0.016421707
0.3458375 -0.005382047 0.6103981 0.7429469 0.7363302 0.5600381 -0.03475418 0.5045562
0.5414801 -0.01792111 0.70914686 0.59544116 0.49581635 0.024762843 -0.036092408 0.67818844
-0.07362551 0.011166174 -0.038922247 0.019827507 0.5827988 0.6085385 0.71628696 -0.061809957
0.5930051 0.8073068 0.057504777 -0.055078913 0.41136748 -0.013377549 0.6530016 0.017609771
0.019771297 0.7180634 0.060586542 0.7242249 0.7278724 0.9059128 0.686183 -0.030827591
-0.0163054 0.017393822 0.033199284 -0.03807367 -0.0011508771 -0.015934965 -0.7953402 0.6759964
00000000: f187 d13c 99f7 313f 1b3c 3e3f 9a41 b7bc
00000010: 5b51 3b3f 5b3b 143d f5ee 50bc e88c e6bf
00000020: c303 3d3f dd46 0f3f 110e 1cbc 18de d9bc
00000030: 2e54 3b3f 8d32 88bd 8c26 553f 527b 75bd
00000040: 84b9 503f 6aa6 463f c0f0 773b 8bb2 5ebf
00000050: 4bde 233f 0622 b7bf 3832 d2be 3b54 443f
00000060: ec94 d6bc 3790 303d 7576 173c 98be 88bc
00000070: 6ba8 52b9 71ab e7bb 1843 373f 5cee 363f
00000080: defc 1ebd 11ca a03b cc90 023f 5fda 233f
00000090: 0dc1 94bc 6e4f 363f fdaa 2fbd 2f74 f0bc
000000a0: 66f9 7ebc 04da e1bb e4e8 103f 4984 4dbd
000000b0: 029f d03c dfbd 2b3f 6c50 8cbd de11 323f
000000c0: ebe7 eb3e 9537 253f f727 1c3f 9ad2 283f
000000d0: f675 2c3f 2338 85bf 67f6 4fbb 22a9 2e3f
000000e0: 7e9a 5fb9 b471 1e3f 80d4 8cbd b1f3 113f
000000f0: 3445 bbbd 7a4b 303f 7948 023d acb0 5539
00000100: d0ed 1ebd e0e9 023f 03b1 193f 02bd 87bc
00000110: dfb1 563b 9906 1dbd 1a88 2cbd 97db 0d3d
00000120: b9de 61bd c236 61bd a7a1 2a3f 8d6e 023d
00000130: a45d 96bd 711c 9e3e d000 4b3c eba3 44bc
00000140: 6b9e 2c3f 9c5f c5bb 9bf4 373f 64bc 373f
00000150: f069 463f 48c0 223f 2cd8 8ebc 32a2 1d3f
00000160: 7894 4e3f a4ff 403c ebc3 303f 70b9 0e3f
00000170: 4b78 1e3f 77a6 163d 03cb c93c 4cad 193f
00000180: 8f27 5e3d 8341 b33c 7596 36bb 6b89 c2bd
00000190: 95f4 a9bd afcf 233f b7df 143f 4f24 843d
000001a0: 5c95 0e3f 8ca5 28bf a2ae 9d3a 6226 dfba
000001b0: 778f 303f 7a94 20bc 9727 3e3f 5615 8a3c
000001c0: 0484 1cbd 1fc5 f53e b222 97bd 71e2 2f3f
000001d0: f550 063f b621 a7bd c99e 933e 9c75 6cbc
000001e0: 5e21 07bd 97ca 71bc eb8f 9ebc 5beb 26bb
000001f0: 65bc a33c bde7 d1bc 2c09 193f 48cd a63e
00000200: 6e2f 583b 28bf dc3e 02bd 2f3f 3c36 5dbc
00000210: ce0e 1e3f 7a38 38bd b6fa 05bd 511d f6bf
00000220: b157 1b3f 6629 223f 6749 ad3c 37a9 5bbc
00000230: 77fc 203f cea2 1abc cd16 383e 5bf5 1cbd
00000240: eb2d 653e 3dc5 2d3f 05a7 62bd 88d2 98bf
00000250: 43d1 043f 38b3 dfbf 87f1 2e3f 2a66 103f
00000260: dfab 5f3c af15 0bba 5e70 1ebd a8e4 913c
00000270: 5a79 3abd 0cb3 9fbc 6dc6 293f 681f c63e
00000280: 72e6 c1bc 6219 6abc df7c 1b3f 8ba5 083f
00000290: 6dde 553d 5123 123f 4d80 88bc 4844 aabc
000002a0: 03d9 8cbc 6e5c 93bd 5e81 1a3f 4e46 00bd
000002b0: 69ab d6bc c7c7 3a3f db52 30bc 9943 d63e
000002c0: 736b 3b3f 6ca9 123f 2ee3 0f3f f312 153f
000002d0: 064b 033f c3fe f5be c1d6 f3bc 4115 363f
000002e0: 5126 82bd 812b 183f c175 8b3d 8f45 283f
000002f0: dd02 da3c 0dbb d73e 46e5 62bd 7228 66bd
00000300: c965 333d 1e53 413f 7865 183f b15e 263d
00000310: 54ee 48bd 1d81 313d 75f7 da3c e294 fabc
00000320: 4f26 bdbc e887 02bd 8fed 113f e533 81bc
00000330: 3bec b43c c585 8b3f 7e4f 25bd d186 86bc
00000340: 9d11 b13e e25b b0bb 0d43 1c3f c531 3e3f
00000350: 2380 3c3f a85e 0f3f 665a 0ebd 982a 013f
00000360: 719e 0a3f 4bcf 92bc a68a 353f d56e 183f
00000370: a4db fd3e 72db ca3c a2d5 13bd c29d 2d3f
00000380: f9c8 96bd 54f2 363c ef6c 1fbd 4c6d a23c
00000390: 4d32 153f 2ec9 1b3f 955e 373f 702c 7dbd
000003a0: 2fcf 173f a9ab 4e3f 218a 6b3d 6d9a 61bd
000003b0: c29e d23e 822d 5bbc 1d2b 273f 5e42 903c
000003c0: 6af7 a13c 01d3 373f 9829 783d ce66 393f
000003d0: d855 3a3f e7e9 673f b0a9 2f3f 258a fcbc
000003e0: e792 85bc 7d7d 8e3c f9fb 073d 23f3 1bbd
000003f0: 07d9 96ba 0b8a 82bc 6a9b 4bbf 1a0e 2d3f

bias f4 [2]
0.3054853 0.30311865
00000000: 9268 9c3e 5e32 9b3e
