bpa_2/tasks_bpa2/tasks/solution/b2d.pt (torch, 73061 bytes, 6 tensors)

weight f4 [128, 4]
0	0x3f44dbf9	0.7689815
1	0x3e0628a2	0.13101438
2	0xbf6ec9cf	-0.93276685
3	0x3cb09e54	0.021559872
4	0x3e00aa44	0.12564951
5	0xbe4bfc18	-0.19920385
6	0x3ecf2e3a	0.40464956
7	0xbcfa9263	-0.03058738
8	0xbe98163e	-0.2970447
9	0xbdd6e3a5	-0.104926385
10	0x3fbce5d9	1.4757644
11	0x3d5b3e5d	0.05352627
12	0x3dee6496	0.11640279
13	0xbe889cad	-0.26682034
14	0x3e78c3f9	0.24293508
15	0x3d48b781	0.049003128
16	0xbf3a4b3e	-0.7277106
17	0xbe415816	-0.18881258
18	0x3f08034a	0.5313002
19	0xbd9f99b3	-0.07792988
20	0x3e75eafd	0.24015422
21	0xbecba1b0	-0.39771795
22	0xbf5b5488	-0.8567586
23	0xbe85a837	-0.261049
24	0x3f1376c2	0.57603085
25	0x3e2d38f5	0.16916259
26	0xbe45d89e	-0.19320914
27	0x3d1fc568	0.03900662
28	0xbe78805e	-0.24267718
29	0xbd9c5a63	-0.076344274
30	0xbf4b8016	-0.7949232
31	0x3e365b74	0.17808324
32	0x3e009d03	0.12559895
33	0xbe78b109	-0.24286284
34	0xbf0aebd4	-0.54266095
35	0xbc2685c9	-0.010163733
36	0x3ed478f2	0.41498524
37	0x3e156f0d	0.14593144
38	0xbf4cc59f	-0.79989046
39	0x3d97e39a	0.074164584
40	0x3f2bc48c	0.6709678
41	0xbbb21386	-0.0054344563
42	0xbf9effe3	-1.242184
43	0xbda4bf54	-0.080443054
44	0x3f01d1e7	0.5071091
45	0xbe7c2170	-0.2462213
46	0xbf59e9fd	-0.8512266
47	0xbe5dfc1c	-0.21678203
48	0x3e4ff5f2	0.20308664
49	0xbebea30c	-0.3723377
50	0x3fdf90c0	1.7466049
51	0x3d8bf969	0.068346806
52	0xbdb88335	-0.09009401
53	0x3b849de8	0.004047144
54	0xbe76edb3	-0.24114113
55	0x3d073bbd	0.033015955
56	0xbec70a33	-0.3887497
57	0x3c9be90a	0.01903202
58	0xbfc1e631	-1.5148374
59	0xbccf8ed6	-0.025336664
60	0x3e7c74cf	0.24653934
61	0xbe2d255c	-0.16908783
62	0xbf74407a	-0.95410883
63	0x3d03c071	0.03216595
64	0x3f032cbc	0.51240134
65	0xbda8783b	-0.08226057
66	0xbfa8916c	-1.3169379
67	0xbde09249	-0.10965402
68	0xbe861a19	-0.26191786
69	0x3c293e28	0.010329761
70	0x3e89d8f2	0.2692333
71	0xbe376065	-0.17907865
72	0xbdaf2cfc	-0.08553502
73	0x3ea0f217	0.314347
74	0x3f09d102	0.53834546
75	0x3e2ca999	0.16861571
76	0xbf1148b7	-0.5675158
77	0xbe64e71c	-0.22353786
78	0xbe1ff956	-0.15622458
79	0xbe4448ab	-0.19168346
80	0x3d316a9e	0.04331457
81	0x3d51dea5	0.05123772
82	0x3f0041fc	0.50100684
83	0xbe86a71e	-0.26299375
84	0x3e3b57c8	0.18295205
85	0x3e8953b9	0.26821688
86	0x3ec8853c	0.3916415
87	0x3e8f10a7	0.27942392
88	0x3f3990ef	0.72486776
89	0x3f00051a	0.50007784
90	0x3f8b0b0d	1.0862747
91	0x3eb936da	0.3617466
92	0xbe0f2b23	-0.13981299
93	0x3e214c90	0.15751863
94	0x3f79764e	0.97446144
95	0x3f092ac6	0.5358089
96	0xbdd3b621	-0.10337473
97	0xbc9a37a2	-0.018825356
98	0xbd86d43a	-0.06583448
99	0x3d807ee4	0.062742025
100	0x3ea3f0df	0.32019708
101	0xbea17966	-0.31537932
102	0x3e0a976b	0.13534324
103	0xbe7a755d	-0.24458833
104	0xbe083d3a	-0.13304606
105	0x3eb23b0c	0.34810674
106	0x3c9c17cd	0.019054318
107	0x3e886d35	0.26645818
108	0xbf220d7c	-0.63301826
109	0x3e347df0	0.17626166
110	0x3f6f76da	0.9354073
111	0x3d8b908b	0.06814679
112	0xbe67dbe2	-0.22642472
113	0x3ec02e49	0.37535313
114	0x3f72aec8	0.94797945
115	0x3eba4724	0.363824
116	0xbd372c53	-0.044720005
117	0x3dd33a70	0.103138804
118	0xbf9b1a25	-1.2117354
119	0xbd60e4b4	-0.05490561
120	0xbedd17ce	-0.43182224
121	0x3ed1b70c	0.40959966
122	0x3ea66601	0.32499698
123	0x3daba3f5	0.08380882
124	0xbf14d0a5	-0.58130866
125	0xbe4c832d	-0.19971915
126	0x3fbae4cb	1.4601072
127	0xbc6415e8	-0.0139212385
128	0xbc8d1b47	-0.01722492
129	0x3d99d17c	0.07510659
130	0x3eb88e06	0.36045855
131	0x3ebfa57d	0.37430945
132	0x3e2c7fd8	0.16845644
133	0xbe4a6864	-0.19766384
134	0x3dc974bb	0.09836718
135	0xbdcceb8c	-0.100058645
136	0x3f10fa17	0.56631607
137	0x3f021fe3	0.50829905
138	0x3f37806c	0.7168033
139	0x3ec6d9f3	0.38838157
140	0x3da08e70	0.07839668
141	0xbddcb0f9	-0.10775942
142	0xbdc1e5e7	-0.094676785
143	0xbe3dfc09	-0.18553175
144	0xbe56ffb0	-0.20995975
145	0x3e607f98	0.21923673
146	0xbd3bb88e	-0.045830302
147	0xbdeb146e	-0.11478506
148	0xbd91cf8c	-0.071196645
149	0x3e5f15b2	0.2178562
150	0x3ee7602a	0.45190555
151	0x3e02c08b	0.12768762
152	0x3d77be7a	0.060484387
153	0xbd868737	-0.06568759
154	0xbe909310	-0.282372
155	0xbde9610a	-0.11395462
156	0x3cfc4d96	0.030798715
157	0x3e4f75a2	0.20259717
158	0x3fec175d	1.844463
159	0x3ec4507d	0.38342658
160	0xbdc8ad20	-0.09798646
161	0x3e929ef4	0.28636897
162	0xbc3a1c03	-0.011359218
163	0x3ef5ff04	0.48046124
164	0x3eb12a0b	0.3460239
165	0xbeb087de	-0.34478658
166	0xbfe9c15c	-1.8262134
167	0xbec379f1	-0.3817897
168	0xbe8a328b	-0.26991686
169	0x3ed67dfc	0.41892993
170	0xbd21eb52	-0.03953106
171	0x3e950628	0.2910626
172	0xbeba9535	-0.3644196
173	0xbed62c21	-0.41830543
174	0x3edf5ffb	0.43627915
175	0xbe87c87f	-0.26520154
176	0xbdd56975	-0.10420505
177	0x3e24c2d5	0.16089948
178	0x4002aabc	2.0416708
179	0x3ee55c02	0.4479676
180	0x3e74bd9e	0.23900458
181	0xbc4989fe	-0.012300966
182	0xbf5ff651	-0.87485224
183	0xbcee8cfc	-0.029119961
184	0xbe91ca32	-0.28474575
185	0xbe6a1056	-0.22857794
186	0xbf85adc9	-1.044366
187	0xbe5027a3	-0.2032762
188	0xbebe99e7	-0.37226793
189	0x3e98dee8	0.29857564
190	0xbeab8543	-0.33500108
191	0x3ec7885d	0.38971224
192	0xbe800c90	-0.25009584
193	0x3e598fb1	0.2124622
194	0x3e845f81	0.25854114
195	0x3e86c12a	0.26319247
196	0x3d83b47b	0.06430908
197	0x3dcff6e1	0.1015451
198	0x3e8fc824	0.28082383
199	0x3e4dcabd	0.2009687
200	0x3c84200f	0.016128568
201	0x3e25bae4	0.16184574
202	0xbf120a5b	-0.5704705
203	0x3ea1d1bd	0.3160533
204	0x3e29fac7	0.1659957
205	0xbe50e93f	-0.20401476
206	0xbfd01605	-1.625672
207	0xbe8efc1d	-0.27926722
208	0xbe731341	-0.23737814
209	0x3ec3b2ff	0.382225
210	0x3f37344d	0.7156418
211	0x3f03300f	0.51245207
212	0x3f3a61b6	0.72805345
213	0x3ea8a449	0.3293784
214	0x3ece2092	0.40259224
215	0x3e52f3f9	0.2060088
216	0x3dc6296e	0.09675871
217	0xbe05fbb9	-0.13084306
218	0xbf4643d6	-0.7744726
219	0xbe15d0ce	-0.14630434
220	0xbefa8c27	-0.48935053
221	0xbe337503	-0.17525105
222	0xbe25b4a6	-0.16182193
223	0xbda2d3be	-0.07950543
224	0xba13c124	-0.0005636385
225	0xbec5b3f9	-0.3861387
226	0xbfda0d91	-1.703539
227	0xbebd7cdb	-0.3700932
228	0x3e6e9c5b	0.23301832
229	0xbed6ab6e	-0.41927665
230	0xbdd6b017	-0.10482805
231	0xbd5ab430	-0.053394496
232	0xbedee168	-0.43531346
233	0x3ec25cdf	0.3796148
234	0x3edf0db9	0.43565157
235	0x3e23068a	0.15920463
236	0x3eb377d5	0.35052362
237	0x3ef86844	0.48517048
238	0x3f172faa	0.59057105
239	0x3ebe1e16	0.3713233
240	0x3f06f1ea	0.5271288
241	0x3ee72a23	0.45149335
242	0x3fb4a037	1.4111394
243	0x3eae0a50	0.33992243
244	0x3d8d4f5e	0.06899904
245	0xbe5f997e	-0.21835896
246	0x3e96cf0e	0.29454845
247	0xbe974a79	-0.29549006
248	0xbe2e4725	-0.17019327
249	0xbe91f767	-0.28509066
250	0xbfcf9297	-1.6216611
251	0xbe988d0b	-0.29795107
252	0xbeaf6977	-0.3426015
253	0x3dc29bd4	0.09502378
254	0x3eef36bd	0.4672145
255	0x3e13a215	0.14417298

bias f4 [128]
0	0x3e28ec57	0.16496406
1	0x3f27f50c	0.65608287
2	0xbeb5d431	-0.35513452
3	0x3f19eca0	0.60126686
4	0xbe1ef4cf	-0.15523075
5	0x3f11c0c3	0.56934756
6	0x3daee625	0.0853999
7	0xbf0a8aa3	-0.5411779
8	0x3f236a1f	0.638338
9	0xbeb630cc	-0.35584104
10	0xbee526d1	-0.44756177
11	0x3e82c297	0.25539085
12	0xbda3ab4e	-0.07991658
13	0xbe8b5f01	-0.2722092
14	0xbe8129ae	-0.25227112
15	0x3e1066da	0.14101735
16	0xbed334a9	-0.41251114
17	0xbf059247	-0.52176327
18	0x3dd1d94d	0.10246525
19	0xbed9a948	-0.42511964
20	0x3e8b1fdf	0.27172753
21	0x3d91053d	0.07081077
22	0xbe5d7733	-0.21627502
23	0xbeb4b8ba	-0.35297185
24	0x3f12673a	0.5718876
25	0xbe940044	-0.28906453
26	0x3d6abe14	0.05731018
27	0x3e989377	0.29800007
28	0xbf107273	-0.56424636
29	0xbe8c2462	-0.27371508
30	0x3f12390f	0.57118315
31	0xbeca34bb	-0.39493355
32	0xbea95cd6	-0.3307864
33	0x3ee5b8f3	0.44867668
34	0xbe90390e	-0.2816853
35	0x3f11a3e1	0.56890684
36	0x3f2556fc	0.6458585
37	0xbefe3dfb	-0.49656662
38	0xbe26f269	-0.1630341
39	0xbecd0192	-0.4004026
40	0xbecb0a5c	-0.3965634
41	0xbf199542	-0.59993374
42	0x3f2ef857	0.68347687
43	0xbe126e4f	-0.14299892
44	0xbf12d23c	-0.5735204
45	0x3e1dd8c2	0.15414718
46	0xbf174c5e	-0.591009
47	0x3f16667d	0.58750135
48	0x3ef29812	0.47381645
49	0x3c11bb91	0.008894817
50	0x3f3000b5	0.6875108
51	0xbf01d57a	-0.50716364
52	0xbf423fdd	-0.758787
53	0xbe50ec4b	-0.20402639
54	0x3e7ee889	0.24893393
55	0xbf885a5e	-1.0652578
56	0x3e00aa95	0.12565072
57	0x3ed6c84d	0.41949692
58	0x3ec3d879	0.38251093
59	0x3d60f7c3	0.054923784
60	0xbeb7633f	-0.35817906
61	0x3f233f00	0.63768005
62	0xbe81dae3	-0.2536231
63	0xbf0f5652	-0.5599109
64	0xbf237c3f	-0.6386146
65	0xbed59cba	-0.41721135
66	0x3f2a6a0e	0.66568077
67	0x3dd2d2f1	0.1029414
68	0x3ec63556	0.38712567
69	0xbeb923ef	-0.36160228
70	0xbf354ae5	-0.70817405
71	0x3e9bc7db	0.30425915
72	0xbf20c8ce	-0.62806404
73	0xbe37b9fc	-0.17942041
74	0x3f1ded7c	0.616905
75	0xbeb8ab44	-0.36068165
76	0x3f2badaa	0.67061865
77	0x3e86c25b	0.26320156
78	0xbf040c2a	-0.5158106
79	0xbefd7d32	-0.4950958
80	0xbb8c1e3a	-0.004276064
81	0xbf68b691	-0.90903574
82	0x3e87bb6f	0.26510188
83	0xbea9c5ef	-0.33158824
84	0x3ddd0e5e	0.10793756
85	0xbf19fc8c	-0.6015098
86	0xbf063d2d	-0.52437097
87	0x3cb048f7	0.021519167
88	0xbec1035e	-0.3769788
89	0x3ecff573	0.4061695
90	0x3da4f712	0.080549374
91	0xbf0e507c	-0.5559156
92	0xbea12a92	-0.3147779
93	0xbf0448e5	-0.5167373
94	0xbed6c3b1	-0.41946176
95	0xbec56f04	-0.3856126
96	0xbef46e51	-0.47740415
97	0x3e3efb4d	0.18650551
98	0xbee5a657	-0.4485347
99	0xbf5c38ce	-0.8602418
100	0x3f034e30	0.5129118
101	0x3ebbed5b	0.36704525
102	0xbef56e2f	-0.47935626
103	0xbf0711ad	-0.52761346
104	0x3dd976b7	0.10618346
105	0xbe304463	-0.17213587
106	0xbe45d2be	-0.19318673
107	0xbf1941e6	-0.5986618
108	0xbef76ac5	-0.48323646
109	0x3f2a3d88	0.6650014
110	0xbef4a1ed	-0.4777979
111	0xbf0d989b	-0.5531098
112	0x3f1d1ab6	0.6136888
113	0x3f281857	0.6566214
114	0xbe0616a0	-0.13094568
115	0x3eee4e9e	0.46544355
116	0xbf31c052	-0.6943408
117	0xbe9f8a3f	-0.3116016
118	0x3f02a114	0.51027036
119	0x3f298eb1	0.66233355
120	0x3f30b673	0.69028395
121	0xbf6d43dc	-0.9268167
122	0x3f03288f	0.5123376
123	0x3ea438de	0.32074636
124	0xbea6f0d2	-0.32605606
125	0xbf070ad8	-0.5275092
126	0xbec2f430	-0.38076925
127	0x3e2b1c94	0.1671012

weight f4 [128, 128]
0	0x3f157f7b	0.58397645
1	0x3e63df95	0.22253259
2	0xbe54d515	-0.2078441
3	0x3dc9125e	0.098179564
4	0xbf090c65	-0.5353454
5	0x3ce40e6f	0.027838914
6	0x3db5d138	0.08877796
7	0x3eb69490	0.3566022
8	0x3e04dc6c	0.1297471
9	0xbe983eb5	-0.29735342
10	0xc06462a1	-3.5685198
11	0x3e0ba371	0.13636567
12	0xbe6afb73	-0.22947483
13	0x3ddac1f0	0.10681522
14	0xbfa97d7b	-1.3241419
15	0x3e2abe37	0.16674124
16	0xc03ba58c	-2.9319792
17	0xbf0bf1d4	-0.54665875
18	0x3d487615	0.048940737
19	0xbe59a33d	-0.21253677
20	0x3e3eb073	0.18621998
21	0x3ce1a2a8	0.02754338
22	0xbe0a520a	-0.13507858
23	0x3e76dfe6	0.24108848
24	0x3e34182c	0.17587346
25	0xbeb39079	-0.3507116
26	0x3e46a06a	0.1939713
27	0x3e41c8ac	0.18924206
28	0xbef11f5b	-0.47094235
29	0xbfd93964	-1.6970639
30	0x3df85000	0.12124634
31	0xbeaf4f04	-0.34239972
32	0x3e28275e	0.16421267
33	0x3d91fc75	0.071282305
34	0xbe2b8e9c	-0.1675362
35	0x3e6cd0dd	0.2312655
36	0x3de0c832	0.10975684
37	0xbcba8084	-0.02276636
38	0xbec69782	-0.38787466
39	0xbfa13170	-1.2593212
40	0x3e4e507b	0.20147888
41	0xc0484a09	-3.1295187
42	0x3e41e41b	0.18934672
43	0x3cd85e42	0.026412133
44	0xbf9fea53	-1.2493385
45	0x3ec8f27e	0.39247507
46	0x3ebe3b8e	0.37154812
47	0x3e295f3c	0.16540235
48	0x3e18fe21	0.14940692
49	0xbdf9614b	-0.1217676
50	0x3e2e9d22	0.17052129
51	0xc0824a91	-4.0716023
52	0xbed5f8d3	-0.417914
53	0xbf8790f7	-1.0591115
54	0xbf63d8ca	-0.8900267
55	0xbdbabc45	-0.09117941
56	0xbdd0ef26	-0.10201864
57	0x3d9d2e26	0.07674818
58	0x3e19193e	0.14951035
59	0xbf3245a6	-0.69637525
60	0xbf18f050	-0.5974169
61	0x3e62e8e3	0.22159152
62	0xbf9cc9a2	-1.2249033
63	0xbf2022e8	-0.6255326
64	0xc01b8cbf	-2.4304655
65	0xbe1cafd5	-0.1530145
66	0x3e77750d	0.24165745
67	0x3d96ffc5	0.07373003
68	0x3e38d095	0.18048318
69	0x3f01049a	0.50397646
70	0x3e1bdf13	0.15221815
71	0x3e13a731	0.14419247
72	0xbe8e244d	-0.2776207
73	0xbe9af8ca	-0.30267936
74	0x3e862aee	0.26204628
75	0xbfdcf41e	-1.7261999
76	0x3d936e44	0.07198766
77	0x3dcd7d0b	0.10033616
78	0xbe26bb49	-0.16282381
79	0xbf134406	-0.5752567
80	0x3e6ca9f2	0.23111704
81	0x3e75744b	0.23970143
82	0x3e13d0c1	0.14435102
83	0xc0387959	-2.8824065
84	0x3e60eb2a	0.21964708
85	0xbed23e70	-0.4106326
86	0xbf96bc58	-1.1776228
87	0xbf113ef9	-0.56736714
88	0xbe2695c0	-0.16268063
89	0x3dd18464	0.1023033
90	0xbe0b7d8e	-0.13622114
91	0xc03f5174	-2.9893465
92	0xbee53045	-0.4476339
93	0xbfceffb0	-1.617178
94	0x3d9b741a	0.07590504
95	0xbe4de420	-0.20106554
96	0x3e423e2c	0.18969029
97	0x3ca046b2	0.01956496
98	0xc01b6289	-2.427889
99	0x3c38172f	0.011235996
100	0xbc67a42e	-0.014138265
101	0x3e3809d1	0.17972495
102	0xbfbfc695	-1.4982477
103	0xc001cfa2	-2.028298
104	0x3d5d7a7a	0.05407188
105	0xbcfc77ff	-0.030818937
106	0xbf018bf9	-0.50604206
107	0xbf2792a3	-0.65458125
108	0xbf3b1dd4	-0.7309239
109	0x3e1eb385	0.15498169
110	0xc03a0210	-2.906376
111	0xbf93fc36	-1.1561344
112	0x3dbe596a	0.09294398
113	0x3dd9c9a0	0.1063416
114	0xbda70cbd	-0.081567265
115	0x3e33c010	0.17553735
116	0xbe02ee41	-0.12786199
117	0xc017ef49	-2.3739798
118	0x3e330e18	0.17485845
119	0x3d7d5621	0.061849717
120	0x3e48083f	0.19534396
121	0xbe3d6b26	-0.18497905
122	0x3e2e99d1	0.17050864
123	0x3c890b11	0.01672891
124	0x3eb61941	0.35566142
125	0xbe0b5bbf	-0.13609217
126	0xbdfa2bab	-0.1221536
127	0xbe5d6acb	-0.2162277
128	0xbd51bed9	-0.051207397
129	0x3d9b8418	0.07593554
130	0xbd884468	-0.066536725
131	0x3c20b842	0.0098095555
132	0x3ca8e89e	0.020618733
133	0x3c0c45ee	0.008561594
134	0xbdb00a71	-0.085957415
135	0x3c0d96de	0.008641927
136	0x3d015dd0	0.031583607
137	0x3d7d9a3f	0.06191468
138	0xbda5bcbb	-0.08092638
139	0xbda61b22	-0.08110644
140	0x3d0e73d1	0.03477842
141	0xbd7ecffe	-0.062210076
142	0xbc7f3dd5	-0.015578707
143	0x3d975f72	0.073912516
144	0x3a16f19a	0.00057580473
145	0xbd21273b	-0.039344054
146	0x3cb0fe12	0.021605525
147	0xbd3dece5	-0.0463685
148	0x3d835608	0.064128935
149	0xbda9f703	-0.08299067
150	0xbda7442d	-0.081673004
151	0xbd71a572	-0.05899567
152	0x3c7faf27	0.015605724
153	0x3d2983d5	0.04138549
154	0xbdb1a94f	-0.08674871
155	0x3d7c19a5	0.061547894
156	0x3cc0f7ea	0.023555715
157	0xbd9bf614	-0.07615295
158	0xbc7f0f12	-0.015567558
159	0xbcbe6999	-0.023243712
160	0xbcee4498	-0.029085442
161	0xbda864ff	-0.082223885
162	0x3d4a313b	0.049363356
163	0xbd55be0e	-0.052183203
164	0xbdaa68ed	-0.08320794
165	0xbd6f53f9	-0.058429692
166	0x3cd3d097	0.0258563
167	0xbd8d8092	-0.069092885
168	0x3cd79b4c	0.026319169
169	0x3d9343e7	0.07190686
170	0xbd587f34	-0.052855685
171	0x3daf5c8c	0.08562574
172	0xbd62b556	-0.055348717
173	0x3ac20086	0.0014801181
174	0xbd38f71b	-0.045157533
175	0xbc954ab0	-0.01822409
176	0xbd3a3861	-0.045463923
177	0xbd9fbbe6	-0.07799511
178	0xbb491e00	-0.0030688047
179	0x3d94eb2b	0.07271417
180	0xbbe416ef	-0.0069607417
181	0xbbbb9352	-0.005724349
182	0xbd8432d1	-0.06455005
183	0xbd6f4750	-0.05841762
184	0x3d43cce3	0.047802817
185	0x3cbf02fe	0.023316856
186	0xbcb4f585	-0.02208973
187	0x3d161e70	0.03665012
188	0x3c538405	0.012909894
189	0xbd4e0af4	-0.050303414
190	0xbd480ad3	-0.048838448
191	0xbcdf338d	-0.027246261
192	0x3ce801b1	0.028321119
193	0x3d11bb98	0.035579294
194	0x3cf0eef3	0.029410815
195	0xbcd685e3	-0.026186889
196	0xbda62446	-0.08112387
197	0xbcaaad84	-0.020834692
198	0x3d16262b	0.036657494
199	0xbd0a9fe2	-0.033843882
200	0x3afe2117	0.0019388524
201	0xbc667c5c	-0.0140677355
202	0xbd87b192	-0.06625666
203	0x3d382ae3	0.044962775
204	0xbc4cad8d	-0.01249255
205	0xbd83c41e	-0.06433891
206	0xbcbee552	-0.023302708
207	0xbce1719d	-0.027519995
208	0xbda2f74e	-0.07957326
209	0xbd699824	-0.05702986
210	0xbca08975	-0.019596795
211	0xbce48349	-0.027894633
212	0x3d7dccfe	0.061963074
213	0xbd10a063	-0.035309207
214	0x3d27a8d7	0.040932503
215	0x3c143a8a	0.00904716
216	0x3c29620a	0.010338316
217	0x3d7a7c22	0.06115354
218	0x3d965bf8	0.073417604
219	0xbda1a771	-0.07893265
220	0x3d311db5	0.04324122
221	0x3da46a9e	0.08028148
222	0xbd9dc1b8	-0.077029645
223	0x3c3df395	0.011593719
224	0xbb81202e	-0.0039406037
225	0x3c71828f	0.0147406
226	0xbdbe5e26	-0.09295301
227	0x3d93080e	0.07179271
228	0xbbf4d837	-0.007472064
229	0xbd479cfc	-0.048733696
230	0x3d9efdab	0.07763227
231	0x3c74c551	0.014939622
232	0xbd95c98d	-0.073138334
233	0x3d7e17a3	0.06203426
234	0xbdc08d0a	-0.09401901
235	0x3c8214af	0.015879003
236	0xbdbc8aba	-0.092061475
237	0xbd6b1852	-0.05739624
238	0x3d1e3823	0.038627755
239	0x3d2f3ab6	0.0427806
240	0xbd0504ee	-0.032475404
241	0x3d54c8f6	0.051949464
242	0xbd9bca9e	-0.076070055
243	0x3d999309	0.07498748
244	0xbd11a9d3	-0.035562348
245	0x3d8b3012	0.06796278
246	0x3cc00ac5	0.023442635
247	0x3d0c4e16	0.034254156
248	0x3cfb802c	0.030700766
249	0x3d331f52	0.04373104
250	0xbd5abc11	-0.05340201
251	0xbc2aa5ce	-0.0104155075
252	0x3b14a771	0.002268281
253	0xbdba0dff	-0.09084701
254	0xbdb9d50f	-0.09073841
255	0xbc8e022f	-0.017335026

bias f4 [128]
0	0x3e978c6c	0.2959932
1	0xbd40e619	-0.04709444
2	0xbdc06a07	-0.09395223
3	0x3e806b98	0.25082088
4	0xbdd79a54	-0.10527483
5	0x3e842eb4	0.25816882
6	0xbd841291	-0.06448854
7	0x3ea6f0c9	0.3260558
8	0x3d461c49	0.04836682
9	0xbd128781	-0.035773758
10	0xbc763192	-0.015026467
11	0xbd70358a	-0.05864481
12	0x3bfa5b95	0.007640312
13	0x3e890fd3	0.26769885
14	0x3c94edd8	0.018179819
15	0xbd8d30cf	-0.06894075
16	0xbd951a34	-0.072803885
17	0xbd4b6960	-0.04966104
18	0xbcff9f7f	-0.031203983
19	0x3d2c5779	0.042075608
20	0xbdc02140	-0.09381342
21	0x3e665d71	0.22496583
22	0x3e90703b	0.28210625
23	0xbdd9b7ba	-0.10630746
24	0x3e85b008	0.26110864
25	0x3d264764	0.040595427
26	0x3c9ba2da	0.018998552
27	0xbda5bc3b	-0.08092543
28	0xbd107ed6	-0.03527721
29	0xbccb3e57	-0.02481
30	0x3eca7bc7	0.3954756
31	0xbc673573	-0.014111864
32	0xbba8276b	-0.005131652
33	0x3cd7b86c	0.026333056
34	0x3d35844d	0.044315625
35	0xbd5b08d1	-0.053475205
36	0x3ecd3157	0.40076706
37	0xbd9c525e	-0.07632898
38	0x3cc91582	0.024546389
39	0xbec9e3c1	-0.39431575
40	0xbe4c6a92	-0.19962528
41	0xbe08a14f	-0.13342784
42	0x3eb4b7c6	0.35296458
43	0x3e057e5d	0.13036485
44	0xbe7ef257	-0.24897133
45	0x3e7af1de	0.24506328
46	0x3defa12b	0.11700662
47	0x3ebea772	0.37237126
48	0x3ec5b1d4	0.38612235
49	0xbd55f620	-0.052236676
50	0xbd9184bd	-0.07105396
51	0xbd260317	-0.04053029
52	0x3c84e0aa	0.01622041
53	0x3e9850f1	0.29749253
54	0x3e9db1ea	0.307998
55	0x3d18ea54	0.037332848
56	0xbd7429ca	-0.059610166
57	0xbdf933d6	-0.1216809
58	0x3ed28c07	0.41122457
59	0xbc96dea8	-0.018416718
60	0xbdc55429	-0.09635193
61	0x3d3f0567	0.04663601
62	0xbd522b08	-0.05131057
63	0x3f002503	0.50056475
64	0xbcc023c7	-0.02345456
65	0xbcdf5412	-0.027261768
66	0xbca8b79b	-0.020595362
67	0x3ea94970	0.3306384
68	0x3e30c879	0.17263974
69	0x3c67aef6	0.014140835
70	0xbd892753	-0.066969536
71	0xbd34849a	-0.04407177
72	0x3e7e84f6	0.24855408
73	0x3cb5d487	0.022196067
74	0x3ef01906	0.4689409
75	0x3e48eda6	0.19621906
76	0x3d729ae2	0.05922974
77	0x3e64a23f	0.22327517
78	0x3ea02911	0.3128133
79	0xbda454dc	-0.08023998
80	0xbd87a457	-0.06623142
81	0x3e9956f0	0.2994914
82	0x3e40e83b	0.18838589
83	0x3e9fd4fe	0.31217188
84	0x3d2c74f7	0.042103734
85	0x3af68d6b	0.0018810456
86	0x3cc10bf2	0.023565266
87	0xbdb25e0b	-0.087093435
88	0x3e8a0d67	0.2696335
89	0x3e5e3cc2	0.21702865
90	0x3eea6e9d	0.45787516
91	0x3cdd3102	0.027000908
92	0xbe01898b	-0.12650125
93	0x3ecf2bdc	0.4046315
94	0x3e9e3262	0.30897814
95	0x3d2c9281	0.042131905
96	0xbdfe431b	-0.12415143
97	0x3eef5476	0.46744126
98	0xbde6d83f	-0.112717144
99	0x3d47caf3	0.04877753
100	0x3ecbc442	0.3979817
101	0x3e5dd383	0.21662717
102	0xbce0c65d	-0.027438337
103	0x3e835b58	0.25655627
104	0x3cb56c68	0.022146419
105	0x3e8ca7af	0.27471682
106	0x3eba1abd	0.36348525
107	0xbdcc8765	-0.09986762
108	0xbdde651d	-0.108591296
109	0x3c3ffda5	0.011718188
110	0xbe3c370a	-0.1838037
111	0x3cb04bcf	0.021520523
112	0x3ef07f0e	0.46971935
113	0x3ea13b9e	0.31490797
114	0xbd18b8fe	-0.037285797
115	0xbc78b58f	-0.015180006
116	0x3e885553	0.26627597
117	0x3edcfdf4	0.431625
118	0x3c67b7d9	0.014142954
119	0x3eb62a51	0.3557916
120	0x3cface12	0.03061584
121	0x3e72223d	0.23645873
122	0xbe0f9ece	-0.14025423
123	0xbcc12718	-0.023578212
124	0x3e96b0bd	0.29431716
125	0x3ea63d1f	0.32468507
126	0x3e852d2c	0.26011026
127	0x3e909ea0	0.2824602

weight f4 [2, 128]
0	0xbef5b6f9	-0.4799116
1	0x3cba6450	0.02275291
2	0xbd66f689	-0.056387458
3	0x3f06e9b0	0.5270033
4	0xbb4ffb2e	-0.0031735408
5	0x3f08828d	0.53324205
6	0x3d852af1	0.06502331
7	0x3f021930	0.50819683
8	0xbd70aee7	-0.05876055
9	0x3ba207e6	0.004944789
10	0x3c9d5442	0.019205216
11	0xbd477e79	-0.048704598
12	0xbf15f933	-0.5858337
13	0x3e24b58f	0.16084884
14	0xbd65d1af	-0.056108173
15	0xbc8a1ac6	-0.01685847
16	0x3d78618d	0.060639907
17	0xbd211264	-0.03932418
18	0xbbb62ce9	-0.005559553
19	0xbc28230a	-0.01026226
20	0xbc82ba8d	-0.015958095
21	0x3f05c9e9	0.52261215
22	0x3ee6041e	0.44925016
23	0xbd0a9525	-0.03383364
24	0x3f0c27e9	0.547484
25	0x39b2728b	0.00034036147
26	0x3c1ab50d	0.00944258
27	0xbf13bbc9	-0.5770841
28	0x3d160987	0.03663018
29	0x3ca30e90	0.019904405
30	0x3f1c3350	0.61015797
31	0x3ca107e4	0.019657083
32	0xbd0a6f8d	-0.03379779
33	0x3cc48559	0.023989366
34	0xbd8ca5af	-0.06867539
35	0xbc434ba8	-0.011919893
36	0x3f25f355	0.6482442
37	0xbb1600cb	-0.0022888656
38	0xbbb0694d	-0.0053836466
39	0xbf8ce052	-1.1005957
40	0xbedac53c	-0.42728603
41	0x3b850920	0.0040599257
42	0x3f1c2e40	0.6100807
43	0x3ee91583	0.45524225
44	0xbeeae23d	-0.4587573
45	0x3ef252ba	0.4732874
46	0xbf8d29ff	-1.1028441
47	0x3f1f5f14	0.6225445
48	0x3edb0a21	0.42781165
49	0xbd4fc085	-0.05072071
50	0xbd278858	-0.040901512
51	0x3cb672f2	0.022271607
52	0x3c3ccc75	0.011523356
53	0x3f01bbca	0.5067717
54	0x3f01bc8e	0.50678337
55	0x3cf08274	0.02935908
56	0x3d2b764f	0.041860875
57	0x3d023ee0	0.031798244
58	0x3efd8048	0.49511933
59	0x3d82a5f4	0.06379309
60	0xbc85d19f	-0.016335307
61	0x3c050903	0.008119824
62	0xbcb9d30d	-0.022683645
63	0x3eebe13b	0.46070275
64	0xbd608d00	-0.054821968
65	0xbcaf16ad	-0.021373117
66	0x3d6ea4b7	0.058262553
67	0x3f0aa806	0.54162633
68	0x3f0bbedb	0.545881
69	0xbccb1312	-0.024789367
70	0x3d1666d2	0.03671915
71	0x3bfa04c3	0.007629962
72	0x3ef19b89	0.47188976
73	0xbcec0a11	-0.028813394
74	0x3f1ce7fe	0.6129149
75	0x3ef95ec7	0.48705122
76	0x3caf3ef3	0.021392321
77	0x3ee78ebc	0.45226085
78	0x3f210bdb	0.62908715
79	0x3a8a6486	0.0010558523
80	0xbd0d9971	-0.03457016
81	0x3f0254bb	0.5091054
82	0x3f061482	0.5237504
83	0x3ee628dc	0.44953048
84	0xbd1ced78	-0.038312405
85	0xbcd02b51	-0.02541128
86	0xbd7f5ff5	-0.06234737
87	0x3bfb347e	0.0076661697
88	0x3f185920	0.59510994
89	0x3f0a2273	0.53958815
90	0x3ef97221	0.48719886
91	0x3cee7255	0.029107252
92	0x3cfe4e55	0.031043211
93	0x3f2528fc	0.6451566
94	0x3f28cfef	0.6594228
95	0xbd3e462f	-0.04645365
96	0xbd35c8db	-0.044381004
97	0x3f0ca81c	0.54944015
98	0xbd4e5a82	-0.050379284
99	0x3d2c93aa	0.04213301
100	0x3f2130a3	0.6296484
101	0x3f062d81	0.52413183
102	0xbd72b19a	-0.059251405
103	0x3ed8b6a2	0.42326838
104	0x3c833d91	0.016020568
105	0x3f0754ee	0.5286397
106	0x3f182025	0.5942405
107	0x3cc32452	0.02382103
108	0xbcdc1197	-0.026863856
109	0xbc3ac4a9	-0.0113994265
110	0xbdee3e99	-0.11633033
111	0x3c11f4bf	0.00890845
112	0x3f16ea29	0.5895105
113	0x3f1a3610	0.6023874
114	0xbd5dc8e9	-0.05414668
115	0xbc8c6510	-0.017138034
116	0x3f25bb8b	0.6473929
117	0x3f2ab0e5	0.6667617
118	0x3ccbfcde	0.02490085
119	0x3f0ff7a3	0.5623724
120	0xbd508aec	-0.050913736
121	0x3f0aa081	0.5415116
122	0xbdca9436	-0.0989155
123	0xbbc15263	-0.005899714
124	0x3f1adbc0	0.6049156
125	0x3f12a1e3	0.5727827
126	0x3ee73d7c	0.45164096
127	0x3f17339f	0.5906314
128	0x3f7d9f11	0.9907084
129	0xbd45c58e	-0.048284106
130	0xbd36648f	-0.044529494
131	0x3f084b57	0.5323996
132	0xbb81ba96	-0.0039590104
133	0x3ea2ad6c	0.31772935
134	0x3d02e361	0.031955127
135	0x3f1c16d4	0.6097233
136	0xbc55fd52	-0.013060885
137	0xbd8c7df7	-0.068599634
138	0xbd866bdf	-0.065635435
139	0xbc0e0955	-0.008669217
140	0x3d648e4f	0.05579978
141	0x3f4622a7	0.77396625
142	0x3cc14557	0.023592634
143	0xbc0ba9dc	-0.008524384
144	0x3d785f2d	0.06063764
145	0xbc03061b	-0.007997061
146	0x3af8e441	0.0018988923
147	0x3c20c91e	0.009813575
148	0xbbaf1d8a	-0.0053440975
149	0x3f2614ef	0.6487569
150	0x3f03b67e	0.51450336
151	0x3beb302c	0.0071773734
152	0x3f135614	0.5755322
153	0x3d962be5	0.07332591
154	0xbd8ecb8e	-0.06972419
155	0xbe5b1ad0	-0.21396947
156	0xbd1087e6	-0.035285853
157	0xbcd8a567	-0.026446057
158	0x3f115a78	0.5677867
159	0xbc9c8d7b	-0.019110432
160	0x3c55b78d	0.01304425
161	0xbd2cec85	-0.04221775
162	0x3cee673c	0.02910196
163	0xbd9deb08	-0.07710844
164	0x3f1db7df	0.6160869
165	0xbda29cf6	-0.07940094
166	0xbc0a76a1	-0.008451135
167	0xbf960bb3	-1.172232
168	0xbd7bf46b	-0.061512392
169	0x3c7b3bc6	0.015334075
170	0x3f1bcebb	0.6086232
171	0x3f0d1d3d	0.5512274
172	0xbf72cb32	-0.948413
173	0x3ed31e10	0.41233873
174	0x3f37e919	0.71840054
175	0x3f393615	0.7234815
176	0x3f41d004	0.7570803
177	0xbd20aae8	-0.03922549
178	0xbd960669	-0.073254414
179	0xbd839678	-0.06425184
180	0xbd21ede6	-0.03953352
181	0x3ef20ad3	0.47273883
182	0x3f1c88d9	0.6114631
183	0xbd3f23d1	-0.046665017
184	0xbd61ebed	-0.055156637
185	0x3b08f489	0.0020897707
186	0x3f0e1211	0.5549632
187	0xbbecee07	-0.0072305235
188	0xbdb39a61	-0.0876968
189	0xbd48f88e	-0.049065165
190	0xbda0e022	-0.0785525
191	0x3f2b4920	0.66908455
192	0xbd46afb9	-0.048507426
193	0xbc76c5ac	-0.015061777
194	0xbd982bde	-0.07430242
195	0x3f2574f4	0.6463158
196	0x3f0b788e	0.54480827
197	0x3d12d3eb	0.035846632
198	0xbd452173	-0.048127603
199	0xbcec69cc	-0.028859042
200	0x3ecebc07	0.40377828
201	0x3d5ba869	0.053627405
202	0x3f145343	0.5793955
203	0x3ef91f71	0.486568
204	0xbd4676d2	-0.04845316
205	0x3f01ebd8	0.50750494
206	0x3edc910b	0.4307941
207	0xbd6c7fb0	-0.05773896
208	0xbd89ba83	-0.067250274
209	0x3f046deb	0.5173022
210	0xbf2ff6a8	-0.6873574
211	0x3f2ac585	0.6670764
212	0x3d0657d9	0.03279862
213	0x3bd962bd	0.006634085
214	0xbc3f8d24	-0.011691365
215	0x3d84df88	0.06487948
216	0x3eff7c1c	0.49899375
217	0xbf71b2ca	-0.94413435
218	0x3f225943	0.6341745
219	0xbcfa0df7	-0.030524237
220	0x3c9ad5aa	0.018900711
221	0x3f114a00	0.5675354
222	0x3f21d82c	0.6322048
223	0x3d366d4f	0.04453784
224	0x3d093d73	0.03350587
225	0x3ed35898	0.4127853
226	0xbd583898	-0.052788347
227	0xbd42ff83	-0.047606956
228	0x3f15e12b	0.58546704
229	0xbe8529b4	-0.2600838
230	0x3d5e7790	0.054313242
231	0x3f333659	0.700048
232	0xbcd0a742	-0.02547038
233	0x3f08878b	0.5333182
234	0x3f185b3a	0.595142
235	0xbd52a874	-0.05143018
236	0x3ce00574	0.02734635
237	0xbb5ff605	-0.0034173739
238	0xbf47130c	-0.7776344
239	0xbc8bc066	-0.017059516
240	0x3f0c7faf	0.5488233
241	0x3ef6b0b8	0.481817
242	0xbc7cb3f6	-0.015423765
243	0xbd02a97a	-0.031899907
244	0x3ecc830c	0.3994373
245	0x3f1497fb	0.58044404
246	0xbd9336c3	-0.07188179
247	0x3f2224cd	0.63337404
248	0x3d88a9ca	0.0667301
249	0x3ebe041f	0.3711252
250	0x3db957da	0.090499595
251	0x3ccf2176	0.02528451
252	0x3efd1e7e	0.49437326
253	0x3f20a2ac	0.6274822
254	0xbe91a48c	-0.28445852
255	0x3f28474b	0.65733784

bias f4 [2]
0	0x3e943233	0.2894455
1	0x3ebb7897	0.3661544
