bpa_2/tasks_bpa2/tasks/solution/PPO_LunarLander-v2-eps0.18.pth (torch, 554331 bytes, 11 tensors)

action_layer.0.weight f4 [256, 8]
0.26168862 0.34004942 -0.06738427 0.39810532 -0.13290145 0.0921158 -0.102889635 0.23897736
0.27649307 -0.20627694 0.36389288 -0.066502415 0.4879486 0.14004609 0.15295728 -0.05929207
0.2544357 0.0009912228 -0.16106598 0.10703141 -0.14372115 -0.0029868302 -0.13395861 0.18327408
-0.29018894 -0.22677314 -0.056357715 -0.30941656 0.08817933 -0.32373974 0.31017828 -0.35828197
0.22487894 0.09531998 -0.112582736 0.18840055 0.18039484 0.35085937 0.007977423 -0.13692223
0.021969836 -0.09959599 0.18011513 0.27545652 0.17260638 -0.11925834 0.14138421 0.03332456
0.15329732 -0.26797304 -0.2839572 -0.257233 -0.22058406 0.38551366 0.09801217 0.23355909
0.16589375 -0.0547934 0.3056134 -0.26303282 -0.075090885 -0.45786482 0.07422283 -0.08318704
0.11811128 -0.12306102 0.2711115 -0.19970134 -0.3545003 -0.38134098 0.35667938 0.1735079
0.2786217 -0.36922172 -0.35129666 -0.33843797 -0.22125584 0.12098996 0.06390226 0.26597577
-0.21691789 -0.38930127 0.14431542 -0.20861723 0.088893145 -0.10679251 0.22421546 -0.3281134
-0.22116686 0.09443275 0.086144656 -0.057725597 0.18873082 0.23047566 -0.27193272 -0.17679335
0.32101235 -0.12747428 -0.13744844 -0.448223 -0.19432311 0.11825095 0.00069587305 -0.36735937
-0.041706916 -0.19251882 -0.30766267 -0.2848528 -0.4126203 -0.24462728 0.31003588 -0.0342442
0.051120274 -0.34464177 -0.2553617 -0.25407517 0.03585803 -0.35908988 -0.23002419 -0.09153727
-0.059699964 -0.15246563 -0.18135254 -0.27171156 -0.27817446 -0.25396883 -0.03310659 -0.36581522
0.3216892 -0.08751401 0.32786772 0.20389621 -0.45970342 0.17359656 -0.124271534 -0.06518055
-0.42426848 -0.2759362 0.010862469 -0.24898194 0.07912246 -0.38815305 0.1996334 -0.2845943
-0.06281601 0.094075136 0.18129243 0.32369277 0.3995507 -0.17116857 0.057168208 -0.19803572
0.017738089 -0.20595996 0.38157037 -0.37606817 0.39480996 0.3081077 0.27707633 -0.2094487
0.27688265 0.00031900825 0.10177694 -0.39351976 0.13542804 -0.17548122 -0.26979178 0.2375949
0.0128208455 -0.20668396 -0.2253644 -0.025182215 0.23549992 -0.18103111 -0.20367642 -0.23026943
-0.22407125 0.0870475 0.3212638 -0.42543525 0.22048387 0.29595616 0.179363 -0.0620909
0.20294487 0.1287444 0.14088288 -0.12173819 -0.07126627 0.04177766 -0.091888994 -0.26126167
0.30382282 0.29664215 0.055301983 -0.12574582 0.15014443 0.14929406 -0.08466283 0.10655891
-0.25974438 -0.12204007 0.31506595 0.12136644 -0.1545139 -0.43169355 -0.16804221 -0.12624873
-0.02695368 0.16466126 0.250826 0.15871859 -0.42948252 -0.31566992 -0.113366924 0.37563264
0.04469449 -0.12916443 0.079915956 -0.20992649 -0.21011174 0.305091 -0.084300414 0.013716146
-0.27826038 0.24025786 0.2915808 0.1544639 -0.411595 -0.48473442 -0.38200235 0.30555922
0.1693275 0.30260274 0.24357036 0.10196769 -0.21918361 -0.3082295 -0.2913856 -0.39286968
0.13519451 -0.22874042 -0.0496818 -0.31635123 -0.0087477155 -0.37072244 -0.22555143 0.094334975
-0.067898564 0.13990338 -0.038370267 -0.33430743 -0.045906764 -0.29229107 -0.09278312 -0.22654213
00000000: 0dfc 853e f51a ae3e c400 8abd 76d4 cb3e
00000010: 5117 08be 35a7 bc3d cdb7 d2bd 7bb6 743e
00000020: 8090 8d3e 433a 53be 2b50 ba3e 6b32 88bd
00000030: 66d4 f93e 3e68 0f3e d5a0 1c3e 3edc 72bd
00000040: 6545 823e ebeb 813a 7bee 24be 4933 db3d
00000050: a32b 13be b2be 43bb 722c 09be 33ac 3b3e
00000060: a593 94be 3837 68be 59d7 66bd d96b 9ebe
00000070: 5d97 b43d 37c1 a5be b0cf 9e3e bc70 b7be
00000080: aa46 663e 1f37 c33d c791 e6bd 13ec 403e
00000090: 6db9 383e d7a3 b33e bdb3 023c 5735 0cbe
000000a0: 16fa b33c fbf8 cbbd 1a70 383e a308 8d3e
000000b0: babf 303e b73d f4bd 06c7 103e 557f 083d
000000c0: f9f9 1c3e c333 89be d762 91be 0bb4 83be
000000d0: cae0 61be 0c62 c53e 9bba c83d 1d2a 6f3e
000000e0: 0de0 293e 0b6f 60bd 5c79 9c3e 3dac 86be
000000f0: 40c9 99bd 426d eabe 2402 983d f85d aabd
00000100: 54e4 f13d 6b07 fcbd 20cf 8a3e 827e 4cbe
00000110: 1081 b5be 203f c3be ae9e b63e 0eac 313e
00000120: 81a7 8e3e a10a bdbe 28dd b3be be47 adbe
00000130: e490 62be 96c9 f73d 30df 823d fa2d 883e
00000140: b91f 5ebe 7f52 c7be 6cc7 133e c19f 55be
00000150: 9c0d b63d 08b6 dabd bd98 653e 7bfe a7be
00000160: 9179 62be f565 c13d 9c6c b03d ad71 6cbd
00000170: a742 413e d001 6c3e c43a 8bbe 5109 35be
00000180: bb5b a43e 9e88 02be 49bf 0cbe 7c7d e5be
00000190: a3fc 46be 8e2d f23d 406b 363a 8716 bcbe
000001a0: dfd4 2abd a723 45be f685 9dbe 3ad8 91be
000001b0: f842 d3be 937f 7abe 06bd 9e3e a543 0cbd
000001c0: 7e63 513d e374 b0be c5be 82be 2416 82be
000001d0: dfdf 123d a1da b7be 768b 6bbe e477 bbbd
000001e0: f387 74bd f31f 1cbe 7bb4 39be c71d 8bbe
000001f0: e26c 8ebe 3408 82be c79a 07bd 224c bbbe
00000200: 72b4 a43e 8c3a b3bd 47de a73e 2bca 503e
00000210: 3f5e ebbe 4cc3 313e 1382 febd 617d 85bd
00000220: b839 d9be 8247 8dbe 7ff8 313c 1ff5 7ebe
00000230: f50a a23d ffbb c6be b36c 4c3e 58b6 91be
00000240: aea5 80bd 77aa c03d b9a4 393e 0fbb a53e
00000250: e991 cc3e d046 2fbe 3629 6a3d e0c9 4abe
00000260: 784f 913c 2be7 52be 315d c33e 028c c0be
00000270: 8824 ca3e 4bc0 9d3e f3dc 8d3e b879 56be
00000280: 90c3 8d3e 9040 a739 6e70 d03d 6c7b c9be
00000290: a6ad 0a3e 59b1 33be 2622 8abe 144c 733e
000002a0: 860e 523c f6a4 53be edc5 66be ef4a cebc
000002b0: e426 713e 3860 39be 8d90 50be c0cb 6bbe
000002c0: ef72 65be f645 b23d b07c a43e a6d2 d9be
000002d0: 86c6 613e 9187 973e efaa 373e 0753 7ebd
000002e0: c8d0 4f3e 92d5 033e 9a43 103e df51 f9bd
000002f0: 0df4 91bd 0d1f 2b3d 4c30 bcbd 17c4 85be
00000300: aa8e 9b3e 7be1 973e 5584 623d 83c3 00be
00000310: 76bf 193e 8be0 183e b563 adbd 8f3b da3d
00000320: 37fd 84be 25f0 f9bd 5350 a13e f88e f83d
00000330: e438 1ebe f006 ddbe 4213 2cbe 5947 01be
00000340: f7cd dcbc f69c 283e 446c 803e 2087 223e
00000350: 22e5 dbbe 7d9f a1be eb2c e8bd ec52 c03e
00000360: 9211 373d ae43 04be faaa a33d f8f6 56be
00000370: 8827 57be e334 9c3e b2a5 acbd b0b9 603c
00000380: 2578 8ebe 2806 763e 144a 953e c92b 1e3e
00000390: 94bc d2be 1c2f f8be d095 c3be 4272 9c3e
000003a0: 3064 2d3e bfee 9a3e 826a 793e 70d4 d03d
000003b0: ab71 60be 42d0 9dbe 7e30 95be 3726 c9be
000003c0: 6e70 0a3e ee3a 6abe 257f 4bbd caf8 a1be
000003d0: 9452 0fbc 55cf bdbe f4f6 66be b232 c13d
000003e0: 670e 8bbd d542 0f3e 242a 1dbd 582a abbe
000003f0: bb08 3cbd 2da7 95be 1405 bebd a9fa 67be

action_layer.0.bias f4 [256]
0.19030355 0.10633676 -0.14214766 0.16941802 0.16266435 -0.38243574 -0.13659315 -0.0062332707
0.08922841 0.14516667 -0.2368434 -0.37287775 0.04303583 -0.0098232115 0.119930975 -0.064527996
0.22324575 0.07563719 0.25850987 -0.07630834 0.10853577 0.055508018 -0.09782654 0.14465006
-0.33933905 0.281903 0.06773541 0.027172564 0.14245369 0.03804994 0.14500837 0.20824844
-0.3674379 0.17616233 -0.038334038 -0.036441814 0.07956092 0.22215496 -0.16381593 -0.2483724
0.22018956 -0.21993488 0.10684768 -0.0420555 0.10495295 0.27354366 -0.06232174 -0.16736265
0.18081298 -0.0075747515 -0.02447058 -0.2188771 0.2680281 0.004914767 -0.024609677 -0.031443454
0.026394192 0.14030185 0.012116923 0.28054997 -0.07708398 -0.038797725 0.1526594 -0.019536939
0.018443113 0.12537962 0.26534984 0.08764252 0.18128268 0.2272335 0.052570585 0.11838206
0.086810134 0.061337404 0.23257121 0.27317607 0.073735766 0.009943895 0.24634317 -0.23192617
0.26062658 0.21937725 0.19295947 0.0074884044 -0.3158515 0.24170959 -0.09533494 0.13027494
0.20351122 -0.31019586 0.08283612 -0.08130695 0.2611899 -0.14517547 0.18046664 0.22260754
0.17535318 0.26639664 0.1387145 -0.29527313 0.23979016 -0.028125336 0.026194733 -0.31828374
-0.13022067 -0.02797919 0.31135276 0.190296 0.23478223 0.24366139 -0.14390004 -0.1877631
-0.13566373 -0.121755995 0.2526566 0.15529002 0.2466702 -0.03618169 -0.31375197 -0.06966203
0.252187 0.14875199 0.13170856 0.0025590071 -0.26763892 -0.24162026 0.1673272 -0.05475003
0.11770744 0.17565334 -0.16531542 0.15181321 -0.04983159 0.07988482 -0.19392093 -0.35939127
0.16624776 0.111019455 -0.08446644 0.21508498 -0.3027845 -0.35983622 -0.24051575 -0.020610174
0.040176608 0.015337704 0.13612518 -0.29507568 0.10930684 0.0368759 0.23281312 0.3345252
0.15242451 -0.25762823 -0.29866183 -0.017776461 -0.189797 0.12104997 0.015864203 0.30395854
0.14993621 -0.13289587 -0.009684455 0.056714624 -0.00024231998 0.2564971 -0.16351096 0.12364552
-0.25475332 -0.25250292 -0.10953096 0.18049432 0.17653568 0.08298105 -0.09167332 0.0137672145
-0.15946823 0.040819112 -0.045116812 0.3256447 0.16734135 -0.20856991 -0.012986995 -0.1301112
-0.04008175 -0.2573822 0.03946718 -0.30873877 0.41078332 0.2638306 -0.20295979 -0.34839332
0.057029486 -0.0009681341 0.08149779 -0.2880675 0.1355434 -0.3429833 -0.14006612 -0.13680807
0.17875431 0.015497445 -0.33014664 -0.10278381 -0.22043659 -0.2485458 0.10746057 0.115010045
-0.0038804307 -0.16846466 0.10853991 -0.20672247 -0.20955634 -0.06537516 0.25314552 -0.08861165
0.22481944 -0.1707497 -0.096779235 -0.31142542 0.22255923 0.29539326 0.07150448 0.21751347
0.258621 0.1874356 0.18392105 -0.27436322 -0.19300985 -0.15527834 0.08502288 -0.38348147
-0.22939762 -0.11481191 -0.32195994 -0.024205694 0.12836643 -0.2077939 0.215442 -0.1783439
-0.14293405 0.15665501 0.3110963 -0.011013109 -0.25177875 -0.12188273 0.007625242 0.257738
0.15487228 -0.17328493 -0.28009567 -0.32705897 -0.13714714 0.047589824 -0.123333976 -0.37790665
00000000: efde 423e 16c7 d93d 288f 11be eb7b 2d3e
00000010: 7c91 263e 9ece c3be 13df 0bbe 7740 ccbb
00000020: 62bd b63d 92a6 143e 1487 72be d5e9 bebe
00000030: 5746 303d 89f1 20bc 5f9e f53d 4127 84bd
00000040: 899a 643e ace7 9a3d 685b 843e 8c47 9cbd
00000050: 0048 de3d 605c 633d 4859 c8bd 251f 143e
00000060: d9bd adbe 9755 903e ddb8 8a3d ff98 de3c
00000070: 61df 113e 41da 1b3d 137d 143e 143f 553e
00000080: d220 bcbe e663 343e 2704 1dbd 0344 15bd
00000090: d6f0 a23d 977c 633e 5dbf 27be 5655 7ebe
000000a0: 5f79 613e 9c36 61be f5d2 da3d 6342 2cbd
000000b0: 92f1 d63d ea0d 8c3e 1545 7fbd 1d61 2bbe
000000c0: 0a27 393e 9f35 f8bb 8776 c8bc 5221 60be
000000d0: fb3a 893e 0e0c a13b 3c9a c9bc daca 00bd
000000e0: a238 d83c 4aab 0f3e 0f86 463c 3fa4 8f3e
000000f0: 35de 9dbd 5dea 1ebd bf52 1c3e ee0b a0bc
00000100: 0316 973c 8463 003e efdb 873e ec7d b33d
00000110: 2ba2 393e e6af 683e 4154 573d 4b72 f23d
00000120: 83c9 b13d ee3c 7b3d 2627 6e3e bcdd 8b3e
00000130: c702 973d b8eb 223c 6241 7c3e 0e7e 6dbe
00000140: d970 853e 6ea4 603e 2b97 453e 4a61 f53b
00000150: 4ab7 a1be b882 773e f73e c3bd cb66 053e
00000160: 3f65 503e fed1 9ebe fca5 a93d 4284 a6bd
00000170: afba 853e e1a8 14be 3fcc 383e 3bf3 633e
00000180: c98f 333e 2465 883e 2d0b 0e3e 0a2e 97be
00000190: 8d8b 753e 1b67 e6bc 5696 d63c 16f6 a2be
000001a0: 9158 05be 9d34 e5bc a169 9f3e f4dc 423e
000001b0: c16a 703e 5f82 793e 885a 13be f844 40be
000001c0: 6feb 0abe 355b f9bd 355c 813e 5904 1f3e
000001d0: 1d97 7c3e 4033 14bd 19a4 a0be f7aa 8ebd
000001e0: a81e 813e 7152 183e 9cde 063e 04b5 273b
000001f0: f807 89be 4d6b 77be d257 2b3e 9141 60bd
00000200: 9910 f13d 78de 333e 7248 29be ec74 1b3e
00000210: 361c 4cbd a79a a33d 3593 46be 2202 b8be
00000220: da3c 2a3e 2b5e e33d befc acbd 3d3f 5c3e
00000230: 9206 9bbe 743c b8be c349 76be abd6 a8bc
00000240: 3a90 243d fe4a 7b3c 6664 0b3e 2914 97be
00000250: 44dc df3d 2f0b 173d 9066 6e3e e346 ab3e
00000260: 2c15 1c3e d9e7 83be 34ea 98be f19f 91bc
00000270: 255a 42be 0ce9 f73d a5f5 813c 74a0 9b3e
00000280: e188 193e db15 08be 8cab 1ebc 984d 683d
00000290: 4617 7eb9 9753 833e 6b6f 27be dd39 fd3d
000002a0: 076f 82be 1048 81be c551 e0bd 81d3 383e
000002b0: c5c5 343e f8f1 a93d 39bf bbbd e28f 613c
000002c0: a44b 23be f131 273d 68cc 38bd e7ba a63e
000002d0: 885b 2b3e 5a93 55be 68c7 54bc df3b 05be
000002e0: c32c 24bd 9ac7 83be 56a8 213d 0213 9ebe
000002f0: 3152 d23e ce14 873e b1d4 4fbe 9c60 b2be
00000300: c097 693d 61ca 7dba 50e8 a63d 957d 93be
00000310: e4cb 0a3e 829b afbe 7e6d 0fbe 6a17 0cbe
00000320: 5f0b 373e ffe8 7d3c fb08 a9be 5180 d2bd
00000330: 21ba 61be ca82 7ebe 4a14 dc3d 638a eb3d
00000340: d34e 7ebb 0082 2cbe 2c4a de3d 0eaf 53be
00000350: f095 56be 69e3 85bd 4a9c 813e 067a b5bd
00000360: 1137 663e 02d9 2ebe 3134 c6bd 2773 9fbe
00000370: 91e6 633e c93d 973e f170 923d dabb 5e3e
00000380: f969 843e 1eef 3f3e cd55 3c3e 5679 8cbe
00000390: 60a4 45be 4901 1fbe 7a20 ae3d af57 c4be
000003a0: 36e7 6abe 8222 ebbd efd7 a4be 054b c6bc
000003b0: 7d72 033e edc7 54be d49c 5c3e c99f 36be
000003c0: 4e5d 12be 2c6a 203e 0448 9f3e 5470 34bc
000003d0: 25e9 80be a79d f9bd 2bdd f93b 3cf6 833e
000003e0: d796 1e3e 9b71 31be b368 8fbe 4674 a7be
000003f0: 4d70 0cbe 8ced 423d 8696 fcbd fb7c c1be

action_layer.2.weight f4 [256, 256]
-0.007972147 -0.094723925 -0.054243512 -0.075206205 -0.04031381 0.076321 0.050413907 -0.058640942
-0.0064730407 0.0106210625 -0.039674517 -0.049243417 -0.06459589 -0.06356903 -0.009534002 -0.069881395
-0.06283192 -0.060953382 0.045343302 -0.006027289 0.0046485607 0.005840975 -0.055547256 -0.027839316
-0.061869208 -0.08160631 -0.07593167 -0.067979366 -0.1455427 8.845217e-05 0.0047174585 -0.05080712
0.06994369 -0.03154477 -0.018205663 -0.045476053 0.02773455 -0.0011884936 -0.022824392 -0.008287984
0.019639252 -0.009987685 -0.008482035 -0.037060343 -0.02140093 -0.019435357 -0.08084029 -0.028302446
0.016282983 0.016504629 -0.02103936 -0.0027308061 0.024572078 0.0026865206 0.019915449 0.01090225
-0.031118711 -0.08277111 0.003951031 -0.054738328 0.09714108 0.025871648 -0.012334672 0.03357372
-0.051821586 0.04109382 0.03317835 0.014998405 -0.075808614 -0.035343025 -0.045830444 -0.011690157
-0.067741595 0.013186366 -0.044720843 -0.028434653 -0.07019168 -0.05226013 -0.09712673 -0.046562776
-0.029937426 0.01424671 0.06795261 -0.092710346 0.03721985 -0.049791746 -0.034439363 -0.014505788
-0.07363641 -0.042783387 -0.11315489 -0.05740855 0.06655888 0.008580306 -0.06010213 -0.071393944
-0.10035302 -0.0541297 -0.025716314 -0.02398528 0.027381565 -0.033199865 0.02810764 -0.088142894
-0.05318006 -0.005628598 -0.08056268 -0.00084133545 0.017046321 -0.04719683 -0.06190499 0.043247033
-0.054039426 0.036958855 -0.08199116 0.031457763 -0.12282126 -0.06825338 0.0151165705 -0.004595508
0.047441356 0.034464702 0.0057789246 0.0070198574 -0.001951236 -0.0027202833 -0.026211241 -0.0785307
-0.09495123 0.085487865 -0.060363572 0.033936508 0.0035294292 0.027401736 0.05774759 -0.02631725
-0.02130531 -0.006721933 -0.031421807 -0.059222467 0.006332646 0.017810633 -0.0028453462 0.03572122
-0.0036746506 -0.041900113 -0.0018477023 0.042029433 0.023241596 -0.013202511 -0.018831758 -0.06308788
0.013761805 0.07337662 0.017018761 -0.041135687 0.024580846 -0.02246048 0.05294409 0.062434286
-0.027278218 -0.042007197 0.031739574 -0.05538338 0.016447231 -0.089424625 -0.0025369052 -0.09907653
-0.016466346 0.016658753 -0.036514796 -0.05381224 0.010425727 0.01141172 -0.036301035 -0.08659106
-0.02501607 -0.0017451872 0.02567712 -0.018146973 -0.05112353 -0.034081828 -0.064836256 0.027751507
0.04700515 0.015024325 -0.0455986 0.009460456 -0.0069814646 -0.038663413 0.020603662 -0.0005541758
0.0333344 -0.009052169 0.017360318 -0.030215608 0.022844078 -0.025386706 -0.00888736 -0.10191063
-0.052223474 -0.025803823 -0.1059932 -0.040013492 -0.005031864 -0.003677073 -0.08986715 0.0281421
-0.0036630717 0.027575525 0.05356732 -0.0245314 -0.024810385 0.029590657 0.021554288 -0.024733525
0.06381668 -0.028106598 -0.011570808 0.050480615 -0.0052133864 0.025908934 0.0029108992 -0.043116737
0.033608288 0.0032795037 -0.0145721175 -0.04864194 -0.028684748 -0.07446707 0.016793083 -0.00867119
0.009311609 0.04447696 -0.012065125 -0.02492841 0.045277834 -0.028611325 -0.06141263 0.06865721
0.040504884 -0.02961379 -0.07488744 -0.008734163 -0.032347657 -0.04513667 -0.047261223 0.0027167175
0.05024881 -0.02452417 0.012055759 -0.036523037 -0.022802306 0.023360888 -0.0093466295 0.02458038
00000000: 9c9d 02bc 9efe c1bd 722e 5ebd b605 9abd
00000010: 1820 25bd 2f4e 9c3d d07e 4e3d 7c31 70bd
00000020: cd1b d4bb f703 2e3c bf81 22bd 77b3 49bd
00000030: da4a 84bd 7b30 82bd 8134 1cbc fa1d 8fbd
00000040: 06ae 80bd 41aa 79bd e6b9 393d 9180 c5bb
00000050: f452 983b a665 bf3b 8585 63bd 470f e4bc
00000060: 916a 7dbd 3621 a7bd 1082 9bbd c438 8bbd
00000070: 2509 15be 667f b938 e994 9a3b 201b 50bd
00000080: a33e 8f3d 1735 01bd 0b24 95bc 1945 3abd
00000090: 9133 e33c 3ac7 9bba 38fa babc 53ca 07bc
000000a0: 7fe2 a03c 63a3 23bc 3cf8 0abc 96cc 17bd
000000b0: 0151 afbc e636 9fbc 988f a5bd 88da e7bc
000000c0: e463 853c b734 873c bc5a acbc 53f7 32bb
000000d0: 624b c93c 5610 303b b925 a33c 5a9f 323c
000000e0: abec febc e683 a9bd a677 813b 4c35 60bd
000000f0: e7f1 c63d c7f0 d33c 5d17 4abc 9984 093d
00000100: df42 54bd fe51 283d 06e6 073d dfbb 753c
00000110: 8c41 9bbd d9c3 10bd b4b8 3bbd 1388 3fbc
00000120: 1bbc 8abd a10b 583c 342d 37bd caef e8bc
00000130: a8c0 8fbd b80e 56bd 61ea c6bd 9cb8 3ebd
00000140: 553f f5bc 086b 693c bd2a 8b3d ecde bdbd
00000150: d773 183d 6ef2 4bbd 4a10 0dbd afa9 6dbc
00000160: b0ce 96bd a23d 2fbd c0bd e7bd 3a25 6bbd
00000170: 0650 883d 6994 0c3c a72d 76bd fd36 92bd
00000180: e285 cdbd 1bb7 5dbd 05ab d2bc c77c c4bc
00000190: 4e4f e03c 95fc 07bd fe41 e63c 4384 b4bd
000001a0: 56d3 59bd 1a70 b8bb 0cfe a4bd 118d 5cba
000001b0: baa4 8b3c 7751 41bd 1690 7dbd cd23 313d
000001c0: 7258 5dbd 2b62 173d fbea a7bd dbd9 003d
000001d0: b689 fbbd 6ec8 8bbd 7eab 773c ea95 96bb
000001e0: de51 423d dc2a 0d3d 225d bd3b d506 e63b
000001f0: 9ec0 ffba c846 32bb f5b8 d6bc b4d4 a0bd
00000200: ca75 c2bd 4314 af3d cb3f 77bd 0201 0b3d
00000210: ff4d 673b 9b79 e03c bd88 6c3d 4697 d7bc
00000220: 7988 aebc a943 dcbb 27b4 00bd 4293 72bd
00000230: 1682 cf3b 9be7 913c fd78 3abb 6a50 123d
00000240: 68d2 70bb 749f 2bbd 9a2e f2ba 0e27 2c3d
00000250: 2965 be3c 584f 58bc 0f45 9abc 3834 81bd
00000260: 3279 613c 7b46 963d ee6a 8b3c e57d 28bd
00000270: c55d c93c 0aff b7bc e7db 583d 18bb 7f3d
00000280: 9276 dfbc bd0f 2cbd 5b01 023d afd9 62bd
00000290: 58bc 863c 4224 b7bd 3542 26bb a3e8 cabd
000002a0: 6ee4 86bc f077 883c 8a90 15bd 396a 5cbd
000002b0: abd0 2a3c 39f8 3a3c 65b0 14bd a756 b1bd
000002c0: 80ee ccbc c4be e4ba d358 d23c f6a8 94bc
000002d0: e866 51bd 6399 0bbd dfc8 84bd 2157 e33c
000002e0: 7988 403d 9628 763c 99c5 3abd 0700 1b3c
000002f0: c5c4 e4bb 875d 1ebd 03c9 a83c 1c46 11ba
00000300: a789 083d 8c4f 14bc 3a37 8e3c b986 f7bc
00000310: 8123 bb3c c8f7 cfbc 4a9c 11bc 85b6 d0bd
00000320: 48e8 55bd 8a62 d3bc f612 d9bd 30e5 23bd
00000330: 56e2 a4bb 0cfb 70bb 450c b8bd 438a e63c
00000340: 2510 70bb 11e6 e13c 6869 5b3d 13f6 c8bc
00000350: 263f cbbc 1b68 f23c 9e92 b03c f69d cabc
00000360: 52b2 823d cf3f e6bc 7c93 3dbc c3c4 4e3d
00000370: 0ed5 aabb f93e d43c c9c4 3e3b 2d9b 30bd
00000380: d8a8 093d f1ec 563b e4bf 6ebc c53c 47bd
00000390: 47fc eabc 3182 98bd a691 893c 9b11 0ebc
000003a0: b88f 183c 792d 363d cdac 45bc aa36 ccbc
000003b0: 4075 393d 4c62 eabc cf8b 7bbd 279c 8c3d
000003c0: 73e8 253d 9e98 f2bc 965e 99bd bc19 0fbc
000003d0: fa7e 04bd 3be1 38bd fc94 41bd f50a 323b
000003e0: b2d1 4d3d eae6 c8bc 8585 453c 2e99 15bd
000003f0: e7cb babc 555f bf3c 9b22 19bc cb5c c93c

action_layer.2.bias f4 [256]
-0.044945218 0.09622726 0.06767425 -0.06814719 0.04880845 0.05035063 0.0028698319 0.026292203
0.038126513 0.028891118 0.03796328 -0.006982068 -0.020559646 0.027483225 0.03386507 -0.074158646
-0.068455435 -0.013395973 0.054887008 9.538902e-05 -0.0449088 -0.0059254025 -0.008648776 0.044391587
-0.0046151173 0.050720826 -0.044353284 0.0067860037 0.0059335176 0.03751497 -0.047485977 -0.04786958
0.055348195 -0.043577533 0.035997972 -0.032702446 -0.013107197 0.012314356 0.031971917 -0.034823235
0.0021730862 0.036950864 0.03629013 0.03405085 0.013087037 0.03585057 0.009862812 -0.013608478
-0.069371 -0.012058716 0.003401628 -0.06740128 0.012925349 0.011044184 -0.027351202 0.022403194
0.052189842 0.05532041 -0.06843144 -0.05501083 0.025634043 -0.06230671 0.05195382 0.0679189
-0.030162971 0.031416148 0.03431399 0.0023307113 -0.022886975 0.0033118636 -0.01709019 0.037642755
-0.067635715 -0.012890046 0.039372846 -0.0037314529 -0.044603635 -0.010919233 0.060188517 -0.06137002
0.028970247 0.0075517413 0.025620248 0.032344256 0.040117104 -0.018317793 0.03429703 0.025733441
-0.0496273 0.014132931 0.0039413846 -0.0066309194 0.03262352 0.012499933 0.06622076 -0.023855686
-0.043457057 0.07212368 0.046997778 0.031624377 0.05109477 -0.044521004 0.018843668 0.03855494
0.07746938 -0.0046428503 0.049846467 -0.030009463 0.060174834 -0.065695696 0.019676918 0.02470349
-0.0059705884 0.014583206 0.015843611 -0.025392722 -0.069955245 -0.013835115 0.041750528 0.019243103
-0.019840064 -0.015000934 -0.0373709 0.014274522 0.006324947 -0.02806281 0.05124791 0.015381835
0.014229482 0.061508078 0.046564616 0.0062631327 -0.060506146 0.03744846 -0.02141278 0.018471401
-0.0069216504 -0.004771831 -0.0048347474 -0.07593887 0.023579938 0.025157658 0.015086737 -0.046112508
-0.014027763 -0.022089787 0.03663593 0.03039353 -0.031878024 -0.035478085 0.017805977 -0.013322644
-0.043989096 0.04268161 -0.041204795 0.010841674 0.042645134 0.055298522 0.050643746 0.016655503
-0.005882626 0.040812798 0.017528761 0.046314772 -0.01281354 0.036984988 -0.017589716 0.020984389
-0.040577658 -0.066610925 -0.05237206 -0.002209038 0.03819355 -0.045468915 0.034885623 -0.053655844
0.007851168 0.03444034 0.039998867 -0.06027353 0.02933119 0.027520416 -0.068295486 -0.037498195
0.002363953 0.030707331 -0.067170344 -0.040478904 -0.005953829 -0.009098477 0.010076074 0.029320555
-0.0005457216 -0.031100826 0.067415126 0.04386501 -0.06532835 0.01574064 0.025645696 -0.030756263
0.06986247 -0.045552768 -0.06943064 0.0012952414 0.034406506 0.03463543 -0.06266633 0.054759517
-0.02818679 -0.06667709 -0.02092012 -0.027264707 0.014166579 0.048958242 -0.07720576 0.041645937
0.04273599 -0.054512635 -0.05769522 0.06279351 0.033894543 -0.07736637 -0.061109554 0.042994358
-0.020729264 0.005542057 0.020551814 -0.03480507 0.05929565 0.014610717 -0.051232323 0.029743629
0.062012006 -0.068205714 -0.07580434 0.004226103 -0.01973012 -0.04034669 0.08248489 0.050353885
-0.013862171 0.0076452894 0.041360274 0.04781562 0.016770368 0.04928908 -0.015712306 0.01170451
0.043752696 0.0034803206 -0.060031526 0.0136086 0.005649202 -0.06320097 0.043370485 0.033502936
00000000: 7a18 38bd cc12 c53d cc98 8a3d c190 8bbd
00000010: 5feb 473d 763c 4e3d ca13 3c3b bf62 d73c
00000020: 8c2a 1c3d 11ad ec3c 627f 1b3d d5c9 e4bb
00000030: b46c a8bc 8024 e13c 1ab6 0a3d 7de0 97bd
00000040: 5d32 8cbd c87a 5bbc 33d1 603d 970b c838
00000050: 4af2 37bd e129 c2bb 99b3 0dbc f4d3 353d
00000060: 693a 97bb a4c0 4f3d caab 35bd 205d de3b
00000070: f46d c23b 4ca9 193d a880 42bd e512 44bd
00000080: cab4 623d 5b7e 32bd 9c72 133d 00f3 05bd
00000090: 92bf 56bc 27c2 493c fcf4 023d cfa2 0ebd
000000a0: 566a 0e3b ca59 173d f6a4 143d e778 0b3d
000000b0: 036b 563c 0cd8 123d a297 213c 18f6 5ebc
000000c0: 6212 8ebd ec91 45bc d9ed 5e3b af09 8abd
000000d0: d8c4 533c aaf2 343c a10f e0bc e786 b73c
000000e0: 04c5 553d a797 623d c825 8cbd 0953 61bd
000000f0: 7cfe d13c 5235 7fbd 87cd 543d 1019 8b3d
00000100: 5618 f7bc 38ae 003d d48c 0c3d d9be 183b
00000110: 777d bbbc da0b 593b ba00 8cbc 4a2f 1a3d
00000120: 9884 8abd c630 53bc 6c45 213d 648b 74bb
00000130: 4db2 36bd 95e6 32bc 3c88 763d 215f 7bbd
00000140: 0353 ed3c 9974 f73b 8ee1 d13c 697b 043d
00000150: d551 243d 320f 96bc 0b7b 0c3d f0ce d23c
00000160: ff45 4bbd cf8d 673c bb26 813b 2f48 d9bb
00000170: 3da0 053d 85cc 4c3c c09e 873d 006d c3bc
00000180: 0700 32bd 94b5 933d be80 403d 9088 013d
00000190: c048 513d a85b 36bd 095e 9a3c c9eb 1d3d
000001a0: 44a8 9e3d 0d23 98bb cf2b 4c3d 68d6 f5bc
000001b0: e379 763d 778b 86bd 7d31 a13c f95e ca3c
000001c0: eda4 c3bb 66ee 6e3c 76ca 813c 6604 d0bc
000001d0: b244 8fbd aeac 62bc 9a02 2b3d b6a3 9d3c
000001e0: a187 a2bc 7ac6 75bc 3b12 19bd afdf 693c
000001f0: 8041 cf3b fae3 e5bc 54e9 513d 1804 7c3c
00000200: c622 693c e5ef 7b3d 8aba 3e3d f73a cd3b
00000210: 4bd5 77bd 8e63 193d db69 afbc 5651 973c
00000220: 03cf e2bb 055d 9cbb cd6c 9ebb d785 9bbd
00000230: b72a c13c 6f17 ce3c 5d2e 773c 78e0 3cbd
00000240: b4d4 65bc a4f5 b4bc 8f0f 163d dafb f83c
00000250: 8892 02bd 7851 11bd d7dd 913c 3847 5abc
00000260: e92d 34bd e9d2 2e3d 5cc6 28bd 47a1 313c
00000270: aaac 2e3d b480 623d d16f 4f3d 1f71 883c
00000280: 0bc3 c0bb 522b 273d 7a98 8f3c 8fb4 3d3d
00000290: e2ef 51bc 927d 173d 4f18 90bc 74e7 ab3c
000002a0: c234 26bd 4f6b 88bd 1684 56bd 82c5 10bb
000002b0: d770 1c3d 9d3d 3abd 3ae4 0e3d 3bc6 5bbd
000002c0: 2fa2 003c 5011 0d3d dad5 233d 61e1 76bd
000002d0: f747 f03c 7f72 e13c 81de 8bbd b597 19bd
000002e0: 8dec 1a3b f18d fb3c 9b90 89bd 35cd 25bd
000002f0: 5618 c3bb c711 15bc 1e16 253c a931 f03c
00000300: c20e 0fba 29c7 febc f110 8a3d ccab 333d
00000310: dfca 85bd 84f2 803c ec16 d23c 8ff4 fbbc
00000320: 0e14 8f3d 8a95 3abd a731 8ebd 17c5 a93a
00000330: d6ed 0c3d e1dd 0d3d 3457 80bd 844b 603d
00000340: fce7 e6bc 008e 88bd ac60 abbc 3c5a dfbc
00000350: f01a 683c 7088 483d 0e1e 9ebd ee94 2a3d
00000360: ef0b 2f3d a448 5fbd d351 6cbd e299 803d
00000370: 01d5 0a3d 4272 9ebd 034e 7abd da1a 303d
00000380: 6bd0 a9bc 259a b53b 475c a83c c38f 0ebd
00000390: ffdf 723d ca61 6f3c fcd8 51bd e9a8 f33c
000003a0: 4d00 7e3d 70af 8bbd 4e3f 9bbd 1f7b 8a3b
000003b0: 10a1 a1bc 9242 25bd d7ed a83d e03f 4e3d
000003c0: 291e 63bc 5685 fa3b 6469 293d 50da 433d
000003d0: 0362 893c 59e3 493d 18b7 80bc 46c4 3f3c
000003e0: 0736 333d 1716 643b 9ee3 75bd 9bf6 5e3c
000003f0: f11c b93b 836f 81bd 40a5 313d 603a 093d

action_layer.4.weight f4 [4, 256]
0.023980882 0.14420497 -0.07108248 0.0053454363 0.019624649 0.041804206 -0.057860605 -0.051333062
-0.047072165 -0.047742773 -0.033786196 -0.030228527 0.043833457 0.02612704 -0.035482023 0.033994965
0.04727696 0.036543325 0.06803109 -0.038283944 0.046773296 0.032354917 -0.011806519 0.09661189
-0.07462297 0.052680332 0.0682134 -0.030925522 0.05846723 -0.06217177 -0.085470915 0.050579287
-0.031571917 0.03376365 -0.016533151 0.017905606 0.121543534 0.03762618 0.012239637 -0.06965341
-0.048354212 -0.07126649 -0.03877916 -0.046688214 -0.0059307213 0.024120992 0.04947545 -0.018751346
0.003862154 0.021985412 -0.0021393532 -0.0036034554 -0.00045060483 0.003489587 0.080414906 0.039545044
0.041891027 -0.05640136 -0.07214548 0.050359204 -0.030673739 -0.021270158 -0.028566893 -0.081954546
0.015853994 0.0012185317 0.010341074 -0.08748375 -0.020133011 -0.07500322 0.057930198 0.009486711
-0.03456497 0.028488878 0.08105662 0.11256405 -0.018961525 0.021620842 0.09153936 -0.023724763
-0.040607885 0.06361144 0.1708407 0.015405073 -0.018587757 0.01447234 -0.06138693 -0.012721681
-0.023681931 -0.026670974 -0.013409933 -0.09133305 -0.031253494 -0.008575733 -0.07135954 0.029998478
-0.008294176 0.063773155 -0.05106292 0.04066178 -0.07781078 0.051590778 0.091556884 0.04161189
-0.051200546 0.04657 0.076538205 -0.039249726 -0.08377758 -0.064086854 -0.064342216 -0.0016326449
0.03218053 -0.03243279 -0.021215193 0.07305729 0.051513072 0.04082701 0.034789734 -0.036868818
0.03925526 -0.021401273 -0.011119714 -0.010327661 0.019725235 0.05741472 0.0073278183 0.061634064
-0.042480752 0.0361896 6.858216e-05 0.007849416 -0.02001439 -0.0024154556 0.02511886 0.10377293
-0.02426315 -0.012734558 0.010342249 0.016707985 -0.0708827 -0.0075116293 -0.027269198 -0.060380403
-0.04050927 0.0091648195 0.008833678 -0.073015265 0.025699744 0.1282966 -0.033616874 -0.048054755
0.015023629 -0.03555438 -0.013619383 0.04551526 -0.0067704194 0.07484886 -0.048722025 0.011633974
-0.035116218 0.010567908 -0.07844071 -0.03798423 -0.009837959 -0.023453971 -0.08581133 -0.041993577
0.026132591 -0.048981693 0.020214722 -0.0020143369 0.08293169 0.011961538 -0.0046483106 0.04698705
-0.058858614 0.034353014 -0.008393452 -0.016661834 -0.0046923803 -0.026005313 -0.049230162 -0.005044346
0.008471466 0.020560285 0.021061229 0.0015621451 -0.011715236 -0.056838106 -0.006322352 -0.061704595
0.059731722 -0.029009229 -0.04633373 0.007357023 -2.9427028e-05 0.03422941 0.03424698 0.0681919
-0.0008557931 -0.038560018 -0.04651672 0.048263587 -0.02060774 -0.040080264 -0.06391873 0.08033823
0.06864434 -0.034548573 -0.023732677 0.051009107 -0.02301867 -0.027468512 0.010806467 -0.04532419
-0.051794868 -0.04291428 -0.025275307 0.07909649 0.00875951 0.0201902 0.061759464 -0.055008728
-0.004502677 -0.054290123 -0.064327165 -0.046156216 0.07138977 0.06021921 0.015109512 -0.04099554
0.09117975 -0.05572611 -0.023587575 -0.041342948 -0.035461072 -0.030281771 0.079691336 -0.017835755
-0.049410533 -0.06391443 0.0659172 -0.08284731 -0.012157464 0.056303304 -0.014338087 -0.07123254
0.0076889647 0.12444831 -0.03656344 0.048441485 0.10567826 -0.043074526 0.028544823 -0.05966661
00000000: 8e73 c43c 78aa 133e b193 91bd c528 af3b
00000010: dfc3 a03c e33a 2b3d 3eff 6cbd 9e42 52bd
00000020: bece 40bd ed8d 43bd 6563 0abd d1a1 f7bc
00000030: b68a 333d 6008 d63c 9955 11bd 4e3e 0b3d
00000040: 7ca5 413d 74ae 153d e253 8b3d a0cf 1cbd
00000050: 5b95 3f3d 9786 043d 2170 41bc 74dc c53d
00000060: edd3 98bd 55c7 573d 78b3 8b3d 8557 fdbc
00000070: 567b 6f3d d3a7 7ebd 600b afbd 3a2c 4f3d
00000080: 8e51 01bd c14b 0a3d 8870 87bc c7ae 923c
00000090: d1eb f83d e91d 1a3d c288 483c 72a6 8ebd
000000a0: 110f 46bd 2af4 91bd e5d6 1ebd 243c 3fbd
000000b0: 7f56 c2bb 6399 c53c c5a6 4a3d 6c9c 99bc
000000c0: 311c 7d3b c01a b43c 6434 0cbb f327 6cbb
000000d0: 283f ecb9 8eb1 643b 92b0 a43d fcf9 213d
000000e0: ed95 2b3d 1d05 67bd 02c1 93bd 7445 4e3d
000000f0: 7e47 fbbc c13e aebc 1e05 eabc c9d7 a7bd
00000100: 3ce0 813c 24b7 9f3a 9c6d 293c ae2a b3bd
00000110: fced a4bc 4a9b 99bd 3748 6d3d 266e 1b3c
00000120: ff93 0dbd 8261 e93c 0301 a63d fb87 e63d
00000130: 3355 9bbc 311e b13c fd78 bb3d 6f5a c2bc
00000140: 7454 26bd b746 823d ddf0 2e3e 8f65 7c3c
00000150: 5a45 98bc 651d 6d3c dd70 7bbd 996e 50bc
00000160: 9c00 c2bc 167d dabc 56b5 5bbc d20c bbbd
00000170: aa03 00bd 3b81 0cbc f324 92bd 5ebf f53c
00000180: 4ce4 07bc 809b 823d 5a27 51bd f78c 263d
00000190: 425b 9fbd da50 533d 2d82 bb3d 3b71 2a3d
000001a0: aab7 51bd 2fc0 3e3d 10c0 9c3d 52c4 20bd
000001b0: 9493 abbd f83f 83bd dac5 83bd 79fe d5ba
000001c0: bbcf 033d 3fd8 04bd 7ccb adbc 0f9f 953d
000001d0: 5fff 523d 393a 273d ae7f 0e3d c203 17bd
000001e0: 20ca 203d b951 afbc 762f 36bc 5a35 29bc
000001f0: d196 a13c b32b 6b3d 321e f03b 0074 7c3d
00000200: 4c00 2ebd 8c3b 143d c4d3 8f38 d69a 003c
00000210: 38f5 a3bc 9f4c 1ebb 11c6 cd3c e786 d43d
00000220: 83c3 c6bc 9ca4 50bc 8972 293c 2fdf 883c
00000230: f32a 91bd 1d24 f6bb a763 dfbc 7151 77bd
00000240: 0ced 25bd 0a28 163c 22bb 103c 0789 95bd
00000250: 4588 d23c 2f60 033e d9b1 09bd 10d5 44bd
00000260: ab25 763c 78a1 11bd d523 5fbc 366e 3a3d
00000270: 65da ddbb 5c4a 993d bf90 47bd 6c9c 3e3c
00000280: 06d6 0fbd 0525 2d3c 86a5 a0bd 5a95 1bbd
00000290: 642f 21bc 8b22 c0bc dabd afbd 7501 2cbd
000002a0: 0414 d63c 07a1 48bd 5899 a53c f702 04bb
000002b0: 17d8 a93d 54fa 433c db50 98bb 7e75 403d
000002c0: bb15 71bd bfb5 0c3d b084 09bc 667e 88bc
000002d0: 8ac2 99bb 1809 d5bc 91a5 49bd 0b4b a5bb
000002e0: e7cb 0a3c 0b6e a83c 9988 ac3c e4c0 cc3a
000002f0: 43f1 3fbc 13cf 68bd bc2b cfbb f5bd 7cbd
00000300: 40a9 743d c3a4 edbc 70c8 3dbd 2f13 f13b
00000310: 10da f6b7 2334 0c3d 9046 0c3d 32a8 8b3d
00000320: 4e57 60ba 1cf1 1dbd 5188 3ebd 0ab0 453d
00000330: 90d1 a8bc 342b 24bd d3e7 82bd 5f88 a43d
00000340: 6795 8c3d ce82 0dbd 086b c2bc edee 503d
00000350: a691 bcbc a505 e1bc 9c0d 313c dca5 39bd
00000360: db26 54bd e2c6 2fbd 290e cfbc 57fd a13d
00000370: 0c84 0f3c eb65 a53c 7ef7 7c3d d550 61bd
00000380: 318b 93bb 525f 5ebd f6bd 83bd 4d0e 3dbd
00000390: cd34 923d 6ba8 763d e38d 773c f0ea 27bd
000003a0: 73bc ba3d 1041 64bd bb3a c1bc 3957 29bd
000003b0: a13f 11bd 7a11 f8bc 3635 a33d 4a1c 92bc
000003c0: b362 4abd 92e5 82bd 99ff 863d daab a9bd
000003d0: 1a30 47bc 4b9e 663d 4cea 6abc 5ee2 91bd
000003e0: b6f3 fb3b c1de fe3d 8cc3 15bd 946a 463d
000003f0: d86d d83d ea6e 30bd d5d6 e93c fa64 74bd

action_layer.4.bias f4 [4]
-0.027621312 -0.009145927 0.012017673 -0.068316735
00000000: 1746 e2bc ccd8 15bc c6e5 443c a5e9 8bbd

value_layer.0.weight f4 [256, 8]
-0.5492443 -0.26344848 -0.29560822 -0.320135 0.23913603 -0.10737103 0.28372318 -0.26014423
0.052290503 -0.119485036 0.24578089 0.36893615 -0.0061814142 -0.22628197 0.049516298 -0.4304692
0.043427628 0.15527977 0.0696482 0.25326326 -0.11758452 0.2268486 -0.054106567 0.15041088
0.02535367 0.02540017 -0.26311556 0.28729433 -0.20846274 -0.1762641 0.00067874556 0.050812166
-0.23006095 -0.2992166 -0.0679808 -0.22787975 -0.15051465 0.14966488 0.032780167 0.013005046
0.113546275 0.07218197 -0.27619416 -7.98837e-05 -0.03692341 0.034647036 0.4135424 -0.32070675
0.19195013 0.1727975 -0.21930775 -0.3349477 0.25954935 -0.11432987 0.2541657 0.025270086
-0.01177914 0.253499 -0.05637726 -0.009720338 -0.22648828 -0.023630159 0.16244169 0.1386336
-0.04666414 -0.1605293 0.3307919 0.41231626 -0.10151103 -0.119303465 -0.20672598 -0.3643843
0.0144907655 -0.21922965 0.13272713 0.33777848 -0.14176217 -0.19187486 -0.3117082 -0.0500255
-0.23925953 0.25340495 0.12997012 0.22420283 0.30591944 -0.020707972 -0.28691962 0.02385975
-0.36113808 -0.24456896 -0.2880875 0.114617534 -0.18201348 0.016152523 0.20228316 -0.11144535
0.253295 0.06497832 -0.13277592 0.23285311 0.15394042 0.21932474 -0.31691435 -0.106375806
-0.25675946 -0.28539532 -0.054462194 -0.3630639 0.18094504 -0.07612818 0.16911532 0.07518159
0.03823245 -0.3054068 -0.25090417 -0.5045408 0.256993 0.4748367 0.13808037 0.19083402
0.18556572 0.2150806 -0.21204504 0.12925015 0.10732631 0.30144292 0.23410675 0.08485864
-0.06873264 0.18890496 0.22319433 -0.05214192 0.39394522 -0.26929414 0.07465579 -0.076812156
0.048133142 -0.15292178 0.3321799 0.0485785 -0.29038736 -0.25712907 -0.1822116 0.17261797
0.36939555 0.12977017 0.029396225 0.09223383 -0.25651145 -0.45631516 -0.13915715 0.23237899
0.0074166744 -0.3321626 -0.26041618 0.02093035 -0.1404795 -0.161384 -0.19382273 0.15763588
0.1901885 -0.12113208 0.25854954 0.3104242 0.13213065 0.14148729 -0.22582899 0.19102563
-0.32440993 -0.4197 -0.23771068 -0.14067653 0.07235229 -0.056719057 -0.25941688 0.20981272
0.052890666 0.1403102 -0.019730387 0.011964487 0.13827145 -0.091814816 -0.019084515 -0.16999431
-0.26835737 -0.041575316 0.1780336 -0.2247875 0.19499846 0.22056255 -0.0423056 -0.15326317
0.22484359 0.26800224 -0.21058454 0.085983805 0.060176574 -0.19018532 -0.13061084 -0.15965186
0.31778142 0.26702112 -0.082577065 0.06264979 -0.07680066 0.22585301 0.119350985 -0.06356543
0.34680298 -0.22432296 0.12411116 -0.31020254 -0.31932357 -0.026859993 0.15677275 0.20997402
-0.30061933 0.047633164 -0.30300385 0.058716536 0.31780204 0.273912 -0.06807669 0.2873565
0.08481724 0.11392194 0.00834309 0.045834996 0.31122932 0.30774367 0.2250234 -0.010941476
0.333136 0.2947722 -0.110416144 -0.21573105 -0.26949495 0.2766263 -0.07234534 0.036758088
-0.05012766 0.32871142 0.0016016805 -0.35754767 -0.0591244 0.037916023 -0.19326334 0.008618604
-0.32079676 -0.13087338 -0.113321975 0.30464992 -0.06458317 0.2654168 -0.3563038 -0.09296223
00000000: 469b 0cbf b8e2 86be f659 97be bce8 a3be
00000010: 13e0 743e 58e5 dbbd 2a44 913e a031 85be
00000020: 912e 563d 92b4 f4bd fcad 7b3e 33e5 bc3e
00000030: 768d cabb 76b6 67be 9ad1 4a3d 7566 dcbe
00000040: 2be1 313d a901 1f3e b7a3 8e3d b9ab 813e
00000050: 27d0 f0bd 004b 683e d99e 5dbd 4f05 1a3e
00000060: 80b2 cf3c 0414 d03c 15b7 86be 3e18 933e
00000070: 4277 55be 947e 34be d8ed 313a 6b20 503d
00000080: 1995 6bbe eb32 99be 8539 8bbd 4f59 69be
00000090: 8320 1abe c041 193e 7f44 063d 1e13 553c
000000a0: f38a e83d 24d4 933d 5269 8dbe 3c87 a7b8
000000b0: 003d 17bd 0dea 0d3d d4bb d33e ad33 a4be
000000c0: 938e 443e d4f1 303e 3692 60be 447e abbe
000000d0: a7e3 843e c725 eabd 0222 823e 3603 cf3c
000000e0: 4bfd 40bc 9fca 813e d7eb 66bd 0d42 1fbc
000000f0: 8bec 67be 0994 c1bc 1d57 263e f7f5 0d3e
00000100: e622 3fbd cb61 24be 8e5d a93e 1e1b d33e
00000110: 04e5 cfbd 6055 f4bd faaf 53be 9490 babe
00000120: ad6a 6d3c bd7d 60be 9fe9 073e 4df1 ac3e
00000130: 1a2a 11be d87a 44be 3898 9fbe 8ae7 4cbd
00000140: 7300 75be 4bbe 813e e316 053e 6d95 653e
00000150: 79a1 9c3e c4a3 a9bc 21e7 92be 8675 c33c
00000160: 17e7 b8be 4970 7abe 3480 93be 99bc ea3d
00000170: be61 3abe 4c52 843c 5123 4f3e 763d e4bd
00000180: e2af 813e 5a13 853d 69f6 07be 0c71 6e3e
00000190: 8fa2 1d3e aa96 603e 9942 a2be 8fdb d9bd
000001a0: fa75 83be 561f 92be c013 5fbd 83e3 b9be
000001b0: a849 393e 17e9 9bbd 912c 2d3e cef8 993d
000001c0: a199 1c3d 485e 9cbe 8376 80be 9629 01bf
000001d0: 9694 833e cc1d f33e f164 0d3e fe69 433e
000001e0: f104 3e3e 173e 5c3e 5622 59be 275a 043e
000001f0: e5cd db3d ba56 9a3e aeb9 6f3e 5eca ad3d
00000200: b3c3 8cbd 4d70 413e 0e8d 643e c492 55bd
00000210: 30b3 c93e ece0 89be 23e5 983d b14f 9dbd
00000220: 4227 453d 8797 1cbe 7c13 aa3e 40fa 463d
00000230: a7ad 94be 6ca6 83be ad95 3abe c4c2 303e
00000240: 6a21 bd3e 79e2 043e 5ad0 f03c 17e5 bc3d
00000250: 7855 83be 24a2 e9be 367f 0ebe c2f4 6d3e
00000260: 9307 f33b 3711 aabe 4555 85be 2076 ab3c
00000270: dcd9 0fbe d941 25be 7779 46be 4d6b 213e
00000280: c6c0 423e 1914 f8bd 9b60 843e ecef 9e3e
00000290: 424d 073e 0be2 103e b73f 67be 399c 433e
000002a0: 0f19 a6be ebe2 d6be 6e6a 73be 820d 10be
000002b0: 702d 943d 3e52 68bd 4ad2 84be 25d9 563e
000002c0: e2a3 583d 7aad 0f3e 9fa1 a1bc b206 443c
000002d0: 0897 0d3e 6809 bcbd 2157 9cbc fd12 2ebe
000002e0: 2366 89be e14a 2abd 714e 363e b22e 66be
000002f0: adad 473e 26db 613e a348 2dbd 05f1 1cbe
00000300: 663d 663e 9737 893e 79a3 57be 4718 b03d
00000310: b67b 763d f1bf 42be d9be 05be c77b 23be
00000320: 3fb4 a23e feb6 883e 2a1e a9bd 884e 803d
00000330: aa49 9dbd 0346 673e 4a6e f43d 982e 82bd
00000340: 2990 b13e ebb4 65be fe2d fe3d ded2 9ebe
00000350: 617e a3be 7d09 dcbc 0989 203e 6e03 573e
00000360: c7ea 99be fe1a 433d 5223 9bbe c080 703d
00000370: f3b6 a23e 323e 8c3e cb6b 8bbd 6420 933e
00000380: a9b4 ad3d e84f e93d 75b1 083c 7abd 3b3d
00000390: 7359 9f3e 9490 9d3e 896c 663e e043 33bc
000003a0: cd90 aa3e 62ec 963e dc21 e2bd 9ae8 5cbe
000003b0: 3efb 89be f6a1 8d3e cb29 94bd a68f 163d
000003c0: a952 4dbd dd4c a83e 7bef d13a 7d10 b7be
000003d0: 6d2c 72bd d54d 1b3d d3e6 45be 0c35 0d3c
000003e0: 793f a4be ac03 06be 5a15 e8bd 13fb 9b3e
000003f0: 2e44 84bd b6e4 873e 746d b6be fb62 bebd

value_layer.0.bias f4 [256]
-0.10168559 0.17714716 0.0012297828 0.16736764 -0.054955374 -0.3312902 -0.27355233 0.19827291
0.11338513 -0.0825148 0.06385929 0.06808011 0.09413911 -0.12550052 -0.28030774 -0.13204782
-0.31720844 0.14620832 -0.050137278 0.18639976 0.014338633 0.23339409 0.049762502 0.238012
-0.27338782 0.18830054 -0.060399313 -0.22239983 -0.14845884 -0.047763214 -0.2562906 0.18454473
-0.23279406 0.06700913 -0.12589201 0.15970579 -0.2470312 0.11654732 -0.23740688 0.2704304
-0.25786504 -0.01149106 0.20465566 0.07811296 -0.042070735 -0.20254274 -0.0013127258 -0.060842235
0.08407039 -0.29924524 -0.14085032 0.21324162 0.022746077 0.07260724 0.20960899 -0.23042965
-0.22877316 -0.25761583 -0.07846505 -0.3335745 0.23800837 -0.14573991 -0.15551218 -0.062419754
0.11910263 -0.10998815 -0.10839228 0.12850524 0.07071461 -0.08645659 0.036800954 -0.25535128
-0.21889167 0.23651952 0.101258576 0.0069984165 -0.32713738 0.16052444 -0.2323997 0.19489561
-0.0993122 -0.2482216 -0.24170144 0.16150786 -0.25394562 -0.09261743 -0.06256642 -0.028956484
-0.1499188 0.013422843 0.24658442 -0.037759043 -0.0402295 0.16814165 -0.021741329 -0.034042865
-0.057859454 -0.030675849 0.114588834 -0.08514973 -0.012683363 0.24277472 -0.06828353 -0.19517466
-0.32091272 -0.3181969 0.07454004 -0.20770901 -0.04567027 0.20473175 0.24438564 -0.13550124
0.2007803 0.026450137 -0.06284568 0.15668605 0.10119752 0.07715433 -0.04445705 -0.2973969
0.19223382 -0.29725343 0.124391295 0.17004927 0.119929895 -0.10696887 0.019290434 0.13673922
-0.33490556 0.06365028 -0.0072585996 0.063499555 0.09092277 0.13251157 0.14491586 -0.34930322
-0.16500367 0.14097199 -0.05416165 0.22625609 -0.04812566 0.22404632 -0.119786285 -0.26393828
0.12385927 0.16476957 -0.12488533 -0.0339833 0.21850772 -0.09896763 -0.1620079 -0.24540803
0.20860673 0.11624436 -0.29872373 0.10039343 -0.31355146 -0.27051648 -0.27535826 -0.04699521
0.06649321 0.23584186 -0.338385 -0.30501366 0.008259048 0.0031643142 -0.031298563 0.018872185
-0.25265938 -0.3010547 0.13236426 0.15505405 -0.13139148 -0.36440292 0.2015339 -0.39199892
-0.064407855 -0.11662925 -0.3700974 0.20503119 -0.34605658 -0.28539217 -0.39094558 -0.024202803
-0.30428302 0.10869426 -0.04300072 -0.27568525 0.17335376 0.28137803 0.13732149 0.034121566
-0.03657339 0.050042868 0.12326929 0.011894017 -0.15602547 0.05788609 0.10556832 0.23463023
-0.1767425 -0.3135064 -0.0558654 0.0076388847 0.18954258 -0.20882356 -0.19665067 0.11189337
0.23234144 0.2749119 -0.12481303 0.2832984 0.18864006 0.07810522 0.010263065 0.078182325
-0.28809893 -0.23907398 -0.0027734158 -0.023819363 0.20533068 -0.29021475 -0.3187967 -0.22910166
-0.31100166 0.16095264 -0.15145369 -0.33839923 0.05561738 0.31621453 0.19741857 -0.07404019
-0.40976435 -0.05165708 0.008773401 -0.20628785 0.13546725 -0.071152344 0.28665304 -0.03758415
0.054681458 0.031502668 0.010931475 -0.10506625 -0.37472686 -0.048016302 -0.33905604 0.07240634
-0.29815856 -0.12762868 -0.3331531 -0.24941596 -0.1456451 0.12665254 -0.32099432 0.013266399
00000000: 8940 d0bd 1166 353e aa30 a13a 6c62 2b3e
00000010: e318 61bd de9e a9be 0d0f 8cbe 0e08 4b3e
00000020: 7736 e83d 85fd a8bd a9c8 823d 966d 8b3d
00000030: 01cc c03d 3583 00be 7f84 8fbe 8b37 07be
00000040: 2569 a2be a2b7 153e bf5c 4dbd 94df 3e3e
00000050: 96ec 6a3c dcfe 6e3e c4d3 4b3d 6bb9 733e
00000060: 7df9 8bbe dbd1 403e 4565 77bd c8bc 63be
00000070: 9805 18be 5ca3 43bd 8638 83be 4bf9 3c3e
00000080: 9161 6ebe 153c 893d d6e9 00be ea89 233e
00000090: bff5 7cbe 5cb0 ee3d ca1a 73be da75 8a3e
000000a0: e306 84be 0045 3cbc 4191 513e b0f9 9f3d
000000b0: 5d52 2cbd 5d67 4fbe c50f acba b535 79bd
000000c0: 192d ac3d ac36 99be 113b 10be 035c 5a3e
000000d0: fb55 ba3c 1bb3 943d bda3 563e c0f5 6bbe
000000e0: 8343 6abe 39e6 83be 49b2 a0bd 47ca aabe
000000f0: 77b8 733e d83c 15be 963e 1fbe dbab 7fbd
00000100: 14ec f33d 7841 e1bd c6fc ddbd e196 033e
00000110: d2d2 903d 2710 b1bd 99bc 163d 67bd 82be
00000120: 2325 60be 2c32 723e a860 cf3d f952 e53b
00000130: 8d7e a7be 8560 243e 30fa 6dbe b792 473e
00000140: 3264 cbbd ce2d 7ebe 9580 77be 5162 253e
00000150: 2905 82be 35ae bdbd d322 80bd 2636 edbc
00000160: 5084 19be 7ceb 5b3c a080 7c3e 3aa9 1abd
00000170: b0c7 24bd 532d 2c3e df1a b2bc 8870 0bbd
00000180: 09fe 6cbd eb4b fbbc 8dad ea3d fb62 aebd
00000190: e1cd 4fbc f099 783e 3cd8 8bbd dedb 47be
000001a0: ac4e a4be b4ea a2be 73a8 983d acb1 54be
000001b0: c010 3bbd 33a5 513e 3b40 7a3e d6c0 0abe
000001c0: 5a99 4d3e f5ad d83c 3cb5 80bd 4f72 203e
000001d0: a540 cf3d 1703 9e3d 9818 36bd 6844 98be
000001e0: f1d8 443e 9a31 98be ddc0 fe3d 6521 2e3e
000001f0: ce9d f53d 7f12 dbbd f906 9e3c 5e05 0c3e
00000200: be78 abbe 145b 823d 8cd9 edbb 0e0c 823d
00000210: b835 ba3d 1db1 073e d364 143e dfd7 b2be
00000220: b9f6 28be f65a 103e 9bd8 5dbd adaf 673e
00000230: 691f 45bd 666c 653e 8352 f5bd eb22 87be
00000240: eea9 fd3d 5bb9 283e e1c3 ffbd 1332 0bbd
00000250: 7dc0 5f3e 8aaf cabd 66e5 25be 3e4c 7bbe
00000260: 019d 553e 8611 ee3d 51f2 98be 129b cd3d
00000270: d189 a0be 2381 8abe c2fb 8cbe 0d7e 40bd
00000280: 982d 883d 8780 713e cc40 adbe c02a 9cbe
00000290: f550 073c 6260 4f3b ec32 00bd d799 9a3c
000002a0: 925c 81be d723 9abe 7f8a 073e 7dc6 1e3e
000002b0: 7d8b 06be 0593 babe e75e 4e3e 15b4 c8be
000002c0: 44e8 83bd 51db eebd 687d bdbe b2f3 513e
000002d0: 542e b1be ec1e 92be 052a c8be f544 c6bc
000002e0: fcca 9bbe 199b de3d 8621 30bd 9e26 8dbe
000002f0: a683 313e c810 903e 019e 0c3e 0ec3 0b3d
00000300: fbcd 15bd c0f9 4c3d 9c74 fc3d 20df 423c
00000310: 24c5 1fbe f719 6d3d 3434 d83d e842 703e
00000320: fcfb 34be e983 a0be 1ed3 64bd 9c4f fa3b
00000330: 7317 423e d8d5 55be cb5e 49be 5a28 e53d
00000340: eaea 6d3e 41c1 8c3e f99d ffbd 7d0c 913e
00000350: dc2a 413e a1f5 9f3d 6a26 283c 0e1e a03d
00000360: b481 93be cfcf 74be 32c2 35bb d320 c3bc
00000370: 3542 523e 0797 94be 5239 a3be a099 6abe
00000380: 9c3b 9fbe c5d0 243e ad16 1bbe aa42 adbe
00000390: 0dcf 633d dfe6 a13e 1828 4a3e 62a2 97bd
000003a0: a2cc d1be 6096 53bd 50be 0f3c 1f3d 53be
000003b0: edb7 0a3e 52b8 91bd 30c4 923e d6f1 19bd
000003c0: aaf9 5f3d f108 013d ee19 333c f92c d7bd
000003d0: 33dc bfbe beac 44bd c198 adbe c649 943d
000003e0: 3da8 98be 18b1 02be 0b93 aabe e666 7fbe
000003f0: fd23 15be 34b1 013e 5e59 a4be 4f5b 593c
