bpa_2/tasks_bpa2/tasks/solution/PPO_LunarLander-v2-eps0.15.pth (torch, 43611 bytes, 11 tensors)

action_layer.0.weight f4 [64, 8]
0.26972303 0.4027775 -0.26589575 0.44706008 -0.02870282 0.01185139 -0.09187416 0.10393093
0.26858392 -0.1550039 0.27671835 -0.05244999 0.42111927 -0.007318714 0.08330713 0.022689851
0.32372078 0.17957456 -0.14831237 0.12822367 -0.38010854 -0.24426307 -0.056493174 0.20339788
-0.16153973 -0.15971091 0.09981172 -0.31149086 -0.124754936 -0.39698294 0.28836355 -0.19741198
0.19801351 0.05518544 -0.28471282 0.31986174 0.3564585 0.47828424 0.05002563 -0.12162466
0.15204224 0.025176303 0.17046806 0.38547432 0.047382046 -0.32371202 0.21158232 0.08538153
0.13096091 -0.30823752 -0.3224134 -0.23021927 -0.14187264 0.41454935 0.071965106 0.097058915
0.10188608 -0.079808734 0.35956103 -0.38532475 -0.15530874 -0.21968229 0.13242812 -0.0880239
0.22221361 -0.050780714 0.41657445 -0.22672828 -0.6015929 -0.42173913 0.3311605 0.1000329
0.29248455 -0.3851152 -0.31271234 -0.37695515 -0.07365401 0.2685011 -0.00048586229 0.31348804
-0.26803467 -0.3353772 0.21870357 -0.3340302 0.3657627 0.07844338 0.07707627 -0.17470507
-0.2968643 -0.04507588 -0.02475906 -0.18598151 0.44853526 0.45463625 -0.3195841 -0.19889921
0.26130587 -0.27487764 -0.034645505 -0.46702987 -0.214779 0.19080427 -0.0017650151 -0.22591196
0.09404235 -0.24449776 -0.15631837 -0.3225348 -0.4247792 -0.19395147 0.2852755 0.19838016
0.07022881 -0.3570848 -0.120874144 -0.14149795 0.1383028 -0.16956578 -0.08517983 -0.10229758
0.016405134 -0.2142031 0.16711876 -0.36301 -0.5019909 -0.29669225 -0.13247024 -0.2017341
0.3753083 0.0061510857 0.29114667 0.26772442 -0.45905918 0.09462121 -0.041448615 -0.1080996
-0.2969439 -0.40255892 0.16902511 -0.21026665 0.30550566 -0.122275226 0.24543071 -0.20499103
-0.020715335 0.20947748 0.103016965 0.44481033 0.27153158 -0.4066814 0.13652924 -0.2204963
-0.04581086 -0.3598824 0.44433913 -0.38048485 0.062976666 0.073153794 0.083351776 -0.15741797
0.18417175 -0.030209431 -0.012901777 -0.3730977 0.30014905 0.14523548 -0.25445238 0.30284843
-0.01079215 -0.277092 -0.19603986 -0.13214496 0.36248645 0.06614788 -0.20010146 -0.15103853
-0.36784002 -0.040876057 0.2678356 -0.49156052 0.12645663 0.28430477 0.028355345 -0.1811229
0.22382389 0.11451049 0.19668195 -0.100867145 -0.30835658 -0.038598258 -0.06952118 -0.037267167
0.23947817 0.3743219 -0.07260398 0.025995594 -0.13605727 -0.14688353 0.028466333 0.08288379
-0.22002925 -0.054051425 0.36057603 0.2333637 -0.18390122 -0.36647844 -0.14036217 -0.23409964
0.00013468589 0.2063416 0.32362702 0.20604691 -0.6158173 -0.4374432 -0.02062766 0.32949042
0.043459304 -0.24093784 0.28130615 -0.23597637 -0.38387764 0.26500386 -0.18580383 -0.033489
-0.24334082 0.3216594 0.3257773 0.21860786 -0.5642071 -0.55464196 -0.21436794 0.23995319
0.23300277 0.38359767 0.090996705 0.21299097 -0.17103091 -0.3606106 -0.10336991 -0.2989026
0.13030998 -0.20872836 0.08686112 -0.3516115 -0.28203988 -0.26576632 -0.24112166 0.24022968
-0.16248342 0.08581056 -0.027171535 -0.41145676 -0.11054837 -0.044635862 -0.06798866 -0.33223945
00000000: 2319 8a3e da38 ce3e 7d23 88be 0fe5 e43e
00000010: 2d22 ebbc 552c 423c 8528 bcbd bdd9 d43d
00000020: d583 893e 58b9 1ebe 07ae 8d3e cdd5 56bd
00000030: f29c d73e d3d1 efbb ee9c aa3d 11e0 b93c
00000040: bbbe a53e 65e2 373e 33df 17be 114d 033e
00000050: 969d c2be 1920 7abe 6365 67bd 8947 503e
00000060: ac6a 25be 428b 23be 166a cc3d bb7b 9fbe
00000070: 847f ffbd 5941 cbbe 63a4 933e 5e26 4abe
00000080: 0ec4 4a3e 210a 623d e1c5 91be ebc4 a33e
00000090: ba81 b63e ace1 f43e ade7 4c3d 5a16 f9bd
000000a0: f6b0 1b3e 893e ce3c 2e8f 2e3e e45c c53e
000000b0: ad13 423d 95bd a5be 09a9 583e 83dc ae3d
000000c0: 9e1a 063e 4fd1 9dbe 5f13 a5be 9abe 6bbe
000000d0: 1047 11be d03f d43e 7162 933d d3c6 c63d
000000e0: a6a9 d03d c372 a3bd 6218 b83e 4949 c5be
000000f0: 4109 1fbe 65f4 60be 3d9b 073e e045 b4bd
00000100: f78b 633e 70ff 4fbd 3f49 d53e 752b 68be
00000110: fe01 1abf 31ee d7be de8d a93e 0dde cc3d
00000120: 89c0 953e d22d c5be d51b a0be 4400 c1be
00000130: ead7 96bd fa78 893e 55bb feb9 8181 a03e
00000140: d73b 89be 8fb6 abbe d4f3 5f3e 0206 abbe
00000150: 4045 bb3e eca6 a03d 2ada 9d3d e3e5 32be
00000160: 99fe 97be 7ca1 38bd 83d3 cabc f071 3ebe
00000170: 6aa6 e53e 15c6 e83e 87a0 a3be 3cac 4bbe
00000180: e2c9 853e c3bc 8cbe 72e8 0dbd 8a1e efbe
00000190: 07ef 5bbe 3262 433e 1458 e7ba 7755 67be
000001a0: 4799 c03d 9f5d 7abe ec11 20be 4823 a5be
000001b0: a97c d9be 379b 46be a10f 923e 2b24 4b3e
000001c0: 1fd4 8f3d d2d3 b6be dd8c f7bd d7e4 10be
000001d0: 409f 0d3e a7a2 2dbe c372 aebd 6581 d1bd
000001e0: 0f64 863c 0f58 5bbe 2e21 2b3e 72dc b9be
000001f0: 7a82 00bf 0ce8 97be 47a6 07be 6293 4ebe
00000200: 6928 c03e 0c8f c93b 2d11 953e 2d13 893e
00000210: ce09 ebbe c4c8 c13d 06c6 29bd 5363 ddbd
00000220: 0809 98be 341c cebe eb14 2d3e 2450 57be
00000230: 3d6b 9c3e 6f6b fabd 3052 7b3e 2be9 51be
00000240: 35b3 a9bc 4481 563e 8ffa d23d 2ebe e33e
00000250: 3006 8b3e 8b38 d0be 52ce 0b3e c8c9 61be
00000260: 2ba4 3bbd 8242 b8be 6b80 e33e e9ce c2be
00000270: e9f9 803d a8d1 953d 56b4 aa3d 2d32 21be
00000280: 8597 3c3e c579 f7bc fa61 53bc a906 bfbe
00000290: 23ad 993e 9cb8 143e 9547 82be f30e 9b3e
000002a0: 8fd1 30bc 01df 8dbe acbe 48be 0251 07be
000002b0: d397 b93e 8a78 873d 66e7 4cbe d8a9 1abe
000002c0: 8755 bcbe a76d 27bd bf21 893e d2ad fbbe
000002d0: d97d 013e 6590 913e 7849 e83c 4878 39be
000002e0: 1732 653e 7a84 ea3d fe66 493e 6f93 cebd
000002f0: eae0 9dbe 3519 1ebd 1f61 8ebd 75a5 18bd
00000300: c439 753e 1fa7 bf3e 65b1 94bd b6f4 d43c
00000310: 9952 0bbe a368 16be 3a32 e93c fabe a93d
00000320: 594f 61be 0765 5dbd 6c9d b83e e5f6 6e3e
00000330: 9a50 3cbe 10a3 bbbe 1abb 0fbe d1b7 6fbe
00000340: 783a 0d39 364b 533e 71b2 a53e f6fd 523e
00000350: 34a6 1dbf 8ef8 dfbe 57fb a8bc f8b2 a83e
00000360: 6202 323d 69b8 76be 5c07 903e caa3 71be
00000370: 9c8b c4be 96ae 873e 5c43 3ebe c32b 09bd
00000380: 562e 79be 8ab0 a43e 48cc a63e bdda 5f3e
00000390: e06f 10bf 04fd 0dbf 4583 5bbe 4ab6 753e
000003a0: 4798 6e3e ea66 c43e 7b5c ba3d 4e1a 5a3e
000003b0: ba22 2fbe f4a1 b8be 9ab3 d3bd c309 99be
000003c0: fb6f 053e e3bc 55be 3ee4 b13d 6c06 b4be
000003d0: 8867 90be 8612 88be 99e8 76be c5fe 753e
000003e0: 0e62 26be 72bd af3d d796 debc 76aa d2be
000003f0: 2f67 e2bd 18d4 36bd a33d 8bbd 4a1b aabe

action_layer.0.bias f4 [64]
0.13477044 -0.157862 -0.1241148 -0.25561404 0.2804169 -0.26057595 0.22204384 -0.048855923
-0.058714367 0.16163692 -0.03826751 0.13052694 0.18002425 -0.27507356 0.1211127 0.031734962
0.08653436 0.038938444 0.13110007 -0.16375378 -0.095932335 0.30179015 0.14525518 -0.04359462
-0.28456524 0.058842447 -0.1958143 0.19267459 -0.17914125 0.007179517 -0.07351264 0.036759157
0.31400234 -0.014866592 0.13884145 0.18248765 0.2195109 -0.12123023 -0.07808914 0.076735295
-0.04707913 0.15616424 -0.076926164 -0.20824823 0.11054617 0.08291757 0.14452742 0.259398
0.19375682 0.21042725 -0.012223166 -0.2800348 -0.24381657 -0.23287323 -0.24405773 -0.12232938
-0.3128011 -0.31639114 -0.18272446 -0.2038217 -0.15412857 0.09159292 0.2076983 -0.1558278
00000000: 4301 0a3e 93a6 21be e62f febd d8df 82be
00000010: ce92 8f3e 366a 85be 765f 633e 261d 48bd
00000020: 7a7e 70bd 2684 253e 64be 1cbd dba8 053e
00000030: 4758 383e 71d6 8cbe ef09 f83d 85fc 013d
00000040: ed38 b13d eb7d 1f3d 193f 063e 12af 27be
00000050: 2c78 c4bd 3d84 9a3e c6bd 143e 4690 32bd
00000060: 89b2 91be c704 713d 8b83 48be 7d4c 453e
00000070: ce70 37be 2742 eb3b cc8d 96bd c590 163d
00000080: eac4 a03e 0293 73bc 742c 0e3e 0bde 3a3e
00000090: 77c7 603e 8e47 f8bd 33ed 9fbd 6527 9d3d
000000a0: 0cd6 40bd 85e9 1f3e 778b 9dbd 063f 55be
000000b0: 0866 e23d b0d0 a93d fffe 133e d1cf 843e
000000c0: 3068 463e 3e7a 573e ad43 48bc b960 8fbe
000000d0: 0dab 79be 5276 6ebe 45ea 79be d387 fabd
000000e0: 7727 a0be 05fe a1be 1f1c 3bbe a3b6 50be
000000f0: e1d3 1dbe 1295 bb3d ddae 543e 5391 1fbe

action_layer.2.weight f4 [64, 64]
-0.15271471 0.096968114 -0.16001293 -0.036929213 0.10711946 -0.12604901 0.07675188 0.0691505
-0.10735182 0.118620336 0.113283195 0.10456524 0.023500679 0.033146527 0.09943047 0.049070504
-0.23113745 0.076060146 -0.18636054 0.0025267075 0.06280978 -0.0017674307 0.11643439 -0.052197
-0.12019897 0.016839998 -0.31119245 -0.060206898 -0.24170217 -0.22688603 -0.08354503 -0.01799197
0.040079966 0.03123647 -0.00073037046 -0.08628035 -0.18975757 0.18671115 -0.044097237 0.114900656
-0.096923694 -0.27387822 0.0057776375 0.11150129 -0.008428264 0.15266873 -0.24536413 -0.08839262
0.013144064 -0.11767973 -0.1480259 0.21052907 -0.030217743 0.067078725 -0.085513465 -0.078492716
0.0814615 0.11163487 0.107430175 -0.09466943 -0.14137857 -0.11406042 -0.14498821 0.009571928
-0.013076967 -0.13048826 0.15055677 0.11822425 -0.25127524 -0.07078008 0.014174738 0.13268203
0.20248984 -0.05759227 0.05675277 -0.14120677 0.17707422 0.049577735 0.054286927 0.34349233
0.10500624 -0.06469421 -0.07846944 0.120973766 -0.121765435 -0.035766527 -0.11029271 0.1520219
0.064635366 0.09568848 0.20569615 0.090568885 0.25223252 -0.019842437 0.13147679 0.09134967
0.16650948 0.11560085 0.0028055185 0.19560121 0.13485454 -0.033677474 -0.11586743 -0.14545971
0.23885646 0.24103023 -0.09597689 0.12965001 -0.12532519 -0.031297248 0.044571567 -0.011139019
-0.14067422 0.02448112 0.17427635 -0.049517207 -0.014437059 0.31292894 -0.047796044 -0.09079336
0.16540092 0.17162733 -0.21676867 0.12936588 0.10345486 -0.06684358 -0.03606502 -0.073466964
-0.16389705 -0.08562094 -0.053629044 0.09507717 -0.1404639 -0.01581518 0.08687087 0.07449933
0.03464686 -0.005880003 0.34402347 0.20390975 0.118976854 -0.06410364 0.017952085 -0.003956292
-0.1357975 0.17184508 -0.183994 0.24167821 0.037766207 0.1337365 0.102266826 -0.1415557
-0.20142116 -0.12087432 -0.073857166 -0.07641469 -0.27930725 -0.076152764 0.14302766 0.13228106
-0.15002215 -0.18316509 0.012198581 0.1559704 0.024394486 0.12782723 -0.049720086 0.18817899
-0.16343282 -0.16002691 0.12146484 -0.02938785 -0.089039534 0.21378602 -0.0711849 0.032218292
-0.029984953 -0.005772801 0.009021958 0.031701915 0.0897165 0.21548799 -0.119811915 0.015391219
0.055990715 0.017531324 0.07734289 -0.14371654 -0.14792083 -0.013035774 0.010785832 -0.045786623
-0.24917309 0.15633492 -0.0034027693 0.084742196 -0.18417922 -0.0880927 0.022051131 0.13633876
0.069596484 0.117848836 0.18181716 -0.009439871 0.12196487 -0.0039591338 0.087964974 0.2534637
0.001598321 -0.035476517 -0.20199017 0.18577152 0.018071536 0.106718466 0.002608229 0.10907352
-0.009584436 -0.068283185 0.10955301 0.01946054 -0.044672444 -0.09610228 0.08424453 0.13345598
-0.04944831 -0.028837396 -0.09599652 0.24514768 0.018550701 -0.043476608 -0.11471612 0.06165241
0.1611194 -0.021746408 -0.14200637 0.16528419 -0.049766995 -0.0062361886 0.12390538 -0.011788803
0.035575878 0.13665298 -0.047711115 0.032601625 0.08042006 0.377966 -0.18704562 -0.2953283
0.09419756 0.054475233 0.068094335 -0.109882034 0.052072834 -0.106957324 0.05948906 -0.0076429513
00000000: 3f61 1cbe 3897 c63d 6eda 23be 1643 17bd
00000010: 7361 db3d fe12 01be 1730 9d3d c79e 8d3d
00000020: 45db dbbd 38ef f23d 0501 e83d 4d26 d63d
00000030: 7f84 c03c a7c4 073d 34a2 cb3d 27fe 483d
00000040: 4caf 6cbe 6cc5 9b3d 4cd5 3ebe 1e97 253b
00000050: 6aa2 803d 22a9 e7ba 2775 ee3d 85cc 55bd
00000060: e12a f6bd 09f4 893c 9e54 9fbe 829b 76bd
00000070: c680 77be d054 68be a819 abbd e563 93bc
00000080: e42a 243d a0e3 ff3c 5576 3fba c1b3 b0bd
00000090: cf4f 42be 3531 3f3e 4e9f 34bd 0951 eb3d
000000a0: ee7f c6bd c439 8cbe 5652 bd3b ca5a e43d
000000b0: b416 0abc 3155 1c3e bc40 7bbe 3107 b5bd
000000c0: 335a 573c 1202 f1bd 1a94 17be ef94 573e
000000d0: 338b f7bc 9260 893d af21 afbd cac0 a0bd
000000e0: 49d5 a63d d3a0 e43d 5a04 dc3d 0ce2 c1bd
000000f0: 8bc5 10be 8298 e9bd ca77 14be 93d3 1c3c
00000100: c640 56bc b79e 05be 8e2b 1a3e 8e1f f23d
00000110: 26a7 80be 26f5 90bd 293d 683c ccdd 073e
00000120: 7f59 4f3e dfe5 6bbd 9875 683d 8298 10be
00000130: f252 353e 0612 4b3d f85b 5e3d 3ade af3e
00000140: 830d d73d 667e 84bd 96b4 a0bd 18c1 f73d
00000150: 2860 f9bd ec7f 12bd 25e1 e1bd a1ab 1b3e
00000160: 8c5f 843d 52f8 c33d 03a2 523e 2e7c b93d
00000170: 9f24 813e 9b8c a2bc daa1 063e 8915 bb3d
00000180: 7681 2a3e 23c0 ec3d cadc 373b af4b 483e
00000190: 4f17 0a3e 64f1 09bd e74b edbd 64f3 14be
000001a0: ca96 743e a1d0 763e 888f c4bd f9c2 043e
000001b0: 3f55 00be 8b31 00bd ad90 363d 6f80 36bc
000001c0: e70c 10be a18c c83c 8075 323e 8ed2 4abd
000001d0: 6a89 6cbc 3938 a03e c9c5 43bd def1 b9bd
000001e0: dc5e 293e 13bf 2f3e 9bf8 5dbe 7d78 043e
000001f0: 24e0 d33d 49e5 88bd eab8 13bd d975 96bd
00000200: a1d4 27be 085a afbd 21aa 5bbd d2b7 c23d
00000210: c5d5 0fbe d68e 81bc 5be9 b13d 1b93 983d
00000220: dee9 0d3d 0aad c0bb d823 b03e b8cd 503e
00000230: 23aa f33d c548 83bd 4010 933c c8a3 81bb
00000240: 800e 0bbe 28f8 2f3e ec68 3cbe 7e7a 773e
00000250: bdb0 1a3d 39f2 083e 4571 d13d faf3 10be
00000260: 5941 4ebe f58c f7bd 6d42 97bd 4e7f 9cbd
00000270: 5c01 8fbe fbf5 9bbd d875 123e b074 073e
00000280: 689f 19be a18f 3bbe 8fdc 473c b4b6 1f3e
00000290: f2d6 c73c 24e5 023e 4aa7 4bbd feb1 403e
000002a0: ef5a 27be 18de 23be 8fc2 f83d cabe f0bc
000002b0: 5c5a b6bd b9ea 5a3e 64c9 91bd 54f7 033d
000002c0: 01a3 f5bc c429 bdbb d6d0 133c ded9 013d
000002d0: 49bd b73d e2a8 5c3e f35f f5bd 742b 7c3c
000002e0: 8556 653d da9d 8f3c f365 9e3d 6e2a 13be
000002f0: 8f78 17be 0094 55bc 0fb7 303c c18a 3bbd
00000300: 3b27 7fbe 4316 203e ff00 5fbb 518d ad3d
00000310: 7a99 3cbe f269 b4bd 93a4 b43c 639c 0b3e
00000320: 9a88 8e3d bb5a f13d 472e 3a3e b0a9 1abc
00000330: b8c8 f93d 9fbb 81bb fb26 b43d fec5 813e
00000340: c17e d13a d34f 11bd 83d6 4ebe e43a 3e3e
00000350: c20a 943c 368f da3d d2ee 2a3b f061 df3d
00000360: 0a08 1dbc 0ed8 8bbd 545d e03d b66b 9f3c
00000370: 74fa 36bd 46d1 c4bd 6588 ac3d afa8 083e
00000380: 508a 4abd 673c ecbc d399 c4bd fe07 7b3e
00000390: a4f7 973c 8714 32bd 49f0 eabd 3d87 7c3d
000003a0: 7cfc 243e 8625 b2bc 1e6a 11be 4240 293e
000003b0: 7ad8 4bbd f158 ccbb 1bc2 fd3d d325 41bc
000003c0: 03b8 113d c2ee 0b3e bb6c 43bd 4889 053d
000003d0: 46b3 a43d c284 c13e e388 3fbe 4535 97be
000003e0: a6ea c03d 6c21 5f3d 0b75 8b3d d509 e1bd
000003f0: 534a 553d 710c dbbd cdaa 733d b971 fabb

action_layer.2.bias f4 [64]
0.060266644 0.04303749 -0.010105435 0.020201024 0.11813524 0.0066759754 -0.046018492 0.03186116
-0.05782594 -0.03716976 -0.083402194 -0.012345522 -0.0066982196 -0.06730649 0.07371456 0.11154577
-0.110019 0.03364911 -0.06782494 -0.03544254 0.016725989 0.0023578682 0.032377075 -0.05429607
0.11556625 -0.05197845 0.022749811 -0.0010292126 0.099207535 0.010537239 0.065434806 0.01749053
0.078977525 0.03129586 0.016716046 0.09847928 -0.05963849 -0.043014213 0.09917418 0.041181907
-0.14824514 0.04199064 -0.11686371 -0.06795214 0.061370354 0.08673445 -0.015484251 0.091764174
0.10558415 0.10698894 -0.09136626 -0.061407883 0.010382053 0.08328769 -0.028788608 0.029514901
0.07540474 -0.06661807 -0.072283715 0.1312589 -0.0018868705 0.07705361 -0.10161585 -0.05767615
00000000: 28da 763d 1448 303d 4491 25bc 9e7c a53c
00000010: e4f0 f13d 24c2 da3b e37d 3cbd d980 023d
00000020: e5da 6cbd 513f 18bd c5ce aabd df44 4abc
00000030: bd7c dbbb fcd7 89bd a9f7 963d 1c72 e43d
00000040: a451 e1bd a6d3 093d cde7 8abd 322c 11bd
00000050: f104 893c 7786 1a3b d39d 043d 8e65 5ebd
00000060: 00ae ec3d 5be7 54bd d05d ba3c a5e6 86ba
00000070: 522d cb3d 62a4 2c3c af02 863d 4d48 8f3c
00000080: f8be a13d 1630 003d 17f0 883c 81af c93d
00000090: 7d47 74bd ac2f 30bd d51b cb3d 5cae 283d
000000a0: 93cd 17be 61fe 2b3d 3e56 efbd 7e2a 8bbd
000000b0: 7b5f 7b3d d5a1 b13d a8b1 7dbc dbee bb3d
000000c0: 813c d83d 041d db3d 3c1e bbbd d586 7bbd
000000d0: 7d19 2a3c bd92 aa3d 16d6 ebbc 3cc9 f13c
000000e0: cd6d 9a3d 0e6f 88bd 7c09 94bd bc68 063e
000000f0: de50 f7ba 48ce 9d3d f91b d0bd d43d 6cbd

action_layer.4.weight f4 [4, 64]
0.026765483 -0.04826721 0.009399486 -0.19791137 0.1311364 -0.033211723 -0.06350506 -0.07612904
-0.09545089 -0.08341081 -0.10735667 -0.07066259 -0.114033416 0.09509721 0.05436126 0.15906176
0.0238284 0.049634527 0.07453778 -0.032924216 -0.06395604 0.1724829 0.068073586 0.0051819785
-0.05373552 -0.015143612 0.028619781 -0.041352708 0.12463358 -0.019217895 -0.024465894 -0.11099611
0.0087201735 0.049603567 -0.044491224 -0.0066101104 -0.06715055 0.056769438 0.008024445 -0.062209234
-0.008455519 -0.04896153 -0.07265765 0.11502969 0.1609589 0.058044784 -0.033685915 0.041740507
-0.05056358 -0.066428415 0.0020224513 0.012463831 0.04524785 -0.0734677 -0.0017300778 -0.05978159
-0.007711285 0.1468459 0.017610798 -0.0010154468 -0.056920126 -0.10106747 -0.07024061 0.013127522
-0.2951972 0.16926162 -0.09545501 0.00026436738 0.261794 -0.066609524 0.11383627 0.08319798
-0.060288873 0.07203269 -0.16463625 0.25443408 0.0063770604 -0.17685401 0.16488133 0.082683094
0.12107791 0.035186324 -0.08076821 0.1571631 -0.117127866 0.24215205 0.32164577 0.2112318
-0.21074845 -0.13613576 -0.098515466 -0.2545433 -0.09626013 -0.08636824 0.0548715 0.1920109
-0.22581945 0.03662028 0.057439968 -0.09135854 0.21258935 0.3354334 -0.12967539 -0.28008515
0.25580123 -0.15240096 0.24787016 -0.06719093 0.03398218 0.22906612 -0.054954037 -0.033600826
-0.3036891 -0.11713544 0.16215278 0.13099553 0.2555189 0.16910776 0.08891398 0.26730773
0.08162792 0.010091875 -0.036783688 0.009072322 -0.067682356 -0.04398763 0.08290716 -0.077467375
0.2356634 0.05150108 0.16637181 0.18297683 -0.20466208 0.21837635 0.112668656 0.19431727
0.28945556 -0.03280435 -0.14552127 -0.04345806 0.1718091 0.105463125 -0.09301117 -0.23033401
0.0035046628 -0.24675201 -0.015134718 -0.09685562 -0.010703116 -0.2857475 -0.16793744 0.054142613
0.18876235 -0.15231204 -0.09851824 0.12341485 -0.17673612 -0.06443964 0.13309374 0.09206339
0.14277317 0.12861146 0.17365345 -0.005069264 -0.10651926 -0.17152621 -0.017308664 0.0883024
0.15817526 0.12529488 0.10786821 -0.22126971 -0.1747174 -0.13203265 0.13897482 0.25543842
0.116193086 0.17316239 -0.19023816 -0.19115171 -0.13107336 -0.15962014 0.17531669 -0.07916294
-0.13549371 -0.24374554 -0.12073422 0.10073311 0.1498892 0.1481429 0.05105563 0.22537136
0.13850485 -0.20217964 0.009458227 -0.28273386 -0.11024136 0.010536005 -0.19848509 -0.123000436
-0.15964691 0.11932497 -0.0059999987 -0.2467385 -0.24852416 0.27150482 0.03717905 0.20544253
0.06573702 0.083856106 0.18134627 -0.06827203 -0.04623966 0.021264542 0.01879713 -0.12010015
0.006576003 0.29322964 0.042323172 0.08315657 0.31198692 0.12878947 -0.07078841 -0.3050836
0.074297234 -0.03190309 -0.11341622 0.06453007 -0.05017847 -0.10370799 0.048524465 0.14453751
-0.2181462 -0.06182561 -0.21715274 0.26787964 0.23423336 -0.13643649 -0.14474156 0.031234518
0.105847985 -0.096609555 -0.10144188 0.1109498 -0.1581827 0.006915145 -0.20523998 -0.19272058
-0.086712375 0.19226049 0.19576865 -0.07137715 -0.060350742 -0.18107681 -0.19466081 0.04122386
00000000: 4943 db3c d7b3 45bd 4d00 1a3c 47a9 4abe
00000010: 9f48 063e 0409 08bd f10e 82bd 8be9 9bbd
00000020: c27b c3bd 49d3 aabd d0dd dbbd 8cb7 90bd
00000030: 5a8a e9bd 53c2 c23d eaa9 5e3d 16e1 223e
00000040: c733 c33c 934d 4b3d 43a7 983d 8bdb 06bd
00000050: 62fb 82bd 5b9f 303e 2a6a 8b3d 96cd a93b
00000060: c719 5cbd ea1c 78bc 0874 ea3c 7561 29bd
00000070: e43f ff3d d96e 9dbc b36c c8bc ee51 e3bd
00000080: 0fdf 0e3c 1c2d 4b3d 6e3c 36bd a099 d8bb
00000090: 3a86 89bd 1287 683d f678 033c 1ccf 7ebd
000000a0: 0489 0abc e38b 48bd 89cd 94bd b094 eb3d
000000b0: 69d2 243e 5ec0 6d3d 3efa 09bd 18f8 2a3d
000000c0: c21b 4fbd 9f0b 88bd 1a8b 043b 1935 4c3c
000000d0: cf55 393d 3c76 96bd c7c3 e2ba 8add 74bd
000000e0: f2ae fcbb c65e 163e 8544 903c be18 85ba
000000f0: 1425 69bd 76fc cebd 4fda 8fbd d114 573c
00000100: 1624 97be eb52 2d3e eb7d c3bd ca9a 8a39
00000110: dd09 863e 936a 88bd fe22 e93d b463 aa3d
00000120: 77f1 76bd e085 933d 6896 28be 2f45 823e
00000130: a9f6 d03b 3819 35be a7d6 283e c155 a93d
00000140: b2f7 f73d 891f 103d ce69 a5bd 5def 203e
00000150: bce0 efbd b5f6 773e c1ae a43e 264d 583e
00000160: 71ce 57be 2c67 0bbe 7ac2 c9bd 8053 82be
00000170: 0824 c5bd d5e1 b0bd f0c0 603d 819e 443e
00000180: 373d 67be 26ff 153d 2c46 6b3d 301a bbbd
00000190: 06b1 593e edbd ab3e a0c9 04be 5267 8fbe
000001a0: 61f8 823e ff0e 1cbe add1 7d3e 669b 89bd
000001b0: e630 0b3d 4f90 6a3e 7c17 61bd 05a1 09bd
000001c0: 237d 9bbe b5e4 efbd 610b 263e b123 063e
000001d0: 60d3 823e 962a 2d3e 8818 b63d 8fdc 883e
000001e0: 8a2c a73d 6458 253c 7eaa 16bd 14a4 143c
000001f0: 0c9d 8abd 602c 34bd 3bcb a93d 37a7 9ebd
00000200: bf51 713e ccf2 523d 5f5d 2a3e 475e 3b3e
00000210: f092 51be 0d9e 5f3e d3be e63d 1bfb 463e
00000220: 8533 943e db5d 06bd 8703 15be 1401 32bd
00000230: baee 2f3e 0dfd d73d a47c bebd aedc 6bbe
00000240: 7cae 653b 8fac 7cbe 9cf7 77bc 3d5c c6bd
00000250: 1f5c 2fbc 7f4d 92be cbf7 2bbe a5c4 5d3d
00000260: eb4a 413e b0f7 1bbe eec3 c9bd edc0 fc3d
00000270: 50fa 34be eef8 83bd ba49 083e bb8b bc3d
00000280: 2133 123e b9b2 033e 36d2 313e 121c a6bb
00000290: c526 dabd 91a4 2fbe e6ca 8dbc e4d7 b43d
000002a0: b2f8 213e 4d4d 003e 02ea dc3d 8794 62be
000002b0: 1ee9 32be 9133 07be 6a4f 0e3e d3c8 823e
000002c0: a4f6 ed3d 7b51 313e cbcd 42be 46bd 43be
000002d0: 1838 06be 7673 23be 3886 333e 2e20 a2bd
000002e0: ddbe 0abe 6e98 79be 8143 f7bd 294d ce3d
000002f0: 8e7c 193e c6b2 173e b51f 513d c0c7 663e
00000300: 37d4 0d3e 2e08 4fbe aef6 1a3c 7ec2 90be
00000310: 39c6 e1bd 359f 2c3c ad3f 4bbe a7e7 fbbd
00000320: 7b7a 23be a660 f43d a39b c4bb 04a9 7cbe
00000330: 1e7d 7ebe ae02 8b3e 0f49 183d 875f 523e
00000340: 21a1 863d c0bc ab3d d6b2 393e 35d2 8bbd
00000350: cc65 3dbd fa32 ae3c 70fc 993c 11f7 f5bd
00000360: 837b d73b 3222 963e 105b 2d3d fe4d aa3d
00000370: c0bc 9f3e 63e1 033e 84f9 90bd eb33 9cbe
00000380: 2629 983d d1ac 02bd c346 e8bd 5728 843d
00000390: f087 4dbd db64 d4bd 97c1 463d a401 143e
000003a0: b861 5fbe da3c 7dbd 4a5d 5ebe 8527 893e
000003b0: dfda 6f3e 02b6 0bbe 2237 14be 88df ff3c
000003c0: d4c6 d83d 3bdb c5bd c3c0 cfbd a639 e33d
000003d0: a5fa 21be 7198 e23b 6e2a 52be 8b58 45be
000003e0: 4296 b1bd efdf 443e 9477 483e 2f2e 92bd
000003f0: 5732 77bd 336c 39be 2a55 47be 5ada 283d

action_layer.4.bias f4 [4]
0.09686016 0.050191928 0.058983274 0.10926798
00000000: 9f5e c63d 0d96 4d3d 7298 713d e4c7 df3d

value_layer.0.weight f4 [64, 8]
-0.24070975 0.11859134 -0.05925672 0.351768 0.22351986 -0.27178684 0.13769788 -0.010125174
0.45776892 0.089102685 0.2147681 0.46388793 -0.079609476 -0.63332367 0.21990772 -0.18300301
0.0750021 0.3936529 -0.051498383 0.30593005 0.17864113 -0.09087805 0.06660198 -0.10761939
0.2734302 0.34038284 -0.26538885 0.0183289 0.068113685 0.3219606 0.15309812 0.11187063
0.2562236 -0.052122947 -0.2543645 0.023186922 0.3507181 -0.569797 -0.38580656 0.13096114
-0.6735994 0.30848035 -0.42738184 -0.0047735716 -0.1488322 0.9046597 0.03590999 0.27733982
-0.09300549 0.41911197 0.17686893 0.806255 0.22255783 -0.031308915 -0.060108468 0.121395275
0.28863528 -0.26978448 -0.2792157 -0.33941466 -0.1796821 0.06265447 0.039371982 0.080724664
-0.06093268 0.3721602 -0.19506648 0.27932647 -0.031704098 -0.087403186 -0.07915449 -0.2729227
0.15122662 -0.19430235 -0.039191645 -0.27896085 -0.016365545 0.17793205 0.19055973 0.18874711
0.30265436 0.24378671 0.2389945 0.1276878 0.01995375 -0.26221788 -0.17429103 -0.05866563
0.21263447 -0.2577373 -0.28281707 0.27089444 0.14241208 -0.22401841 0.40404144 -0.13430257
0.3830736 0.18775916 -0.05983393 0.48568836 -0.17156905 -0.15930761 0.17748992 0.009284174
-0.12720726 0.20901754 -0.060353767 0.3340521 0.26445833 0.16598868 0.0011468255 0.0016230475
0.14424291 0.03825707 -0.0025050982 -0.24517442 0.23346175 -0.10119474 0.057195216 -0.043839067
0.13633391 0.44164255 -0.21615927 -0.08383825 -0.034440976 -0.3345736 -0.38201854 -0.07660256
0.3146354 -0.14622138 0.076680474 0.24202089 -0.19942783 0.28865898 0.052560404 -0.31375128
0.08813727 -0.40904287 0.30162176 0.40355662 0.14048275 0.12864172 0.5009062 0.62374157
0.243748 -0.40880483 0.3270854 0.12883379 -0.05354385 -0.042070247 0.40798497 0.21062414
0.17100403 -0.13296698 0.22585368 -0.40802783 0.056350395 0.07451669 0.042738345 0.38553077
0.111001045 0.10016205 0.21557374 0.21513647 0.018871501 -0.27065736 0.095591426 -0.0207338
0.095104136 0.2700546 -0.36762342 -0.3854026 0.15984862 -0.17901018 0.38887098 0.37045205
-0.049147006 -0.19778617 0.13727006 0.009749137 0.27236196 0.10386102 0.2927437 -0.35802272
-0.015384921 -0.0045143366 0.19287811 -0.4187474 0.002734645 -0.3202751 -0.24932976 0.12938915
-0.04866397 0.15371527 -0.014332584 -0.07678417 -0.051391724 0.16803992 -0.29808012 -0.0021115805
0.008704238 0.36399475 -0.08412007 0.7651089 -0.29675382 0.51794815 0.14061366 0.018513849
0.13797815 -0.39796743 -0.12114607 0.15893878 -0.3001547 0.044471953 0.3184017 0.06978585
0.5496509 -0.3365359 0.10186135 0.34485197 0.35411108 -0.3080176 -0.30798265 -0.15246709
0.03915862 -0.16053534 0.15108086 -0.8471143 -0.14258583 0.3546099 0.18111956 -0.059554134
0.39842528 -0.21125448 -0.27241924 0.27246514 -0.16354655 -0.05485991 -0.111699365 0.24547552
0.25933993 0.18905468 -0.21677466 0.45040354 0.17787592 -0.23390265 0.10434614 -0.1169604
-0.29705566 -0.34706935 0.3054168 -0.015946075 0.0950916 0.1324972 0.20948596 0.2983123
00000000: 9e7c 76be 04e0 f23d 2db7 72bd ef1a b43e
00000010: 64e2 643e a527 8bbe ac00 0d3e 0fe4 25bc
00000020: b060 ea3e 787b b63d 2bec 5b3e b882 ed3e
00000030: 4b0a a3bd 8021 22bf 7d2f 613e 2465 3bbe
00000040: b39a 993d df8c c93e f8ef 52bd dda2 9c3e
00000050: b3ed 363e 451e babd 9e66 883d 8e67 dcbd
00000060: 0bff 8b3e a946 ae3e 0ce1 87be 7d26 963c
00000070: 307f 8b3d 05d8 a43e c1c5 1c3e 6e1c e53d
00000080: bd2f 833e df7e 55bd 103c 82be 80f2 bd3c
00000090: 5391 b33e 37de 11bf 7088 c5be ad1a 063e
000000a0: 0371 2cbf 23f1 9d3e cbd1 dabe 9f6b 9cbb
000000b0: 7867 18be c797 673f 5b16 133d 7cff 8d3e
000000c0: aa79 bebd d895 d63e 211d 353e ba66 4e3f
000000d0: 33e6 633e c73d 00bd 4c34 76bd 169e f83d
000000e0: 01c8 933e 3121 8abe 5cf5 8ebe c2c7 adbe
000000f0: 96fe 37be fd50 803d 8444 213d f952 a53d
00000100: 8c94 79bd c88b be3e 82bf 47be e103 8f3e
00000110: 28dc 01bd 7100 b3bd c01b a2bd 86bc 8bbe
00000120: 27db 1a3e 32f7 46be 6b87 20bd f5d3 8ebe
00000130: 0911 86bc d233 363e 1722 433e ec46 413e
00000140: 83f5 9a3e 39a3 793e f9ba 743e 97c0 023e
00000150: 0c76 a33c 6c41 86be 5979 32be 5f4b 70bd
00000160: dabc 593e 25f6 83be 66cd 90be adb2 8a3e
00000170: 79d4 113e 1565 65be 85de ce3e 9d86 09be
00000180: 3922 c43e f043 403e 6c14 75bd 25ac f83e
00000190: ccaf 2fbe 8921 23be ebbf 353e a61c 183c
000001a0: 9f42 02be b208 563e 8335 77bd e008 ab3e
000001b0: 1567 873e f0f8 293e 1451 963a 70bc d43a
000001c0: 6ab4 133e 72b3 1c3d 932c 24bb 010f 7bbe
000001d0: 9910 6f3e 303f cfbd 8845 6a3d 9890 33bd
000001e0: 1e9b 0b3e f91e e23e db58 5dbe 63b3 abbd
000001f0: fb11 0dbd 3b4d abbe ef97 c3be cee1 9cbd
00000200: e417 a13e 0fbb 15be a70a 9d3d 53d4 773e
00000210: cf36 4cbe 1ccb 933e 9449 573d 02a4 a0be
00000220: 5081 b43d 116e d1be 2b6e 9a3e f99e ce3e
00000230: b6da 0f3e a8ba 033e 643b 003f 87ad 1f3f
00000240: 1399 793e de4e d1be bd77 a73e 01ed 033e
00000250: cc50 5bbd da51 2cbd 68e3 d03e dbad 573e
00000260: ae1b 2f3e 7f28 08be 3046 673e 06e9 d0be
00000270: accf 663d 359c 983d 670e 2f3d 4a64 c53e
00000280: 8454 e33d c321 cd3d 5dbf 5c3e bc4c 5c3e
00000290: 6898 9a3c 9a93 8abe 70c5 c33d eed9 a9bc
000002a0: f5c5 c23d 9944 8a3e 2339 bcbe 7d53 c5be
000002b0: 5baf 233e 724e 37be 191a c73e e4ab bd3e
000002c0: 5f4e 49bd 7588 4abe 8690 0c3e d8ba 1f3c
000002d0: 0773 8b3e 16b5 d43d 81e2 953e c14e b7be
000002e0: 0911 7cbc 00ed 93bb d781 453e 0f66 d6be
000002f0: bb37 333b 19fb a3be 4d50 7fbe 977e 043e
00000300: df53 47bd 8967 1d3e 37d3 6abc 0541 9dbd
00000310: 2180 52bd a812 2c3e f59d 98be 7162 0abb
00000320: 389c 0e3c 855d ba3e 2547 acbd 2dde 433f
00000330: 1ef0 97be 4098 043f 07fd 0f3e 5baa 973c
00000340: 254a 0d3e 63c2 cbbe 6e1b f8bd d9c0 223e
00000350: e0ad 99be 3928 363d 8c05 a33e e2eb 8e3d
00000360: ecb5 0c3f 6f4e acbe af9c d03d 7090 b03e
00000370: 0c4e b53e 7cb4 9dbe e7af 9dbe 5520 1cbe
00000380: ca64 203d 6063 24be f1b4 1a3e 7cdc 58bf
00000390: 0502 12be 6e8f b53e 6877 393e 09ef 73bd
000003a0: 66fe cb3e 1853 58be 897a 8bbe 8d80 8b3e
000003b0: bf78 27be c9b4 60bd a3c2 e4bd ef5d 7b3e
000003c0: 34c8 843e 8d97 413e 2dfa 5dbe 4b9b e63e
000003d0: 1b25 363e 2d84 6fbe 6eb3 d53d ef88 efbd
000003e0: ae17 98be 13b3 b1be 975f 9c3e 58a1 82bc
000003f0: 63bf c23d 59ad 073e 7d83 563e 64bc 983e

value_layer.0.bias f4 [64]
0.30146405 -0.056784652 -0.053169064 0.04336555 -0.2547923 0.38437107 0.37582514 -0.039575867
-0.051155455 0.03394753 0.17989808 0.2098908 0.20376332 0.039902918 -0.34966365 -0.15562426
0.07525771 0.3990415 0.1082324 -0.18134727 0.066303976 -0.11876617 -0.14885922 -0.2941173
-0.06276665 0.41404402 0.34838077 0.11031164 -0.3934103 0.35066855 0.31069398 -0.017615091
-0.120425366 0.22344579 -0.022367835 0.26657057 0.044524074 0.20794006 0.103462 0.345917
0.33115324 -0.38149476 0.09411879 -0.04675164 -0.2072182 0.09719606 -0.12588994 -0.35915187
-0.3951463 -0.23900354 0.06037436 0.33116895 0.037490096 -0.1334479 0.40611118 -0.407676
-0.33004412 0.28898886 -0.2241435 0.39475745 0.2024573 -0.24643071 0.39459157 0.27911416
00000000: 7f59 9a3e 0697 68bd cec7 59bd 13a0 313d
00000010: 2374 82be 49cc c43e 276c c03e 4e1a 22bd
00000020: 6288 51bd 910c 0b3d 3437 383e 9ded 563e
00000030: 55a7 503e 3e71 233d 1d07 b3be f75b 1fbe
00000040: b720 9a3d 2b4f cc3e f3a8 dd3d 19b3 39be
00000050: 61ca 873d ae3b f3bd 8d6e 18be 8b96 96be
00000060: cd8b 80bd 94fd d33e f75e b23e 12eb e13d
00000070: 136d c9be d48a b33e 4813 9f3e 864d 90bc
00000080: 93a1 f6bd f9ce 643e c03c b7bc f07b 883e
00000090: e05e 363d 3dee 543e e3e3 d33d 081c b13e
000000a0: eb8c a93e 4853 c3be 5ac1 c03d a67e 3fbd
000000b0: 0231 54be ba0e c73d 4be9 00be c1e2 b7be
000000c0: 9e50 cabe 58bd 74be 1b4b 773d fa8e a93e
000000d0: 378f 193d 91a6 08be ceed cf3e e9ba d0be
000000e0: 8bfb a8be 59f6 933e e085 65be a61d ca3e
000000f0: f750 4f3e 5558 7cbe e807 ca3e 0de8 8e3e

value_layer.2.weight f4 [64, 64]
0.114945695 0.12241401 0.023916587 0.16573763 0.0030101314 -0.040441796 0.07627981 -0.098378584
-0.07194102 0.13782667 -0.066264495 0.1154812 0.12249018 -0.08399177 -0.06271708 -0.020918634
0.10564631 0.061072044 0.15130235 -0.10965422 0.042035665 0.11470701 -0.065706626 -0.08120014
-0.06684821 0.09976307 0.0726564 -0.020030752 0.07427569 0.063719116 0.02543202 0.088270225
0.004020581 0.08185745 0.05185243 -0.018916665 -0.049937323 0.14447846 -0.05271975 0.057084374
0.13703698 -0.10254798 -0.00927841 0.034042835 -0.083855696 0.11809543 0.14035967 -0.06767747
-0.053927705 -0.041361913 0.12531693 -0.01596938 0.026665127 -0.156894 0.06313002 0.010547836
0.03195511 0.04100711 -0.025128251 0.14068085 0.10010444 -0.087682165 -0.09801935 0.11002081
-0.0912129 0.12485121 0.08326456 0.07763668 -0.10450092 -0.13770473 -0.011638048 -0.095383964
0.029332366 0.059840776 0.077991456 0.15583539 0.004585805 0.03815619 -0.104957595 0.078877136
0.07693727 0.15316507 -0.0012263057 0.09018913 0.017893406 0.13354905 0.009923132 -0.1451402
-0.08024099 -0.061600287 0.026481882 -0.056149676 -0.03743605 0.107314855 0.13889422 -0.0694137
0.099208824 -0.0103558395 -0.00886215 0.009755853 -0.11174682 0.09215705 -0.03987454 -0.069789
0.07887797 -0.12979524 -0.07427169 0.031203505 0.027555235 -0.038015712 -0.035257183 -0.055346426
-0.057193443 0.058659993 -0.060692854 0.0806544 0.03059344 -0.03060656 -0.06498305 -0.08029895
0.06854179 -0.067306474 -0.043026432 0.15073216 -0.02185183 0.049936503 0.056760766 -0.059623197
-0.05720049 0.16900437 0.06647332 0.16003558 -0.12868255 -0.03510481 -0.027698632 -0.053878576
-0.10210961 -0.12079337 0.031057887 0.2297474 0.111444384 0.01689862 0.039268985 -0.05165056
-0.021061847 0.25912994 0.1636373 0.06528934 0.095497005 0.104761004 -0.06318887 -0.07929825
-0.05622866 0.10659141 0.18014836 -0.013858682 -0.03899564 0.08969356 0.07293078 -0.0026627511
-0.0694019 0.041993648 -0.06534429 0.24315129 -0.03901938 0.14094862 0.014611625 -0.03049901
0.2057968 -0.2633487 -0.03933119 -0.0008484478 -0.052652758 0.0517449 -0.054563504 -0.12675028
-0.04216212 0.016140116 0.11332273 0.09492803 -0.02924989 -0.07154541 0.11524926 -0.19445044
-0.13554153 0.08093194 0.00037936543 0.14893757 0.20924807 -0.23738424 0.10614626 0.017066367
-0.14357607 0.10841489 -0.046858795 -0.04747608 0.05486328 -0.049379736 0.08046358 -0.07525913
0.07016614 0.075817145 0.08921509 -0.024213014 0.024840727 0.04294702 0.100988254 -0.064135455
-0.103766635 -0.08437557 0.030996412 -0.09016044 -0.02328248 -0.036348853 0.01848821 -0.084388755
0.09564347 -0.13473496 -0.07007903 0.05587524 -0.122125015 0.06043737 -0.030116113 -0.08949667
0.087036505 -0.04066354 0.023278842 -0.04378522 0.019724553 0.11766783 0.118492514 -0.06672755
-0.10664748 -0.12150039 0.038606957 0.03389659 0.06971128 0.058918733 0.14122184 -0.09920481
-0.078850485 -0.030225767 0.083260976 -0.111598626 0.09541243 0.02117045 0.06652074 0.109755665
0.13049592 0.11466288 -0.030406617 -0.049384907 0.04147423 0.08623179 -0.023675492 -0.035374153
00000000: a668 eb3d 32b4 fa3d b8ec c33c 20b7 293e
00000010: a045 453b 4ca6 25bd 9738 9c3d b67a c9bd
00000020: d055 93bd 6f22 0d3e aeb5 87bd 6881 ec3d
00000030: 22dc fa3d e103 acbd d071 80bd 8e5d abbc
00000040: 185d d83d ae26 7a3d 01ef 1a3e 6492 e0bd
00000050: 972d 2c3d 82eb ea3d 3291 86bd 424c a6bd
00000060: b7e7 88bd 9550 cc3d e1cc 943d 8817 a4bc
00000070: da1d 983d 2b7f 823d d056 d03c 05c7 b43d
00000080: 14bf 833b e1a4 a73d 3763 543d 1ff7 9abc
00000090: 148b 4cbd 29f2 133e aaf0 57bd 4ed1 693d
000000a0: 6c53 0c3e ad04 d2bd 7904 18bc 8070 0b3d
000000b0: 89bc abbd 04dc f13d 72ba 0f3e 7c9a 8abd
000000c0: 4ce3 5cbd 1c6b 29bd 1553 003e 38d2 82bc
000000d0: d370 da3c d2a8 20be 504a 813d d5d0 2c3c
000000e0: 5de3 023d 12f7 273d c3d9 cdbc a40e 103e
000000f0: 8e03 cd3d b592 b3bd 5ebe c8bd 9752 e13d
00000100: d4cd babd feb1 ff3d 9c86 aa3d fbff 9e3d
00000110: 9404 d6bd 7802 0dbe 83ad 3ebc ab58 c3bd
00000120: 6e4a f03c 9a1b 753d fcb9 9f3d 5093 1f3e
00000130: 8544 963b aa49 1c3d 02f4 d6bd 568a a13d
00000140: 4a91 9d3d 4ed7 1c3e febb a0ba 14b5 b83d
00000150: 3195 923c 15c1 083e a294 223c a29f 14be
00000160: 6355 a4bd 9550 7cbd 88f0 d83c 34fd 65bd
00000170: 8b56 19bd e4c7 db3d 493a 0e3e c528 8ebd
00000180: ff2d cb3d 8aab 29bc 8d32 11bc 03d7 1f3c
00000190: 84db e4bd d6bc bc3d 7c53 23bd 89ed 8ebd
000001a0: c68a a13d 0be9 04be c11b 98bd 7e9e ff3c
000001b0: 84bb e13c 5db6 1bbd d669 10bd efb2 62bd
000001c0: ac43 6abd 7645 703d 1299 78bd 222e a53d
000001d0: 189f fa3c 9cba fabc d515 85bd c773 a4bd
000001e0: a35f 8c3d fad7 89bd 7c3c 30bd 8859 1a3e
000001f0: 9c02 b3bc 388a 4c3d fa7d 683d 7437 74bd
00000200: 104b 6abd 7b0f 2d3e 2a23 883d 5ee0 233e
00000210: 5cc5 03be 10ca 0fbd 3ee8 e2bc c8af 5cbd
00000220: d81e d1bd 8462 f7bd 1c6d fe3c e742 6b3e
00000230: f43c e43d fa6e 8a3c 84d8 203d 8a8f 53bd
00000240: e589 acbc aeac 843e 8990 273e 6bb6 853d
00000250: ef93 c33d f08c d63d 2b69 81bd 1f67 a2bd
00000260: 0650 66bd 994c da3d d078 383e 860f 63bc
00000270: e4b9 1fbd 42b1 b73d bc5c 953d 8d81 2ebb
00000280: 9522 8ebd 8801 2c3d 3ad3 85bd a7fc 783e
00000290: c9d2 1fbd d654 103e 9965 6f3c 0fd9 f9bc
000002a0: 65bc 523e a4d5 86be be19 21bd 5e6a 5eba
000002b0: 6baa 57bd 76f2 533d fb7d 5fbd d3ca 01be
000002c0: 30b2 2cbd 4738 843c bf15 e83d a169 c23d
000002d0: 779d efbc 6686 92bd ce07 ec3d 041e 47be
000002e0: 66cb 0abe a5bf a53d 91e5 c639 1783 183e
000002f0: 2045 563e db14 73be 3663 d93d c4ce 8b3c
00000300: 9b05 13be a008 de3d 02ef 3fbd 4776 42bd
00000310: 52b8 603d 6842 4abd 17ca a43d 7521 9abd
00000320: 44b3 8f3d 0546 9b3d 67b6 b63d 5f5a c6bc
00000330: c87e cb3c 37e9 2f3d eed2 ce3d 7359 83bd
00000340: 9a83 d4bd 19cd acbd 30ec fd3c 09a6 b8bd
00000350: e6ba bebc 89e2 14bd 9674 973c 03d4 acbd
00000360: b9e0 c33d f6f7 09be 9885 8fbd 70dd 643d
00000370: ae1c fabd 2d8d 773d 11b6 f6bc 084a b7bd
00000380: 3240 b23d d08e 26bd 45b3 be3c 2158 33bd
00000390: 6395 a13c d5fb f03d 34ac f23d 74a8 88bd
000003a0: fe69 dabd 32d5 f8bd 5422 1e3d 27d7 0a3d
000003b0: cac4 8e3d c554 713d 759c 103e e42b cbbd
000003c0: 5d7c a1bd 079c f7bc bb84 aa3d d28d e4bd
000003d0: 9867 c33d a76d ad3c 073c 883d 94c7 e03d
000003e0: b9a0 053e 5fd4 ea3d 4c17 f9bc d447 4abd
000003f0: e2e0 293d 4b9a b03d 1bf3 c1bc 7de4 10bd

value_layer.2.bias f4 [64]
-0.025734771 0.12205275 0.08787994 -0.07511527 -0.012628566 0.08656087 0.08793431 0.07166884
-0.10907971 -0.06950872 -0.13810906 0.18612467 0.038961817 0.069701485 -0.095242694 -0.07574701
-0.10384381 -0.13874942 -0.11711189 -0.2110096 0.13302639 -0.0006718581 0.030936334 0.00092725805
0.0101488 0.12303685 -0.1210111 0.14591902 0.046736218 -0.08846982 0.11473096 -0.119736575
-0.052692797 0.0071486076 0.07820932 -0.21285573 0.10078605 0.012919616 0.051555257 -0.03433064
0.09864753 0.06399695 -0.084626846 -0.114713766 -0.07212133 -0.09251075 -0.10334342 0.12273679
0.12108444 0.106282786 -0.074033014 -0.046759017 -0.06286325 -0.011977222 0.02503571 0.045511402
0.1840712 -0.13648535 -0.02162766 0.03566839 -0.072538935 0.058402825 0.14998291 -0.07811056
00000000: bad1 d2bc cbf6 f93d 66fa b33d 09d6 99bd
00000010: 0be8 4ebc d346 b13d e716 b43d 1dc7 923d
00000020: 2f65 dfbd 965a 8ebd 766c 0dbe 7797 3e3e
00000030: 6d96 1f3d a7bf 8e3d 9a0e c3bd 4021 9bbd
00000040: 10ac d4bd 5414 0ebe 5cd8 efbd e712 58be
00000050: 1238 083e a21f 30ba 326e fd3c 3c13 733a
00000060: 2747 263c befa fb3d abd4 f7bd cc6b 153e
00000070: 7a6e 3f3d aa2f b5bd 11f8 ea3d 7338 f5bd
00000080: 67d4 57bd de3e ea3b 352c a03d daf6 59be
00000090: eb68 ce3d ccac 533c 9b2b 533d 499e 0cbd
000000a0: b707 ca3d d510 833d d750 adbd 0def eabd
000000b0: 59b4 93bd 4776 bdbd b7a5 d3bd 6d5d fb3d
000000c0: 1efb f73d caaa d93d 9f9e 97bd 6286 3fbd
000000d0: 73be 80bd 1c3c 44bc b017 cd3c 2a6a 3a3d
000000e0: 297d 3c3e d1c2 0bbe 7e2c b1bc 0519 123d
000000f0: 4b8f 94bd cd37 6f3d 1f95 193e 6ef8 9fbd

value_layer.4.weight f4 [1, 64]
-0.04191376 -0.0013412844 -0.115848005 0.018545274 -0.002110064 0.08883176 0.011045743 0.0052631106
-0.0034245877 0.0026065542 0.022569638 -0.21815367 0.0015341258 0.05057247 0.02346573 0.011979609
-0.008324884 -0.004361116 0.0008779997 0.18957156 0.09518851 -0.019322636 -0.022473095 0.011501946
0.022381075 0.008971495 -0.0060710683 -0.0033210039 0.014952214 -0.009587901 -0.019818526 -0.005529613
0.002825001 0.02124791 0.0118866535 0.23709577 -0.090961225 -0.005108383 -0.0040934198 0.00022161988
0.18769808 -0.22331165 -0.055810757 -0.01210658 0.012146245 -0.008867743 0.0068623982 0.009212965
0.063818015 0.009932766 -0.0026581543 0.0028162098 -0.0067381137 0.009641 0.003557255 -0.0028974968
-0.23702967 0.002099875 0.008625198 -0.0026848214 0.0010807276 -0.24306884 -0.014611828 -0.0063904724
00000000: c3ad 2bbd 09ce afba b841 edbd 42ec 973c
00000010: 0049 0abb 6ded b53d 34f9 343c 2c76 ac3b
00000020: 0c6f 60bb b9d2 2a3b f6e3 b83c ad63 5fbe
00000030: b814 c93a 1425 4f3d 343b c03c 1f46 443c
00000040: 1865 08bc b1e7 8ebb 9029 663a 0c1f 423e
00000050: 32f2 c23d 814a 9ebc 7f19 b8bc a872 3c3c
00000060: 8458 b73c 2dfd 123c d0ef c6bb 33a5 59bb
00000070: 22fa 743c 9216 1dbc 765a a2bc c131 b5bb
00000080: a723 393b 1910 ae3c 3dc0 423c 3cc9 723e
00000090: e149 babd 3964 a7bb 1822 86bb a262 6839
000000a0: ed33 403e cfab 64be d299 64bd ad5a 46bc
000000b0: 0b01 473c 034a 11bc f8dd e03b faf1 163c
000000c0: 05b3 823d 0abd 223c 6e34 2ebb 2990 383b
000000d0: 65cb dcbb 49f5 1d3c d620 693b eee3 3dbb
000000e0: e8b7 72be 0e9e 093b b450 0d3c d4f3 2fbb
000000f0: 33a7 8d3a 0ae7 78be 7366 6fbc 2b67 d1bb
