bpa_2/tasks_bpa2/tasks/solution/PPO_LunarLander-v2-eps0.2.pth (torch, 43611 bytes, 11 tensors)

action_layer.0.weight f4 [64, 8]
000000 c4 0f 8c 3e a6 2f ae 3e 27 5b 1f be d5 cc 00 3f
       0.27355778 0.34020728 -0.15562116 0.5031255
000010 ec e7 ec b9 0b 59 b4 3d f0 72 48 be e0 5c 52 3e
       -0.00045186223 0.08806046 -0.19575095 0.20543242
000020 04 43 1d 3e 1b 87 70 be 5a 3b 39 3e 2a 68 15 be
       0.15357596 -0.23489039 0.18089047 -0.14590517
000030 1f 82 03 3f f7 85 85 3e 50 20 c4 3c c5 ff 1b 3d
       0.51370424 0.2607877 0.023941189 0.038085718
000040 1b f6 02 3f fe 20 f0 3d 1c 32 f7 bd 9d 04 fb 3d
       0.5115678 0.11725043 -0.120701045 0.12256739
000050 bf 92 df be 60 02 5f be af ca 10 be 9b 95 82 3e
       -0.43666646 -0.2177825 -0.14139818 0.25504765
000060 49 6a b8 bd a3 ee 12 be 04 5b 3f 3c ac a6 a8 be
       -0.09004647 -0.14348845 0.011679415 -0.3293966
000070 e1 6c ee bd 20 34 f0 be 50 f0 af 3e 56 96 ab be
       -0.11641861 -0.46914768 0.3436303 -0.33513135
000080 b1 ef c5 3d 4e dc 85 3d 80 df 6b be 52 35 b2 3e
       0.09664858 0.065361604 -0.23034477 0.34806305
000090 6b df 95 3e fd 55 00 3f 50 e3 15 3d 95 a1 b9 bd
       0.29272017 0.5013121 0.036593735 -0.090640225
0000a0 19 11 53 3e f1 c0 0c 3d 70 50 21 3e 3b 7e d4 3e
       0.20611991 0.03436369 0.1575334 0.41502556
0000b0 87 10 02 bd 3d 99 8d be f2 86 78 3e e7 5e 68 3d
       -0.031754043 -0.27655974 0.24270228 0.05673113
0000c0 c3 a3 1b 3e db a1 a3 be cf af 77 be 0e 74 b1 be
       0.15199189 -0.31959423 -0.2418816 -0.34658855
0000d0 18 37 58 be e2 0c 8e 3e 61 99 88 3c 5a 45 fe 3d
       -0.21114767 0.27744204 0.0166747 0.124155715
0000e0 2e f0 83 3e c0 4f bd bd 54 b5 b4 3e 65 4d cb be
       0.2576918 -0.09243727 0.35294592 -0.39707485
0000f0 4d 60 55 be ee 09 9e be a0 d2 32 3e 79 5b a5 bd
       -0.20837517 -0.3086695 0.1746316 -0.08074088
000100 bb 18 b0 3e 86 96 b1 bd 41 ed cd 3e fe 7c 80 be
       0.34393868 -0.08671288 0.40220073 -0.2509536
000110 9a b0 0a bf f2 1f d3 be 35 51 dd 3e 70 b0 19 3e
       -0.5417572 -0.4123531 0.4322602 0.15008712
000120 92 62 3e 3e b7 1e b8 be c6 92 bc be 68 bc f0 be
       0.18592289 -0.35960934 -0.3683073 -0.47018743
000130 83 1d 85 bd 93 6b 67 3e a7 64 1c bd ad 54 67 3e
       -0.064997695 0.2259963 -0.038181927 0.22590895
000140 3d 9d 93 be 85 98 87 be 59 98 69 3e 07 6c e1 be
       -0.288309 -0.2648355 0.22812022 -0.4402773
000150 f5 2d b3 3e 4b 9e 06 3d c9 cd 11 3e cb a0 26 be
       0.34996 0.032865804 0.14238657 -0.16272275
000160 49 19 cd be b6 64 50 bc 5b e5 47 bd 8a 28 70 be
       -0.40058354 -0.012719324 -0.048802715 -0.23452964
000170 65 35 08 3f de bc ef 3e a8 0a bf be be 22 28 be
       0.53206474 0.46823782 -0.37312818 -0.16419503
000180 78 33 ab 3e b0 dd 8a be 48 5e cd 3a ee 59 0f bf
       0.33437705 -0.2712226 0.0015668357 -0.55996597
000190 5d 6a b5 be 3c 09 72 3d d8 c1 c7 bc f6 dd 3c be
       -0.3543271 0.059090838 -0.024384424 -0.18444046
0001a0 32 5b 49 3e 0b 3f 47 be 50 4b 8f be a4 d0 9d be
       0.19663695 -0.19457643 -0.27987146 -0.30823243
0001b0 db 04 ef be 62 b9 89 be b2 b2 a2 3e 9c ac 5e bd
       -0.46683392 -0.26899248 0.3177696 -0.054363832
0001c0 87 ac 0a 3e 59 a1 bf be 14 d9 ab bd 6d e0 9a be
       0.13542376 -0.37427786 -0.08391014 -0.30249348
0001d0 82 de 8c 3c 1e 30 98 be 37 e7 d1 bd 05 c8 06 be
       0.017195944 -0.2972421 -0.10249179 -0.13162239
0001e0 9c 99 e3 3d 4e 58 46 be a6 79 de 3d 80 44 c9 be
       0.11113283 -0.19369623 0.10863046 -0.39310074
0001f0 e6 a8 01 bf 52 7b b8 be 95 e5 e2 bd 8f 62 8b be
       -0.50648344 -0.36031586 -0.110789455 -0.27223632
000200 ef 79 f1 3e b0 0f c6 bc de 6c 96 3e cf de cc 3e
       0.4716334 -0.024177402 0.29379934 0.4001374
000210 ff 3a 11 bf c7 37 ab 3d 34 8b 7e 3c f8 a2 a6 bd
       -0.56730646 0.08360248 0.015536118 -0.081365526
000220 ed 74 c0 be cf b5 b6 be eb 82 06 3e e0 f4 88 be
       -0.37589207 -0.35685584 0.13135879 -0.26749325
000230 10 fe 9e 3e 88 85 2a be a1 d3 5e 3e fe 4a 21 be
       0.3105321 -0.166525 0.21760418 -0.15751263
000240 1e 98 b9 3b bf fb 1a 3e aa 7c 26 3e a8 bb 0c 3f
       0.0056638857 0.15135096 0.16258493 0.5497384
000250 af b7 b7 3e a7 a3 8a be c4 57 8e 3d 55 7f ea bd
       0.35882327 -0.27077982 0.06950334 -0.11450068
000260 7c 6b 9a 3c 44 0b a2 be 79 80 d1 3e 29 58 d8 be
       0.01885008 -0.3164922 0.4091833 -0.4225476
000270 f0 f7 d4 3d 7b 2d 94 3d 3d d3 1b 3e 92 e4 cb bd
       0.10398853 0.07235237 0.152173 -0.09955706
000280 71 3c 84 3e af 6b a2 bd 25 99 e2 3c 8e d0 f3 be
       0.25827363 -0.07930695 0.027660916 -0.47620052
000290 73 49 8d 3e c9 a4 92 3d b7 67 4b be 8e 07 c5 3e
       0.275951 0.071603365 -0.19863783 0.38482326
0002a0 2e d1 8a bd 26 ed 89 be bd a5 18 be 22 45 90 be
       -0.06778179 -0.26938742 -0.14906974 -0.28177744
0002b0 f4 d3 d2 3e cc ec 47 3d 3f dd 96 be cd 5a d8 bd
       0.41177332 0.04880981 -0.29465672 -0.10564194
0002c0 bf 6a ba be 39 94 50 bd 4f 15 77 3e df 7c 12 bf
       -0.36409566 -0.050922606 0.24129222 -0.5722179
0002d0 e2 2b 58 3e 97 f0 70 3e 90 b5 42 bc fc 7f a1 bd
       0.2111049 0.23529278 -0.011884108 -0.07885739
0002e0 05 95 9d 3e 2d 80 d3 3d 6e 43 de 3d 54 85 2b bd
       0.30777755 0.10327182 0.10852705 -0.0418752
0002f0 16 68 af be 61 e1 d6 bc 8c bc 29 bd 2b b7 e2 bd
       -0.342591 -0.026230516 -0.041439578 -0.11070093
000300 a4 0e c1 3e f2 50 8b 3e 31 e4 bd bd 15 3a 0c 3d
       0.37706482 0.27210194 -0.0927204 0.03423508
000310 bf f6 a1 bd eb a8 66 bd f1 90 2d 3d 34 da 10 3e
       -0.07908391 -0.056313436 0.042374555 0.14145738
000320 55 87 55 be 46 f6 26 bc b4 4e 9b 3e 0f 15 b7 3e
       -0.20852406 -0.010190552 0.30333483 0.35758254
000330 59 af 5e be b1 eb b1 be 5f 53 26 bd e8 1d 8a be
       -0.21746577 -0.3475013 -0.040606853 -0.26975942
000340 48 05 cf 3d b5 b7 31 3e 85 18 a7 3e fa be 79 3e
       0.10108429 0.17355235 0.32635894 0.24389258
000350 63 80 25 bf e8 e3 ef be c5 67 8b 3d 30 c4 a4 3e
       -0.6464903 -0.46853566 0.06806902 0.3218093
000360 ec 36 58 3d b7 aa 53 be 7c f7 44 3e 10 6a 7f be
       0.052786753 -0.20670591 0.19235033 -0.24942803
000370 b0 95 dd be e1 bb 2e 3e 7b fd dd bd d5 48 9d bd
       -0.43278265 0.17063858 -0.10839363 -0.07679907
000380 a1 e0 05 be 2c 8a 8c 3e e0 50 b7 3e 77 82 7b 3e
       -0.1307397 0.27449167 0.3580389 0.24561487
000390 e9 3a 13 bf 5d b4 17 bf ba 88 f5 bd be 89 88 3e
       -0.57511765 -0.5925959 -0.11988969 0.2666759
0003a0 7a 87 9f 3e fa c0 96 3e ba f4 42 3e 1d 67 9c 3e
       0.31158048 0.29444104 0.19038668 0.3054742
0003b0 13 df 52 be 4b 3e a4 be e7 73 15 be 82 8a 6f be
       -0.20592909 -0.32078776 -0.14594994 -0.2339268
0003c0 37 e2 9b 3e 45 9e 54 be 3d 03 98 3d bc 45 ce be
       0.30446026 -0.207635 0.07422493 -0.40287578
0003d0 c4 5c 97 be 1c e6 c4 be 24 95 59 be bb eb 11 3e
       -0.29562962 -0.3845681 -0.21248299 0.1425008
0003e0 a3 94 9b bd bc 8f 7f 3d 46 64 cf 3c 02 d3 f9 be
       -0.075967096 0.062392935 0.025316369 -0.487938
0003f0 46 6b 18 be 29 aa 3e be 7d 31 e1 bd 2f fc 7a be
       -0.14884672 -0.18619598 -0.10995767 -0.24510263

action_layer.0.bias f4 [64]
000000 c7 08 10 3e b9 93 2f be 11 81 d5 bd eb 16 80 be
       0.14065848 -0.17146195 -0.10425008 -0.25017485
000010 9a 6f 97 3e 86 01 53 be 4d 50 1d 3e 02 ee 9c bd
       0.29577333 -0.2060605 0.15362664 -0.07662584
000020 a7 52 60 bd 94 0a 09 3e df 25 2f bd 1d ba fc 3d
       -0.054766323 0.13382941 -0.042760726 0.12340186
000030 65 cf 11 3e bb 0a 70 be f7 b4 ad 3d 67 c2 cb 3c
       0.14239271 -0.23441593 0.08481782 0.024872972
000040 80 42 85 3d f4 d2 53 3c 93 9f 04 3e ad f6 38 be
       0.065068245 0.012928713 0.12951498 -0.1806285
000050 e1 0f 1d be 50 a5 91 3e 1b 0a af 3d 0b 7c 03 bd
       -0.15338089 0.28446436 0.08546849 -0.03210072
000060 a2 80 67 be 3d 1c a0 3d e2 14 41 be 06 bd 20 3e
       -0.22607663 0.07817886 -0.18855622 0.15697107
000070 94 1d 35 be 92 b4 46 bc f3 d4 bb bd 74 33 e3 bb
       -0.17687064 -0.012128012 -0.09171476 -0.006933624
000080 9f 6d 9b 3e ef e2 26 bb ab fc da 3d 74 ba 1f 3e
       0.30357072 -0.0025464853 0.10692724 0.1559847
000090 3b 8c 57 3e fe c2 da bd 96 76 45 bd c4 de be 3d
       0.21049587 -0.10681723 -0.048208795 0.09319833
0000a0 50 94 22 bd dc 62 20 3e c9 89 f9 bc bc ae 61 be
       -0.039692223 0.15662712 -0.030461209 -0.22039312
0000b0 1d 43 c4 3d 55 22 ad 3d f1 10 1f 3e b5 f0 62 3e
       0.09583113 0.08453814 0.15533806 0.22162135
0000c0 72 ae 06 3e c9 52 3f 3e 54 33 e5 bb cf 33 8a be
       0.13152483 0.18683924 -0.006994644 -0.26992652
0000d0 6d 86 6c be 28 f5 70 be 30 20 52 be 90 e1 d1 bd
       -0.23098154 -0.2353102 -0.20520091 -0.10248101
0000e0 71 e2 89 be cc 15 9c be e6 fe 36 be cf 44 43 be
       -0.26930574 -0.3048538 -0.17870674 -0.19069217
0000f0 ae f5 bd bd f5 6a e5 3d 46 73 31 3e 7c 67 dd bd
       -0.09275375 0.11202041 0.1732913 -0.10810754

action_layer.2.weight f4 [64, 64]
000000 d1 25 e2 bd 7b 13 e4 3d 27 d9 2b be 03 35 5c bd
       -0.11042369 0.11136528 -0.16782056 -0.053761493
000010 fc 44 b3 3d 20 50 fd bd 4a b2 a0 3c 4d 52 ee 3b
       0.08753392 -0.12368798 0.019616265 0.0072729946
000020 f7 a3 3c be 10 a2 8d 3d b1 8e 71 3d 8d 98 fe 3d
       -0.18421923 0.069156766 0.05897397 0.124314405
000030 d4 85 83 bc 1d 9c 32 3c 67 f6 62 3d 2c 8b c6 3b
       -0.016055025 0.010901478 0.05541077 0.006059071
000040 1b 8a 9b be 12 4b 18 3d 2c 72 03 be f0 18 b4 bc
       -0.30378804 0.037180968 -0.12836522 -0.021984547
000050 ae 27 85 3d b5 8c 03 bc e7 fd 07 3e b2 66 ce bc
       0.06501709 -0.008029153 0.1328045 -0.025195453
000060 26 27 90 bd d0 4e e0 3c 54 91 93 be c0 08 8b bd
       -0.07038717 0.02738133 -0.28821814 -0.06788778
000070 c6 07 3e be 21 5f 3e be 1c 16 fd bd cc 91 92 bc
       -0.18557653 -0.18590976 -0.12357733 -0.017891787
000080 c0 4e 08 3c 92 42 4f 3c fd 86 fc bb c0 68 dc bd
       0.008319557 0.012650149 -0.0077065215 -0.10762167
000090 0e 3b 6e be d6 f3 52 3e 1e 5e 95 bc 39 18 0c 3e
       -0.23264715 0.20600829 -0.018233355 0.13681115
0000a0 88 4e 86 bd 89 2c a9 be d3 2d d8 bc ea 37 d7 3d
       -0.065579474 -0.3304179 -0.026389038 0.10508712
0000b0 14 f6 51 3b ba 2a 2d 3e 81 ed 6d be 04 b3 c7 bd
       0.0032037543 0.1691083 -0.23235132 -0.097509414
0000c0 c4 82 0a 3c 9c 88 03 be fd 7d be bd 8c 36 92 3e
       0.0084540285 -0.12845081 -0.09301374 0.2855724
0000d0 21 ea 51 bc 12 f5 a9 bc 91 33 9e bd 75 7a b1 3c
       -0.012812168 -0.020746741 -0.07724679 0.021664837
0000e0 3e 51 54 3d 18 2b ea 3d 12 00 a6 3d b5 43 bf bd
       0.05183529 0.11434001 0.08105482 -0.09339086
0000f0 de 43 13 be 5e 98 ba bd 81 fa 1c be 8b ca 83 bd
       -0.14381358 -0.09111093 -0.15329935 -0.064351164
000100 ca 4f 68 3c 4f 77 09 be 94 f8 55 3e f2 54 e0 3d
       0.014179179 -0.13424419 0.20895606 0.10953702
000110 8e a1 5a be d2 cc 98 bd 75 1a 5b 3d a7 e5 3d 3e
       -0.2135069 -0.074609414 0.05349203 0.18544637
000120 6c e8 58 3e f5 bf 8b bc 96 e2 74 3d 32 82 10 be
       0.21182412 -0.017059306 0.0597864 -0.14112166
000130 3b 4f 4f 3e 82 db 3b 3d c3 bc b4 3d e8 08 a5 3e
       0.20245068 0.045863636 0.08825066 0.32233357
000140 35 b9 c6 3d 07 5a c0 bd 53 f8 08 be 10 a8 d0 3d
       0.09703294 -0.09392171 -0.13375978 0.101883054
000150 cc 1b ab bc 77 1f 99 bc 1e bb ff bd 15 3f 08 3e
       -0.020887278 -0.018691761 -0.12486862 0.13305314
000160 73 b1 a1 3d ba a2 d7 3c 25 93 3b 3e 04 3f 3d 3d
       0.07895174 0.026322711 0.1831785 0.046202675
000170 a9 4c 69 3e fe 5e 92 bc dd 2a 30 3e 06 fb d8 3d
       0.2278315 -0.017867561 0.17203851 0.10594754
000180 d4 5d 32 3e 17 39 05 3e 93 a0 b7 bc 05 26 49 3e
       0.17418605 0.1301006 -0.022415435 0.1964341
000190 44 27 f7 3d 61 f1 6b bd ac 9f 26 be 16 cc 35 be
       0.12068036 -0.057603244 -0.16271847 -0.17753634
0001a0 1b 9c 37 3e 28 48 2b 3e 51 39 93 bd af 8a b3 3d
       0.17930643 0.16726744 -0.071886666 0.08766686
0001b0 c8 06 84 bd 6f 86 39 bd 2d 0a e8 bc 7d 09 0d bc
       -0.06446606 -0.04529422 -0.028325165 -0.008608219
0001c0 f5 bd fa bd 9d f0 cb 3b 6c 8b 09 3e fb ab 5a bd
       -0.12243263 0.0062237517 0.13432091 -0.05338667
0001d0 cc 54 c0 3c fa 42 c1 3e d1 9a 1f bd 85 9f 99 bd
       0.023477934 0.37746412 -0.038966004 -0.07501129
0001e0 44 e7 27 3e d3 17 1b 3e b2 fb 2b be 86 97 18 3e
       0.16396815 0.15145807 -0.16795233 0.14901552
0001f0 bb 3f cb 3d ff c5 52 bd bc 11 d7 bc 1f 37 13 bd
       0.09924265 -0.051458355 -0.026253574 -0.03594124
000200 8e 22 03 be 99 a0 d2 bc 92 66 9b bc 35 8b ae 3d
       -0.1280615 -0.025711345 -0.018969808 0.085226454
000210 4b 51 46 be 1f 06 83 3c 41 a3 11 3d de 16 f4 3d
       -0.19366948 0.01599413 0.03555608 0.11918424
000220 60 e5 94 3d cd cb a4 bc 9c 5b a6 3e 73 5c 3f 3e
       0.07270312 -0.020116711 0.32491767 0.1868761
000230 1a 0b c9 3d c7 34 9c bd 38 fa b9 3c 94 2d d1 3c
       0.098165706 -0.07627254 0.022702321 0.025534429
000240 71 e9 4b be 39 98 14 3e 9e 5b 2a be a4 79 84 3e
       -0.1991327 0.14511193 -0.16636512 0.25874054
000250 a7 64 1e 3e 98 1f 07 3e 13 a2 d9 3d 90 78 16 be
       0.15468083 0.13195646 0.10626616 -0.14694428
000260 40 a1 e2 bd a4 9b 0f be 20 52 16 bd 05 fe d1 bd
       -0.11065912 -0.14024216 -0.036699414 -0.102535285
000270 02 bf 6e be a8 41 74 bd 8c 68 5f 3e 2d 42 db 3d
       -0.23315051 -0.059632927 0.21817225 0.107059814
000280 6c 4f 1e be e3 ac 77 be 14 49 b5 bc 0c e5 38 3e
       -0.15459985 -0.24187045 -0.022129573 0.18056124
000290 3d 20 94 bb b9 fb ef 3d f8 da c9 bd 26 12 1d 3e
       -0.0045204447 0.11717934 -0.09856218 0.15338954
0002a0 4d c5 28 be 7a 59 6f be 9f 5a fd 3c bf d9 bb bb
       -0.16481514 -0.23373976 0.030927 -0.0057327445
0002b0 a8 a1 76 bd de 20 48 3e b5 8a 06 be e8 11 04 3d
       -0.06021276 0.19543788 -0.1313885 0.03224364
0002c0 67 0e 6e bd 5a 43 13 bd f0 3f 67 3c 67 a3 cf 3d
       -0.058119204 -0.035952903 0.014114365 0.101385884
0002d0 f3 66 15 3e 55 aa 80 3e f2 4d 20 be c1 6b 30 3d
       0.14590053 0.25129953 -0.15654734 0.043071512
0002e0 e5 95 5f 3d 2b 42 44 bc cd 4d da 3d cc 96 fb bd
       0.05458631 -0.011978666 0.106593706 -0.122846216
0002f0 c6 f6 15 be 7e 9d 00 3c 2c 6b e8 ba d5 7e 1e be
       -0.14644918 0.007850049 -0.0017732135 -0.1547807
000300 44 87 69 be fc 3d 34 3e 0b fd ba 3c 02 70 ae 3d
       -0.22805506 0.1760177 0.022825738 0.085174575
000310 03 d2 40 be f6 76 f2 bd 3c a5 a4 3d d4 3d dd 3d
       -0.18830113 -0.11839096 0.080393285 0.108028084
000320 70 0a fc 3c 0d 79 22 3e c3 ee 2a 3e aa 61 f0 3c
       0.030766696 0.1586649 0.16692643 0.029343445
000330 d6 31 1c 3e 26 63 96 bb 23 38 c5 3d 5d 93 81 3e
       0.15253386 -0.004589456 0.09629848 0.25307742
000340 aa 2a 0a be d8 f7 a9 bd 62 b4 9e be da 10 37 3e
       -0.13492838 -0.082992256 -0.30996996 0.17877522
000350 45 19 00 3e a2 41 28 3e be 77 e6 3c d6 d9 b0 3d
       0.1250964 0.16431287 0.02813327 0.08635299
000360 a0 56 30 3d fc 82 28 be cd 0e 4e 3d 77 82 d9 bc
       0.043051362 -0.16456217 0.050307084 -0.026551468
000370 7d 14 b1 bd 43 e0 c1 bd d2 03 c2 3d c7 4a 37 3e
       -0.08646486 -0.09466603 0.09473385 0.17899619
000380 e2 68 f4 bd 1b f3 b1 bd 7d ed 08 be cf b6 5e 3e
       -0.11934067 -0.08688947 -0.13371845 0.21749423
000390 11 e6 93 bc 6c 6d fd bb 00 18 df bd ff ed 2b 3d
       -0.01805404 -0.0077339914 -0.108932495 0.041975018
0003a0 f8 10 d1 3d 31 bb fb bd 68 42 bf bd f7 f0 10 3e
       0.10208315 -0.12291563 -0.09338838 0.14154421
0003b0 76 9f b1 3c 0d 6b 59 3d 6d 63 34 bc 16 db 2c bc
       0.021682482 0.053080607 -0.011010033 -0.010550281
0003c0 e4 69 74 3d fb 79 e3 3d 32 0a 76 bd a3 f6 0e 3e
       0.059671298 0.1110725 -0.060068317 0.13961272
0003d0 ab 6c 44 3e 21 0a de 3e 1e cf 1d be 20 38 9c be
       0.19182079 0.43367103 -0.1541104 -0.3051157
0003e0 d8 1c ec 3d e0 e0 b9 3d 66 c1 0f 3e 08 43 c8 bd
       0.11528939 0.090760946 0.1403862 -0.0977841
0003f0 85 04 28 3d 7c ba dd bd 35 25 95 3d f8 39 74 3c
       0.041019935 -0.10826585 0.07282487 0.014906399

action_layer.2.bias f4 [64]
000000 bf 3a 46 3d 1a d0 29 3d d0 df 2b bd b3 21 91 3c
       0.04839587 0.041458227 -0.04196149 0.017716264
000010 c0 00 06 3e 91 bd fb 3c 5a 44 64 bd b9 19 03 3d
       0.13086224 0.03073004 -0.055729248 0.032006953
000020 c5 d4 30 bd 78 1f 75 3b b5 96 ad bd 39 f3 09 bc
       -0.043171663 0.003740279 -0.08476011 -0.008419805
000030 63 e1 ab bc ee 23 9d bd de 05 af 3d 98 13 00 3e
       -0.020981496 -0.07672869 0.08546041 0.12507474
000040 2e c0 96 bd 8b 1b cc 3c 86 a4 9f bd ac 23 14 bd
       -0.07360874 0.024915477 -0.07795052 -0.03616683
000050 b0 9e 28 3d aa 95 64 3c de 2e 7f 3d 3b ad 2b bd
       0.04116696 0.013951698 0.062300555 -0.041913252
000060 34 b2 bf 3d 7e ff 62 bd 93 e2 1f bc 6a 25 86 3a
       0.093601614 -0.055419438 -0.009758609 0.0010234539
000070 1c 09 ea 3d 64 12 92 3c 45 66 8d 3d ec 0f a1 3c
       0.11427519 0.017831035 0.06904272 0.019660912
000080 bf 18 88 3d b4 79 2b bc 51 80 16 3d 46 dd eb 3d
       0.06645345 -0.010466028 0.036743466 0.11516814
000090 10 13 22 bd b3 0d f3 bc 8c 17 c4 3d d6 fc 42 3d
       -0.03956896 -0.029669618 0.09574804 0.047604404
0000a0 2e 97 1e be ee e7 a5 3c 3a f2 f8 bd bf 82 94 bd
       -0.15487358 0.020252194 -0.12155576 -0.072515
0000b0 d9 82 96 3d 64 14 d7 3d 14 a0 3d bd ee be b0 3d
       0.07349176 0.10501936 -0.04629524 0.08630167
0000c0 c1 85 ca 3d 0c 7e ea 3d 63 ce b3 bd c0 21 1e bd
       0.09888793 0.11449823 -0.087795995 -0.038606405
0000d0 d0 b3 8c 3c 6f bd d0 3d 19 c3 2e bd e7 61 8c 3c
       0.017175585 0.101923816 -0.04266653 0.017136527
0000e0 6c f6 9a 3d a1 8d 71 bd 7b f5 65 bd dc 4e 05 3e
       0.075665325 -0.05897296 -0.05614231 0.13018364
0000f0 b4 b6 25 3c e8 67 b1 3d cd b6 d9 bd 88 84 a1 bd
       0.010114361 0.08662397 -0.106305696 -0.078866065

action_layer.4.weight f4 [4, 64]
000000 0c 03 b0 bc a3 83 94 bd 20 ff 2a bd 80 2b 6e be
       -0.021485828 -0.0725167 -0.041747212 -0.23258781
000010 cc ab 19 3e 73 8f 03 3d 38 d1 47 bd e6 4b 84 bd
       0.15006942 0.032119226 -0.04878351 -0.06459789
000020 fe db 2e bd 1c 41 e1 bc 54 77 1c be 94 c7 99 bc
       -0.04269027 -0.027496867 -0.15279895 -0.018771924
000030 be 81 b0 bd 39 ba 37 3d 28 41 c4 3d 57 a9 66 3e
       -0.08618496 0.04485533 0.0958274 0.22525536
000040 7a 2a 31 3d 56 ed 5d 3d 16 71 94 3d d1 e4 a2 bd
       0.0432534 0.05418142 0.07248132 -0.079537995
000050 00 c9 aa bc 58 ab 48 3e b6 9a 23 3e 74 6a 01 bd
       -0.020847797 0.19596612 0.15976986 -0.031595662
000060 6e 85 ed bd 74 ef 53 bd c4 4f 0f bd 3e 88 01 bd
       -0.11597715 -0.051742032 -0.03498818 -0.03162407
000070 0d db 26 3e da 67 df bc 02 9c 2b bb 49 47 a9 bd
       0.16294499 -0.0272712 -0.0026185517 -0.0826555
000080 74 21 5b 3c 42 9a 8c 3c 7d 57 aa bd ed 4f fb bc
       0.013374675 0.0171634 -0.08317468 -0.03067776
000090 e0 37 f4 bc 4f 00 2b 3e c3 4a 0a 3d c9 d2 3c bd
       -0.0298118 0.16699336 0.033762705 -0.046099458
0000a0 c8 04 53 bd 3d b8 a5 bd 13 03 e5 bd 9e 56 16 3d
       -0.05151823 -0.08091781 -0.11182227 0.0367037
0000b0 de 71 69 3e a5 48 2c 3e ff 03 d1 bd 76 46 f8 bc
       0.22797343 0.16824587 -0.1020584 -0.030307036
0000c0 0e 02 7c bd f2 1d 18 bd 1a d3 75 3d e0 c6 b2 3c
       -0.061525397 -0.037137933 0.060015775 0.021823347
0000d0 3d 1f af 3d 04 9f 9e 3a b0 8f 47 bd 8f 62 da bd
       0.0855088 0.0012101834 -0.048721015 -0.1066333
0000e0 26 1a 35 3d b1 e7 40 3e 66 70 35 3c 6d c3 63 bd
       0.04421439 0.18838383 0.011074161 -0.055606294
0000f0 91 6d 57 bc a6 74 0e be 95 d7 da bd b0 f6 30 bd
       -0.013148681 -0.13911685 -0.1068565 -0.04320401
000100 37 51 75 be f9 e6 2d 3e 7e bc 9f bd b1 df 51 bd
       -0.23956762 0.1698264 -0.07799624 -0.05123872
000110 3a 89 57 3e 84 68 5f bd fe ac cc 3d d1 88 8d 3d
       0.21048442 -0.054543033 0.09993933 0.06910861
000120 78 c6 44 bd bf b8 44 bd 08 8b 65 be 59 28 67 3e
       -0.048040837 -0.04802775 -0.22416317 0.22573985
000130 0b b3 df 3d 59 57 2d be 73 2f 01 3e 7c 4a e6 3d
       0.109228216 -0.16927852 0.12615757 0.112446755
000140 67 20 94 3d 5f a6 b7 3c 24 0f 11 bd c5 a8 98 3d
       0.07232743 0.0224182 -0.03541483 0.07454065
000150 c6 e3 92 bd ef 7e 3d 3e e5 d2 84 3e 20 66 57 3e
       -0.071723506 0.18505453 0.2594215 0.21035051
000160 c4 ce 29 be de 68 66 be fd b2 ac bd f9 a5 3c be
       -0.16582781 -0.22500941 -0.08432577 -0.18422689
000170 27 79 3c be 0f 7f 96 bd 76 36 40 3d 50 60 4a 3e
       -0.18405591 -0.07348453 0.046926938 0.19763303
000180 65 85 e9 bd a5 87 d8 3d 93 a0 05 3d 4c 44 a0 bd
       -0.11402396 0.10572747 0.03262384 -0.078255266
000190 e2 cb 21 3e 32 83 7d 3e 53 f1 cd bd 85 f8 6e be
       0.15800431 0.24757078 -0.100557946 -0.2333699
0001a0 19 73 95 3e de 03 2f bd 80 21 69 3e d5 a3 7e bd
       0.29189375 -0.042728297 0.22766685 -0.06216796
0001b0 4c fa f0 3d d4 60 41 3e a5 92 ad 3d 9c ce c0 bc
       0.1176649 0.18884593 0.08475236 -0.023536019
0001c0 4d ea 72 be 45 a4 b4 bd 5a 16 e9 3d 82 aa 5f 3d
       -0.23722191 -0.088203944 0.11381216 0.05460597
0001d0 ef 4e 6e 3e 7b 8b c3 3d 57 6b e9 3d c6 f5 4b 3e
       0.23272298 0.09548088 0.113974266 0.19917974
0001e0 03 21 cf 3d 34 af 25 3d 9a 66 3d bd 55 7b 22 bd
       0.10113718 0.04045029 -0.046240427 -0.0396684
0001f0 d9 17 4c bd 87 88 90 bd 09 65 36 3d cf ad 5a bd
       -0.04982743 -0.070572905 0.04452995 -0.053388413
000200 03 ba 77 3e 2a 39 55 3c 0e c9 51 3e 86 75 41 3e
       0.24192052 0.013014117 0.20486853 0.18892488
000210 58 c0 75 be 06 35 28 3e e8 78 ba 3d 78 71 45 3e
       -0.23999155 0.16426477 0.09105092 0.19281566
000220 63 e9 31 3e 77 2a 21 3c 97 58 12 bd c9 e7 8c bd
       0.17374186 0.009836785 -0.035729017 -0.06880147
000230 b5 d3 a5 3d 80 8c 11 3e 76 09 25 be b5 24 55 be
       0.080970205 0.14213753 -0.1611689 -0.20814784
000240 68 4d 20 bc 77 5b 4d be ad f8 2c bd 4f 92 9e bd
       -0.00978408 -0.20054422 -0.042229343 -0.0774275
000250 ac 0a dd bc 0e 80 7a be 97 cf 86 be 37 ad 17 bd
       -0.026982628 -0.24462911 -0.26330253 -0.037030425
000260 70 98 71 3e 0b ce 02 bd 8f fc e2 bd d1 88 05 3e
       0.23593307 -0.03193478 -0.11083328 0.13040473
000270 f1 e8 c5 bd a5 be 96 bc 6c 18 0e 3e 86 d7 0d 3d
       -0.09663571 -0.018401453 0.13876504 0.034629367
000280 22 22 24 3e 1e 60 80 3d 41 cd 0e 3e 69 bb 0b 3d
       0.16028646 0.06268333 0.13945486 0.034114275
000290 0e 05 28 be eb a0 4f be ac ec 03 3d 30 c1 33 3d
       -0.16408178 -0.20276229 0.03220813 0.04388541
0002a0 b9 4d d9 3d 28 5a 40 3e d5 b3 9a 3d b2 e0 46 be
       0.106105275 0.18784392 0.075538315 -0.19421652
0002b0 5f 8f 4d be fa de 12 be 4b c3 2f 3e 55 7a f7 3d
       -0.20074223 -0.14342871 0.17164342 0.1208388
0002c0 fb 86 09 3e 29 3b ee 3d dc b7 2f be 14 2e 32 be
       0.13430397 0.11632378 -0.1715998 -0.1740039
0002d0 8d c1 27 be 7e 23 39 be d6 82 25 3e ab 7b 2d bc
       -0.16382428 -0.18079945 0.16163191 -0.010588567
0002e0 97 37 b2 bd f2 3d 89 be 0e 61 db bd 95 9f 46 3e
       -0.08702009 -0.26805073 -0.10711871 0.19396813
0002f0 dd 2b de 3d be cd ea 3d 9e 15 b2 3d 90 c8 66 3e
       0.1084821 0.114650235 0.086955294 0.22537446
000300 1d 51 28 3e 56 72 10 be 51 ca 28 bb 5c 6f 47 be
       0.16437192 -0.14106116 -0.0025755356 -0.19476074
000310 8e 7e d1 bd 63 21 05 3d 55 da 07 be a5 c6 be bd
       -0.102292165 0.032502543 -0.13266881 -0.09315232
000320 e1 47 23 bd ef 14 3e 3e 47 3c 72 bd c1 2c 45 be
       -0.03986347 0.18562673 -0.059139516 -0.19255354
000330 d7 3c 54 be f9 06 67 3e 15 61 00 3e 76 29 ba 3d
       -0.20726334 0.22561254 0.12537034 0.09089939
000340 d2 86 f4 3d e4 0e 2a 3d c5 97 15 3e 56 92 d5 ba
       0.119397774 0.041518107 0.14608677 -0.0016294222
000350 4b 7b 74 bd 32 dc 31 3a 33 95 07 3d 23 e6 7b ba
       -0.059687894 0.0006784826 0.03310127 -0.0009609183
000360 69 81 30 bd 46 6d 85 3e 20 53 e5 3c 22 b6 f6 3c
       -0.043092165 0.26059932 0.027993739 0.030116145
000370 3b e0 88 3e 37 2a 8c 3d 99 9f 94 bd e5 ce 43 be
       0.26733574 0.06843989 -0.07257003 -0.19121893
000380 de b7 bf 3c 5f 78 82 bd 92 97 29 bc 53 e6 48 3d
       0.023403104 -0.06370615 -0.010351079 0.04904778
000390 6d f5 ec 3c 29 56 c7 bd 4e f1 68 bd ca 59 33 3e
       0.028925622 -0.097332306 -0.05687075 0.1751472
0003a0 0e 24 19 be df 20 36 be 66 d0 0e be 35 f6 74 3e
       -0.1495516 -0.17785977 -0.13946685 0.23922046
0003b0 0d 56 26 3e 0b 97 1b be 2d ef 82 be b0 04 29 3e
       0.16243763 -0.15194337 -0.25573102 0.16505694
0003c0 59 1d 5d 3d ef 54 b0 bd e4 a0 00 be 0f 98 36 3e
       0.053983066 -0.0860995 -0.12561375 0.17831443
0003d0 f8 25 17 be 00 95 20 3d 9c 60 42 be 1b 04 2d be
       -0.14760578 0.039204597 -0.18982166 -0.16896097
0003e0 06 26 4e be cf 34 22 3e 34 94 3f 3e b3 01 c4 bd
       -0.20131692 0.15840457 0.18708879 -0.095706366
0003f0 b7 2b 13 3c d3 d0 ab bd 34 c5 18 be fe 22 47 3d
       0.00898259 -0.083894394 -0.14918977 0.048617356

action_layer.4.bias f4 [4]
000000 6c 11 bf 3d 19 22 77 3d 1f ee 69 3d 23 a4 cb 3d
       0.09329495 0.060335252 0.057111856 0.09943416

value_layer.0.weight f4 [64, 8]
000000 9b d5 7c be b9 48 b9 3c cc e4 93 bd b3 91 2a 3e
       -0.24690859 0.022617685 -0.07221374 0.16657142
000010 da 10 6e 3e 56 16 73 be 0e f0 15 3e c1 4e 5b bd
       0.23248616 -0.23738989 0.14642355 -0.053541902
000020 eb 1f 81 3e 2c 74 c5 3d 74 f5 3e 3e 5e 43 11 3f
       0.25219664 0.09641299 0.1864832 0.5674342
000030 0e 27 17 be d2 83 e8 be 89 3b ce 3e d3 cf c4 bd
       -0.14760992 -0.4541307 0.40279797 -0.09609952
000040 88 11 89 3d d5 13 9d 3e 05 f2 d7 bc 6d 60 8f 3e
       0.06692797 0.30679193 -0.026360521 0.28003255
000050 8d 96 65 3e 11 e7 96 bd 50 4b 77 ba 5b 9c 0c be
       0.22420712 -0.07368291 -0.00094335247 -0.1373152
000060 d4 84 a5 3e 1c 9a 86 3e 8c dd 32 be 79 8b 70 bd
       0.32327902 0.2628945 -0.17467326 -0.05872676
000070 58 31 17 3e 64 b2 a3 3e fc b7 09 3e 29 3c 36 3e
       0.14764917 0.3197204 0.1344909 0.17796387
000080 a0 46 8a 3d 5f fe b9 bc af 37 85 be 0b 88 2b 3e
       0.06751752 -0.022704301 -0.26019046 0.16751115
000090 ee 52 8e 3e 39 71 c9 be 70 24 b1 be e0 a5 69 3e
       0.27797645 -0.39344195 -0.34598112 0.22817183
0000a0 c0 0b d0 be 52 82 71 3e 6a 39 b9 be d3 0f 20 be
       -0.40633965 0.2358487 -0.36176616 -0.15631036
0000b0 f3 67 1c 3d 28 7b 15 3f 72 a5 b5 bd 5d ca 31 3e
       0.03818507 0.58391047 -0.08869447 0.17362352
0000c0 b6 d3 98 3c 10 41 c6 3e bf e8 78 3e 57 72 cb 3e
       0.01865564 0.38721514 0.24307536 0.39735672
0000d0 45 59 79 3e 55 5a 16 bd 1c 2f 64 bd 54 1f 0b 3d
       0.2435046 -0.03670724 -0.05570899 0.033965424
0000e0 8b 09 90 3e 51 5f 57 be ee 7b 97 be 0b 5f a1 be
       0.2813228 -0.21032454 -0.29586738 -0.31517825
0000f0 b6 17 30 be 12 06 af 3d fd fc f5 3c 06 98 08 3d
       -0.17196545 0.0854608 0.03002786 0.033348106
000100 ad e8 5c bd af f0 81 3e 0b ff 54 be 2f 6f a7 3e
       -0.053932834 0.2537894 -0.20800416 0.32702014
000110 ca 19 a5 3d 67 c8 a9 3c 57 1a 9c 3b 44 20 63 be
       0.080615595 0.020725442 0.004763882 -0.22180277
000120 08 d3 62 3e c4 d3 d1 bd 6b e5 f6 3c 2a 5b 94 be
       0.22150815 -0.10245469 0.030138692 -0.28975803
000130 9f 2a 5b bb 7d 63 11 3e 7a 13 1d 3e 78 96 06 3e
       -0.0033442152 0.14198108 0.15339461 0.13143337
000140 fd 59 63 3e 65 9c 8a 3e e7 cd 7b 3e 90 26 95 3d
       0.22202297 0.27072445 0.24590264 0.07282746
000150 ce 02 96 bd 56 f5 2d be 4d 71 5b be b6 8e cd bd
       -0.07324754 -0.1698812 -0.2142994 -0.100369856
000160 f6 5c 95 3d c0 54 60 be dd 3f 81 be b9 61 9d 3e
       0.072931215 -0.2190733 -0.25244036 0.3073862
000170 ff 48 05 3e 99 e9 4f be f2 1d aa 3e c8 c9 08 be
       0.13016127 -0.20303954 0.3322597 -0.13358223
000180 1f b0 8c 3e 2b e6 4c 3e f5 f3 0e bd 0f 52 f9 3e
       0.2747812 0.20009677 -0.034900624 0.48695418
000190 44 2e 11 be 19 4e 7d bd 6c 05 b4 3e df be a8 3c
       -0.14177805 -0.061842058 0.35160387 0.020598827
0001a0 f3 d9 aa bd 6c 72 c1 3d c3 8f e2 bc 20 0c 65 3e
       -0.08342352 0.09445652 -0.027656442 0.22367907
0001b0 9a 5f b0 3e e0 b3 c3 3d ac a3 05 bd 90 47 3e 3d
       0.34447938 0.09555793 -0.032626793 0.046454966
0001c0 69 2f d3 3d 6c dc 98 3d cc fe d9 bb 21 87 b3 bd
       0.10311777 0.07463917 -0.0066526886 -0.08766008
0001d0 a5 bf 79 3e 0c ef 87 bd fe 1d a1 3c c1 ed 8c bd
       0.24389513 -0.066373914 0.019667622 -0.068812855
0001e0 52 8a db 3d 92 c1 9a 3e b3 0c 89 be 88 f3 01 be
       0.10719742 0.30225807 -0.267675 -0.12690556
0001f0 5d b5 45 bd 2f c7 a1 be 57 71 8e be 46 0d 2c bd
       -0.048268665 -0.31597278 -0.27820846 -0.042004846
000200 1c 26 fb 3d 20 0d d9 bd ed 16 03 3e bf f5 a5 3e
       0.12263128 -0.105982065 0.12801714 0.32414052
000210 89 40 60 be b0 eb 91 3e 02 4c ae 3d 13 c8 ad be
       -0.21899618 0.28500128 0.08510591 -0.33941707
000220 a3 2b 04 bd 5a bf b3 be f1 3f 95 3e f6 40 dd 3e
       -0.032268178 -0.35106927 0.29150346 0.43213624
000230 20 b1 9b 3d 48 c1 6c 3e d9 af aa 3e 44 51 34 3f
       0.07602143 0.23120606 0.33337286 0.704365
000240 57 37 1c 3e f5 da 96 be 15 27 a9 3e 61 25 5e 3e
       0.15255485 -0.29463926 0.3303763 0.21693946
000250 92 b9 14 be aa d3 25 bd 53 ce cf 3e 4b 16 6d 3e
       -0.14523914 -0.04048506 0.405871 0.23153035
000260 b2 89 4e 3e 5e 25 ab bd 41 8d 81 3e 7a 65 bb be
       0.20169714 -0.083567366 0.2530308 -0.36600858
000270 c1 d7 c8 3c 9f a5 b9 3d c6 69 89 bc 54 b6 b2 3e
       0.024516942 0.09064793 -0.01677407 0.3490473
000280 31 94 6e bd ec 90 26 3e 2c 62 33 3e ca 4a 62 3e
       -0.058246795 0.16266221 0.17517918 0.22098842
000290 38 b7 92 bd ad a3 81 be ca dd f9 3d 48 e1 bf bd
       -0.071638525 -0.25320187 0.12200506 -0.09369141
0002a0 91 2f 5e 3e b1 38 7e 3e 8b 6f b3 be 3e dc cf be
       0.21697833 0.24826314 -0.35046038 -0.4059772
0002b0 2c 73 61 3e 7e 68 c1 be 94 6d f5 3e a7 56 00 3f
       0.22016591 -0.37775034 0.47935164 0.5013222
0002c0 bb a1 75 bd e5 9d 08 be 04 f8 17 3e f9 d2 11 3e
       -0.05996869 -0.13341482 0.14840704 0.14240636
0002d0 5a 2e 89 3e 91 dc 21 3d 3e 9d fa 3d 37 7b e7 be
       0.26793176 0.03951699 0.12237023 -0.45211193
0002e0 b9 6b 56 3c 74 f9 74 3d ba 9d fa 3d 3a f1 c1 be
       0.0130872065 0.05980821 0.12237115 -0.37879354
0002f0 22 2d b5 bd 3f 8e 5e be 0b 9b 87 be bf 7a 2f 3c
       -0.08846499 -0.2173395 -0.26485476 0.010710417
000300 a6 47 3a 3d 00 a2 0d 3e 02 ce 27 3c 9e ca c2 bd
       0.045478486 0.1383133 0.010241987 -0.095113024
000310 66 8b 78 bd 69 b3 3a 3e 38 11 8c be 9c b7 1c bd
       -0.060679816 0.18232502 -0.27356887 -0.03826104
000320 52 6b 24 3e 53 06 74 3e c7 e8 7b bd 92 5c aa 3e
       0.16056564 0.23830537 -0.06150129 0.3327375
000330 9c eb 2f be 57 85 b7 3e 44 07 93 3e 17 08 e6 bb
       -0.17179722 0.35843918 0.2871648 -0.0070200074
000340 cb 38 ac 3d 22 45 a8 be c9 de b5 bd 8c 97 d0 3d
       0.0840927 -0.32865244 -0.088803835 0.10185155
000350 83 85 a9 be 26 38 ea 3c c4 a7 80 3e 0f 80 a3 3d
       -0.33109674 0.028591227 0.25127995 0.079834096
000360 c6 26 71 3e 44 02 61 be ab b6 63 3d d4 71 0e 3f
       0.23549947 -0.2197352 0.055594128 0.5564244
000370 0b 92 23 3e 8b 69 56 be 22 14 a3 be 8e 88 53 be
       0.1597368 -0.20938699 -0.31851298 -0.2065756
000380 94 1d 36 3e 09 15 31 bd 61 95 32 3e 0b 31 1b bf
       0.1778472 -0.04323295 0.17439796 -0.6062171
000390 5d 14 77 be ab 6d 52 3e ba 1f 51 3e 0a d4 38 be
       -0.24128862 0.20549648 0.20422259 -0.18049636
0003a0 46 d6 8f 3e 7a 03 43 be e2 9f 87 be 86 2b 97 3e
       0.28093165 -0.19044295 -0.26489168 0.29525393
0003b0 aa cc 52 be 2a 98 8b bd 1b da cf bd 56 4b 98 3e
       -0.20585886 -0.06816132 -0.10149022 0.29744977
0003c0 72 a5 8a 3d 38 b1 02 3e b7 0b d0 bd 35 d1 d1 3e
       0.067698374 0.12762916 -0.101584844 0.40979925
0003d0 10 82 73 3e 50 81 d5 bd ac 5f 0f bd 20 bd 2b bd
       0.23780084 -0.10425055 -0.03500335 -0.04192841
0003e0 ab 33 8a be e2 c0 81 be f9 11 ac 3e 2c b9 bb 3d
       -0.26992545 -0.2534247 0.33607462 0.09166178
0003f0 8a 77 9b 3d b5 ee c6 3d 20 94 4f 3e 3a 14 bf 3e
       0.0759116 0.097134985 0.20271349 0.3732012

value_layer.0.bias f4 [64]
000000 cb 4f 83 3e 92 a6 8d bd 3a a4 ee bd e0 dc 63 3d
       0.25646815 -0.069165364 -0.116524175 0.055630565
000010 96 48 7e be f7 80 a6 3e e8 87 9e 3e 13 43 ef 3c
       -0.24832377 0.32520267 0.30963063 0.029206788
000020 25 71 6e be bd 3a 2e 3e 85 52 60 3e 32 16 4e 3e
       -0.23285349 0.17014594 0.21906479 0.20125654
000030 03 b0 0f 3e b9 2c 53 bd ab b6 b4 be 49 52 5a be
       0.14031987 -0.051556323 -0.35295615 -0.21320452
000040 4c 4d b7 3d 34 8c ce 3e ab db 0a 3e 64 41 ff bb
       0.0895029 0.40341341 0.13560359 -0.0077897776
000050 90 89 bd ba 83 89 99 bc 38 6a 14 be 3a b7 88 be
       -0.0014460552 -0.018742329 -0.14493644 -0.2670229
000060 43 73 8a bc 26 5a ac 3e 6a 1f c3 3e 5b 80 3c 3e
       -0.016900664 0.33662528 0.38109905 0.18408339
000070 88 c2 62 be c3 6d b9 3e 1d 7d 8b 3e 48 9b ae 3b
       -0.2214452 0.36216554 0.2724389 0.0053285696
000080 d6 c1 20 3c 8c 01 ab 3e 36 be e5 bd 94 fb 8a 3e
       0.009811839 0.33399618 -0.112179205 0.27145064
000090 1b b8 fc 3c f2 ac 89 3e 5f 01 dc 3d 52 3a de 3e
       0.030849507 0.2688976 0.10742449 0.4340387
0000a0 b0 a3 b4 3e 5e 0c b1 be 85 32 87 3e a9 86 f9 bc
       0.35281134 -0.34579748 0.2640573 -0.030459719
0000b0 d6 a6 69 be 29 bf a5 3d e8 8b bf bd 95 f9 ad be
       -0.22817549 0.080931015 -0.09352857 -0.33979478
0000c0 a8 d7 c3 be d8 9b 5a be 7c bd 06 3e 74 42 aa 3e
       -0.3825047 -0.21348512 0.1315822 0.33253825
0000d0 5b 91 23 3e 3c c7 5c bc 0b 2b 95 3e 41 c8 d6 be
       0.15973417 -0.013475236 0.29134402 -0.41949657
0000e0 98 39 29 be 6c 42 22 3e 69 a9 c5 be c7 69 e7 3e
       -0.16525877 0.1584565 -0.38605812 0.4519789
0000f0 cd 42 16 3e cb 5c 72 be 81 01 ef 3e e7 23 3b 3e
       0.1467392 -0.2366821 0.46680835 0.18275414

value_layer.2.weight f4 [64, 64]
000000 ae 2e c9 3d 61 ed 13 3e f6 81 07 3d 9b ef 03 3e
       0.098233566 0.14446022 0.033082925 0.12884371
000010 62 a7 2b 3d fa 13 e0 bc f6 64 4b 3d 99 7c 01 be
       0.041907676 -0.027353276 0.04965683 -0.12645186
000020 b6 16 7e bd 58 fc d2 3d b0 cb 9e bd 9e e7 d7 3d
       -0.062033378 0.10302037 -0.07753694 0.10542224
000030 bb 2d c0 3d d1 07 b8 bd f0 82 cb bc 77 67 63 bb
       0.093837224 -0.08985866 -0.02484271 -0.003469912
000040 d0 8d a6 3d 6f 02 24 3d b4 41 14 3e 9b 26 d6 bd
       0.08132517 0.040041383 0.14478189 -0.10456582
000050 18 29 40 3d 01 84 8d 3d 97 37 3c bd e0 a8 2c bd
       0.04691419 0.06909943 -0.045951452 -0.04215324
000060 7c e1 a3 bd a1 27 02 3d 8d fd 90 3c 83 f7 c7 bc
       -0.08001992 0.031776074 0.017699027 -0.024410015
000070 8b 4c a2 3d e0 fb 9c 3a b7 fb b9 bb da cd eb 3d
       0.07924756 0.001197692 -0.0056757587 0.115138724
000080 f1 ab b1 3c e0 b5 cc 3c c9 c2 82 3d 4c 8b 15 bd
       0.021688433 0.024989069 0.063848086 -0.036509797
000090 26 e4 34 bc 5b 3a e7 3d 78 39 96 bd 4d 11 cb 3c
       -0.011040723 0.11290427 -0.0733518 0.024788523
0000a0 71 d1 1e 3e a9 0b a2 bd 74 76 30 bd 5c 8b 25 3d
       0.15509583 -0.0791238 -0.043081716 0.040416107
0000b0 85 de 06 be a3 1b ba 3d bb 8e bc 3d a0 c9 a4 bd
       -0.13170822 0.090873025 0.09206911 -0.080462694
0000c0 5c ca c7 bd db 95 f9 bb 81 f9 dd 3d 38 a0 8f bd
       -0.09755394 -0.007616741 0.10838605 -0.07012981
0000d0 3b 9c 40 3d eb 7b 16 be d5 13 01 3d c3 4f 0b 3b
       0.047023993 -0.14695708 0.031513054 0.0021257258
0000e0 b4 f7 c5 3c ac ee d1 3a 36 ea 8d 3c 28 ca e5 3d
       0.024165966 0.0016016564 0.017323595 0.11220199
0000f0 ac 00 b7 3d fa 7e 62 bd 00 73 f7 bd 6d 5c ac 3d
       0.08935675 -0.055296876 -0.120824814 0.08416066
000100 c8 9c 43 3d 08 90 70 3e b5 23 ee 3d 9d 59 62 3d
       0.04775694 0.23492444 0.11627904 0.055261243
000110 60 13 0f be d0 4e 36 bb 88 11 d7 3d 70 07 b8 be
       -0.13972235 -0.0027817972 0.10501391 -0.35943174
000120 ce 45 db 3c 3a b3 75 bc cc f0 eb 3d f4 05 8d 3e
       0.026766684 -0.014996344 0.11520538 0.27543604
000130 94 3a 71 3e 65 be fe 3c 74 03 52 be b2 19 4d bd
       0.23557502 0.031096647 -0.2050913 -0.050073333
000140 6c 47 1b 3e 14 f1 ed 3e 9a 69 d7 3d 99 c5 4c bd
       0.15163964 0.4647299 0.10518189 -0.04999313
000150 8d 56 a2 3d f3 6e 74 bb 4c be f3 bc e2 11 fa be
       0.079266645 -0.0037297576 -0.029753827 -0.48841769
000160 1e bc c2 bd f7 0f b9 3d 06 f8 26 3e 54 a2 7d 3d
       -0.09508537 0.09036248 0.16305551 0.061922386
000170 3d 1c dd be 26 e1 a1 3e f1 e8 45 3e 11 43 85 3c
       -0.43185607 0.31617087 0.19327141 0.016267331
000180 04 e1 93 3e c2 fb 39 bd 28 f6 d8 bc ec 69 58 3e
       0.2888261 -0.04540611 -0.026484564 0.21134156
000190 90 40 23 3e 52 50 47 3e 8d 25 5c 3c 26 bb 1e 3d
       0.15942597 0.19464234 0.013436687 0.038752697
0001a0 df cb a8 3e 9b c3 10 bf 8f b9 81 bd de 80 b6 3d
       0.3296804 -0.5654847 -0.063342206 0.08911298
0001b0 61 ff 7b be f2 d7 3c be 23 b2 61 be f2 a8 c0 be
       -0.24609138 -0.18441752 -0.2204061 -0.37628895
0001c0 cc f8 e1 be cd 04 2b 3d bd 66 d4 bc 47 fd a4 3e
       -0.4413513 0.041752625 -0.025927896 0.32224485
0001d0 89 b6 f3 3d a0 fc 1d be 6d 9f af 3e 6b 47 05 bf
       0.1190005 -0.154284 0.3430132 -0.520621
0001e0 3f 64 a0 be 44 75 4f 3e 50 39 d1 bd e8 d4 0d 3f
       -0.31326482 0.20259577 -0.102160096 0.55402994
0001f0 c8 67 af 3e ba 59 db bd 9a 9c 38 3e 89 06 fd 3c
       0.34258866 -0.10710473 0.18028489 0.030886905
000200 f8 7d d4 bd 4e 2b 27 3e 24 64 6d 3d af 6e 0e 3e
       -0.10375589 0.16325113 0.05795683 0.1390941
000210 2a ad b7 bd 57 df 63 3b 65 35 bd bd bb ef 4a bd
       -0.08968575 0.0034770572 -0.092387 -0.04954503
000220 96 b4 bb bd 19 96 0e be b9 0c cc 3b 97 81 49 3e
       -0.091653034 -0.13924445 0.0062271026 0.19678341
000230 b6 c9 70 3d 56 b9 de 3b d0 b2 ae 3d bb 17 c8 bc
       0.058786117 0.006796996 0.085301995 -0.024425378
000240 0c 1b 22 bd 8d d8 61 3e 46 f0 17 3e 7f fa b2 3d
       -0.039576575 0.22055264 0.14837751 0.087391846
000250 f6 13 84 3d c6 59 9f 3d c3 2a 46 bd fa ed 26 bd
       0.0644912 0.07780795 -0.048380625 -0.040754296
000260 c2 8b 3e bd 1f 8c a1 3c a0 39 ee 3d 26 a5 18 bd
       -0.046520002 0.019720135 0.11632085 -0.037266873
000270 12 53 0a bb 17 57 13 3c d3 2d b2 3c 30 e4 9d 3c
       -0.0021106643 0.008992932 0.021750366 0.019273847
000280 4a da 2c bd 79 b7 28 bc 80 fd 91 bd fa dd 57 3e
       -0.042200364 -0.01029765 -0.071284294 0.21080771
000290 95 be 81 3b fe fa f4 3d 9e b6 63 bb 21 dd 99 bd
       0.0039594867 0.119619355 -0.00347463 -0.0751288
0002a0 24 60 59 3e 21 77 65 be 58 5a 74 bd b0 d1 a0 3c
       0.21228081 -0.22408725 -0.05965647 0.019631237
0002b0 41 d2 a9 bd a4 81 e0 3c 92 11 8f bd 46 95 10 be
       -0.08292056 0.027405567 -0.06985773 -0.14119443
0002c0 bf 6e 5c bd a9 c3 44 3d aa 79 b1 3d 4a 29 58 3d
       -0.053816553 0.04803816 0.08665784 0.05277375
0002d0 18 de d1 bc 73 f8 59 bd b2 f2 e9 3c 6d 61 3f be
       -0.025618598 -0.053215455 0.028558109 -0.18689509
0002e0 6e 82 ca bd fe 04 d2 3b ec 09 10 3d 1d c5 f7 3d
       -0.09888159 0.0064092865 0.035165712 0.12098143
0002f0 b7 e7 3b 3e af 4d 2e be ae 7c c3 3d d2 a9 0f bd
       0.18350111 -0.17021821 0.09545265 -0.035074063
000300 79 b7 2d be c1 21 0a 3e d9 fa 86 bc 25 6e ac bd
       -0.1696452 0.13489439 -0.016477035 -0.08419446
000310 8f 17 d6 3d ec ea 5b bd 56 55 22 3d 02 82 02 be
       0.10453712 -0.053690836 0.039632164 -0.12744907
000320 d6 6a fc 3d b8 39 16 bc e6 ed 27 3d 47 a8 ec bc
       0.12325065 -0.009169035 0.040998362 -0.028888835
000330 01 d0 d1 3b d9 b7 88 3d ad f4 1a 3e 24 2b 91 bd
       0.00640297 0.06675691 0.15132399 -0.070883065
000340 89 00 e5 bd d7 88 b1 bd 85 a7 07 3d 4a 78 f9 bd
       -0.11181743 -0.08668678 0.033118743 -0.121811464
000350 59 dd b6 bc bb d1 be bd 5b 99 84 3d 44 4c 8f bd
       -0.022322344 -0.09317347 0.06474563 -0.069969684
000360 0d 12 90 3d c0 1d 47 be 65 6e 02 be 41 9c 13 3d
       0.07034693 -0.19444942 -0.12737425 0.036037687
000370 af 91 08 be fc 5b 97 bc 57 87 8e bd bd 9f 06 bd
       -0.13336824 -0.018476479 -0.06959408 -0.032867182
000380 ca c1 a9 3d f4 a4 03 be b9 64 56 3d 0c d1 12 bd
       0.082889155 -0.12855893 0.05234215 -0.035843894
000390 98 e9 ae 3d bb 7a 9c 3d b9 90 c2 3d 64 e5 09 be
       0.08540648 0.076405965 0.0950026 -0.13466412
0003a0 6d 6f d3 bd 68 37 02 be 97 10 03 bd ec 45 9a 3d
       -0.10323987 -0.12716448 -0.031998243 0.07532868
0003b0 0d c0 38 3d 14 eb 2e 3d 8b ff b0 3d ab be f3 bd
       0.04510503 0.042704657 0.08642491 -0.119016014
0003c0 ae 02 cf bd 7f 94 9c bc 8c b4 91 3d cb 9b 0e be
       -0.10107933 -0.019113777 0.07114515 -0.13926618
0003d0 99 98 91 3d c9 ef b1 3b 1f f1 62 3d 48 01 b9 3d
       0.07109184 0.005430196 0.055405732 0.090334475
0003e0 04 3a ea 3d 8b 92 ca 3d 5c ed 33 3d 2b b2 95 bd
       0.11436847 0.09891232 0.043927535 -0.073093735
0003f0 cc 89 69 3d e7 a4 f3 3d 97 e2 85 bd e5 1f 86 bd
       0.05701618 0.11896687 -0.06537359 -0.06549052

value_layer.2.bias f4 [64]
000000 9b f3 a6 bd 1f c0 5d 3e fb c6 eb 3c 5b 8f 2c be
       -0.08151933 0.2165532 0.028781405 -0.16851561
000010 c4 52 23 bd ff 3c 3d 3d 6e 9b 83 3d f4 42 13 3c
       -0.039873853 0.04620075 0.0642613 0.008988131
000020 de 77 b8 bd 22 89 7e bd 2b 4a eb bd fb 28 2a 3e
       -0.09007238 -0.0621425 -0.11488756 0.16617195
000030 27 09 47 3d 2b 13 fb 3d 68 07 79 bd ce df 14 bd
       0.048592713 0.122595154 -0.06079808 -0.03634625
000040 45 a6 c9 bd ba d8 07 be fc 3b 00 be 93 16 47 be
       -0.098461665 -0.13266268 -0.12522882 -0.19442205
000050 e6 76 d3 3d 0b 7d c9 bc 7e c6 ee bc 64 1d 49 bd
       0.103254125 -0.024595758 -0.029147383 -0.049100295
000060 53 c0 75 3c 46 9d e5 bd 04 34 a3 bd 4c 77 f0 3d
       0.014999467 -0.11211638 -0.079689056 0.11741504
000070 34 03 91 bd 6c 76 37 bd b1 ac 92 3d 98 e0 06 be
       -0.07080689 -0.04479067 0.071618445 -0.13171613
000080 aa 69 66 bd a9 6f db 3c 9b 6c 98 3d 12 c9 29 be
       -0.056253113 0.026786642 0.0744259 -0.16580608
000090 d8 b9 18 3d 10 8f 8a 3b 60 60 7d 3d 17 66 20 bc
       0.03728661 0.00422848 0.06185949 -0.009789965
0000a0 90 64 15 3e 51 ee 06 3e f5 88 2d be dc b9 e9 3d
       0.14589143 0.13176848 -0.16946776 0.11412403
0000b0 26 f3 14 bb 26 06 f6 bd 34 42 ea bd 44 cd 18 3e
       -0.0022727936 -0.120128915 -0.114384085 0.14922053
0000c0 c3 73 5e 3e ac 4a 16 3e 66 2d 98 bd 63 94 96 39
       0.21723847 0.14676923 -0.07430534 0.00028720786
0000d0 bf f3 0c be e6 e8 b5 bc 78 cd 3f 3d d8 8c 00 3d
       -0.13764857 -0.022205781 0.04682681 0.03138432
0000e0 ee 16 0c 3e e7 10 17 be 17 68 1c 3d 68 92 7a 3d
       0.13680622 -0.14752541 0.038185205 0.06117478
0000f0 cd 27 71 bd 4b 76 0b 3e 45 10 c7 3d 28 d0 94 bd
       -0.058875848 0.13619344 0.097199 -0.07266265

value_layer.4.weight f4 [1, 64]
000000 07 14 51 bd 62 da 22 be 51 b9 ed bd 7f fa 6b bc
       -0.05104449 -0.15903619 -0.11607612 -0.014402985
000010 79 49 06 3d e4 b0 49 bc 4e ba e8 bb 16 84 6f bb
       0.032784913 -0.01231024 -0.0071022874 -0.0036547235
000020 1c 7f fa bb 0a 71 8e 3a 4b 3f 89 bc f1 99 43 be
       -0.007644547 0.0010867429 -0.016753813 -0.19101693
000030 2e 7c a9 bb 4e c8 6d 3d b0 54 87 3c 5e 32 41 bc
       -0.005172274 0.058052354 0.016519874 -0.011791794
000040 3d c8 05 bc 5c bf ec 3a a2 44 16 bc f4 cd 0b 3e
       -0.008165416 0.0018062401 -0.009171637 0.13652784
000050 51 29 22 3c 25 00 82 3a 63 42 d8 bc dd f6 6a 3c
       0.009897546 0.0009918256 -0.026398843 0.014341083
000060 53 db 2a 3d bb 05 b6 bd 17 c5 11 3c 09 90 b8 3b
       0.04171307 -0.08887812 0.008897088 0.0056324047
000070 b0 ac 4a bc 70 dc 1f bc a4 eb a0 bc a0 3b d8 bb
       -0.0123702735 -0.009757146 -0.019643612 -0.0065989047
000080 2b 3a 88 3c 21 f3 b2 3c b6 df 55 bb 33 d8 05 3e
       0.0166293 0.021844449 -0.0032634563 0.13070755
000090 84 23 90 bd 3d 2b 79 bc 44 7c 89 bc 5b 8a 0c bc
       -0.07038024 -0.015208063 -0.016782887 -0.008577908
0000a0 43 5a 77 3d 6f 3f f1 bd 9b 2f b5 bd 91 f4 9a 3d
       0.060388815 -0.11779677 -0.08846971 0.075661786
0000b0 ac 0f f6 bb b7 74 20 3c 26 23 52 3b bc 45 d8 bb
       -0.0075091925 0.009793452 0.0032064407 -0.00660011
0000c0 84 05 18 3e c0 d5 19 3c 3c 27 79 3c 34 34 d3 3b
       0.14845854 0.009389341 0.015207108 0.006445432
0000d0 46 e7 f8 bc 80 c0 04 3c ce 2b 3d 3b 99 c3 55 bc
       -0.030383717 0.008102536 0.002886522 -0.013047122
0000e0 34 e2 35 be 18 25 e0 bb 93 68 5e 3c 1a c8 40 39
       -0.17762071 -0.0068403594 0.013574737 0.0001838509
0000f0 e6 e1 f3 bb 1d 2b 1e be 00 df 12 3c a0 2d 69 bb
       -0.0074427007 -0.15446134 0.0089643 -0.0035580173
